course/week3/fashion_project/checkpoints/augment.ckpt (torch, 160739 bytes, 12 tensors)

model.0.weight f4 [16, 784]
0.43036842 0.4555031 0.40671635 0.4654637 0.5204597 0.64852005 0.6169573 0.5646499
0.5339131 0.5568733 0.5269532 0.33313313 0.20675698 0.207809 0.23596776 0.13433583
0.21136016 0.19085167 0.34163356 0.47688693 0.5672678 0.57853323 0.717249 0.8198013
0.7691341 0.80247605 0.7610268 0.44372508 0.46894142 0.4494419 0.21545191 0.1533882
0.30488285 0.34208402 0.26967177 0.11023141 0.22913237 0.20686513 0.06765127 0.08174179
0.15479483 0.26975045 0.25834027 0.09438916 0.052903213 -0.02704925 -0.049937025 -0.00941168
0.34754917 0.37227148 0.34022915 0.5400098 0.6676654 0.7705604 0.69841343 0.60683846
0.46927547 0.41596892 0.09858122 0.108825125 0.1888087 0.21668223 0.24074982 0.050913133
0.24071252 -0.028277697 -0.117527805 -0.17195304 -0.1875839 -0.10663283 -0.09638106 -0.053128768
0.043853175 -0.085486054 -0.28807977 -0.2335875 0.014709221 0.33615813 0.47800046 0.43539563
0.2186623 0.47135016 0.6433377 0.6719407 0.46784547 0.132971 0.1376399 0.10586951
0.059433743 0.03862297 0.12910813 0.047390733 0.043732334 -0.1694883 -0.14974073 -0.23500057
-0.12448436 -0.048234653 -0.0356081 0.06842617 -0.06057894 0.02927958 -0.15530801 -0.16669229
-0.111572385 0.21459205 0.47899053 0.46952724 0.2526091 0.20954268 0.25347468 0.48327103
0.29889256 0.12367882 0.028765684 0.04057235 0.03172074 0.08679617 -0.055714186 0.03238602
0.061166946 0.059518717 -0.070077084 -0.17581211 0.028161423 0.052753042 0.06604276 -0.015678989
-0.14321634 -0.091505505 -0.25691617 -0.21985349 -0.12901832 0.085030474 0.40079898 0.3718149
0.48266917 0.18122439 0.20242022 0.2812103 0.23255593 0.20903641 0.040411524 -0.060385954
-0.045524772 0.0013948411 -0.0068459143 0.05839615 0.013292803 0.08431821 -0.07792724 -0.06864311
-0.09942151 -0.051475767 0.0908464 -0.230046 -0.2321227 -0.3341201 -0.28492463 -0.219816
-0.42697152 -0.20993677 0.2681173 0.3616112 0.57214785 0.112665564 0.16897358 0.39557695
0.44797298 0.13070448 0.0075574894 -0.016058812 0.0479931 0.13290086 -0.08966707 -0.008655351
-0.028206902 0.040944945 -0.110481925 -0.0031088274 0.016665148 0.038778085 0.1383426 -0.06289998
-0.19401054 -0.2626759 -0.33542484 -0.20942716 -0.3280427 -0.34874105 0.21523482 0.30900693
0.46186146 0.10910797 0.16107118 0.34823215 0.47819856 0.113019966 0.01595436 0.046332017
0.077442445 -0.051451907 -0.023270423 0.10886456 -0.023370551 -0.0051921657 -0.16404448 -0.031972013
-0.07010323 -0.02189032 0.19494525 0.0010720349 -0.16664563 -0.28929183 -0.19408002 -0.25363138
-0.33953562 -0.26465112 0.01982435 0.1582058 0.06433131 0.08597512 0.13404016 0.4301675
0.4168053 0.13172542 0.03382192 -0.039942343 0.051564712 -0.0023561432 -0.10714144 0.10145371
0.057734776 0.034232758 -0.08212728 -0.10283635 0.08856348 0.089281976 0.19772975 0.15438478
-0.11383807 -0.15242927 0.030923916 -0.031000542 -0.19491981 -0.21130526 -0.17639281 0.04639527
-0.14500307 0.12004235 0.14365543 0.47988567 0.29305434 0.112119086 0.04643654 -0.09356685
00000000: 4059 dc3e b437 e93e 203d d03e 4251 ee3e
00000010: d93c 053f 6905 263f eaf0 1d3f e58c 103f
00000020: 87ae 083f 408f 0e3f 68e6 063f 6d90 aa3e
00000030: 1ab8 533e e2cb 543e 88a1 713e 558f 093e
00000040: cc6e 583e 9f6e 433e 98ea ae3e 862a f43e
00000050: 7638 113f c11a 143f a19d 373f 7fde 513f
00000060: f9e5 443f 126f 4d3f a7d2 423f ef2f e33e
00000070: 1719 f03e 401d e63e 6d9f 5c3e cc11 1d3e
00000080: 9b19 9c3e a325 af3e 6b12 8a3e 01c1 e13d
00000090: ada1 6a3e 74d4 533e c08c 8a3d 3d68 a73d
000000a0: 8982 1e3e bb1c 8a3e 2d45 843e 1b4f c13d
000000b0: 0ab1 583d 6496 ddbc c48a 4cbd 7233 1abc
000000c0: f7f1 b13e 5e9a be3e 8432 ae3e 153e 0a3f
000000d0: 1fec 2a3f 7243 453f 39cb 323f c459 1b3f
000000e0: e044 f03e e1f9 d43e f3e4 c93d b5df de3d
000000f0: 1157 413e f2e1 5d3e 1f87 763e 4a8a 503d
00000100: 587d 763e a1a6 e7bc 6bb2 f0bd 7514 30be
00000110: fe15 40be 5062 dabd 6f63 c5bd 8d9d 59bd
00000120: 639f 333d 5013 afbd 317f 93be 9031 6fbe
00000130: f2fe 703c eb1c ac3e 7abc f43e 2dec de3e
00000140: 03e9 5f3e cf54 f13e c8b1 243f 4e04 2c3f
00000150: 7189 ef3e 8d29 083e 79f1 0c3e 1dd2 d83d
00000160: cc70 733d 1f33 1e3d ec34 043e c91c 423d
00000170: ad20 333d 578e 2dbe a255 19be fda3 70be
00000180: a8f1 febd b391 45bd cdd9 11bd 0523 8c3d
00000190: 9f21 78bd bbdb ef3c 1009 1fbe 62b1 2abe
000001a0: 1080 e4bd 05be 5b3e 3f3e f53e e065 f03e
000001b0: fb55 813e 5b92 563e 6fc7 813e 4d6f f73e
000001c0: 7208 993e 524b fd3d 03a6 eb3c 312f 263d
000001d0: 9bed 013d 31c2 b13d 8f34 64bd 34a7 043d
000001e0: 318a 7a3d e6c9 733d 9384 8fbd 1708 34be
000001f0: c9b2 e63c 9313 583d 6d41 873d 3971 80bc
00000200: 4ea7 12be 3d67 bbbd 848a 83be 4621 61be
00000210: 611d 04be 7524 ae3d 8635 cd3e 865e be3e
00000220: 6a20 f73e e392 393e 3f47 4f3e ccfa 8f3e
00000230: 2423 6e3e a40d 563e 8e86 253d 4357 77bd
00000240: 2f78 3abd 1ad3 b63a b153 e0bb cd30 6f3d
00000250: 0fca 593c 07af ac3d 5198 9fbd c294 8cbd
00000260: 819d cbbd 41d8 52bd ad0d ba3d 2e91 6bbe
00000270: 93b1 6dbe ca11 abbe a4e1 91be 7217 61be
00000280: 039c dabe aaf9 56be ac46 893e 1a25 b93e
00000290: 4878 123f 34bd e63d 6907 2d3e 1089 ca3e
000002a0: b75c e53e 65d7 053e d1a4 f73b c58d 83bc
000002b0: 6a94 443d 2a17 083e 5ea3 b7bd 2ccf 0dbc
000002c0: 2912 e7bc e3b5 273d 5944 e2bd 78bd 4bbb
000002d0: 5985 883c c5d5 1e3d afa9 0d3e b4d1 80bd
000002e0: b3aa 46be 757d 86be cebc abbe 1374 56be
000002f0: 36f5 a7be 308e b2be 8466 5c3e 2836 9e3e
00000300: 1b79 ec3e 0074 df3d d8ef 243e 7c4b b23e
00000310: 71d6 f43e 0377 e73d b8b2 823c a4c6 3d3d
00000320: 259a 9e3d 3cbf 52bd 9da1 bebc 62f4 de3d
00000330: 9973 bfbc 0b23 aabb 47fb 27be 16f5 02bd
00000340: 4892 8fbd 5453 b3bc ba9f 473e 8683 8c3a
00000350: 27a5 2abe 0f1e 94be eabc 46be f9db 81be
00000360: 9dd7 adbe 5a80 87be ad66 a23c b400 223e
00000370: 22c0 833d b913 b03d d341 093e ea3e dc3e
00000380: 8167 d53e 07e3 063e db88 0a3d 959a 23bd
00000390: 8535 533d 8669 1abb f96c dbbd f6c6 cf3d
000003a0: 4d7b 6c3d a637 0c3d 5932 a8bd dd9b d2bd
000003b0: c560 b53d 78d9 b63d ab79 4a3e 0b17 1e3e
000003c0: ef23 e9bd 6b16 1cbe 2754 fd3c d9f4 fdbc
000003d0: 0f99 47be 6860 58be 51a0 34be f708 3e3d
000003e0: af7b 14be c3d8 f53d 691a 133e 93b3 f53e
000003f0: 380b 963e b19e e53d 3e34 3e3d fa9f bfbd

model.0.bias f4 [16]
-0.4850318 -0.29921076 -0.6390784 -0.6645952 0.48870933 0.66225183 0.76103985 -0.5500278
-0.74195945 -0.9204693 -0.5449119 -0.6612133 -0.51336724 0.37800562 -0.9932265 -0.32172358
00000000: 1756 f8be 2732 99be a49a 23bf e922 2abf
00000010: 1c38 fa3e 5689 293f 82d3 423f 9fce 0cbf
00000020: 0ef1 3dbf e0a3 6bbf 597f 0bbf 4645 29bf
00000030: 096c 03bf f489 c13e 1844 7ebf f4b8 a4be

model.2.weight f4 [10, 16]
-0.14948334 0.013337724 -0.33883637 0.12445474 0.16843891 0.10538143 0.05419973 -0.073615864
-0.30194995 -0.18952726 -0.3115219 0.00043569622 -0.21506882 0.15738288 -0.15372004 -0.096249156
-0.019021982 -0.4687206 0.038617004 0.27694947 -0.17543097 -0.35094264 -0.08572403 -0.1484475
-0.35513237 0.17300215 0.027250897 -0.1360498 -0.23093925 -0.21815968 -0.15043402 0.0976811
-0.23133211 -0.19869897 -0.24837352 -0.17573197 0.10905962 0.1518875 -0.143679 -0.09343689
-0.048604056 -0.22921576 -0.23959635 -0.09428548 -0.23221083 0.19764568 -0.12261427 -0.038555577
-0.27383065 -0.22456257 -0.18317287 0.18319765 0.017542986 0.074749626 -0.1864673 0.043899443
-0.23533951 -0.558431 -0.16050453 0.049144123 -0.11327088 -0.00814152 -0.16921525 -0.06713473
-0.3304932 -0.22362259 -0.1263599 -0.0071024047 -0.049667597 0.14683658 -0.16847637 -0.21380292
-0.55636454 -0.30656543 -0.12978615 -0.24718778 -0.23513804 0.12844443 -0.11910212 0.067184836
-0.07684008 -0.3356426 0.17550072 -0.13792649 -0.060003124 -0.15148486 0.008571271 -0.039982233
-0.09062065 -0.16433121 0.15977685 -0.00022580399 0.12202691 -0.008003148 0.1792999 -0.0030362788
-0.13706838 -0.30379745 -0.267981 0.014780736 0.11220455 0.12557255 -0.028467309 -0.11742916
-0.034859788 -0.2685015 -0.33294463 -0.023110006 -0.28702864 0.16815135 -0.16664736 0.0030203096
-0.7878887 -0.40494245 0.24007544 -0.25355923 -0.1965548 -0.14530236 0.045359872 -0.28317684
-0.555324 -0.32664457 0.23136206 -0.18612806 0.18655707 0.008069256 0.21763605 -0.21308365
0.03462476 -0.02691577 -0.31398624 -0.07357143 0.026341166 0.08300344 0.19952287 -0.109538995
-0.033363923 -0.17481162 -0.2382024 -0.031107247 0.07207685 0.1953104 -0.05992972 -0.06902663
-0.12375658 -0.26687005 0.24482332 -0.1210533 -0.18005851 -0.052508574 0.065206885 -0.16810234
-0.11481658 -0.2916947 0.2625232 -0.12916023 0.0722768 0.04582298 0.028104331 -0.1592339
00000000: 2912 19be 7886 5a3c f67b adbe 20e2 fe3d
00000010: 407b 2c3e 38d2 d73d 8900 5e3d eac3 96bd
00000020: 2f99 9abe 6f13 42be cc7f 9fbe 286e e439
00000030: 003b 5cbe fa28 213e c968 1dbe 471e c5bd
00000040: fdd3 9bbc 25fc efbe dd2c 1e3d 52cc 8d3e
00000050: 2da4 33be c1ae b3be 1590 afbd 9f02 18be
00000060: e9d3 b5be 7a27 313e 463d df3c a450 0bbe
00000070: 577b 6cbe 4065 5fbe 600b 1abe 070d c83d
00000080: 53e2 6cbe be77 4bbe a155 7ebe 15f3 33be
00000090: a65a df3d 6688 1b3e 9620 13be d75b bfbd
000000a0: 0c15 47bd 89b7 6abe bf58 75be bf18 c1bd
000000b0: adc8 6dbe a163 4a3e 311d fbbd 74ec 1dbd
000000c0: 8833 8cbe bbf3 65be ab91 3bbe 2a98 3b3e
000000d0: 4fb6 8f3c 5516 993d 49f1 3ebe e7cf 333d
000000e0: d7fc 70be 56f5 0ebf 4d5b 24be 594b 493d
000000f0: 90fa e7bd 0364 05bc c346 2dbe ef7d 89bd
00000100: 6836 a9be 52fd 64be 7d64 01be 4abb e8bb
00000110: 4070 4bbd 545c 163e 1285 2cbe 27ef 5abe
00000120: e86d 0ebf 25f6 9cbe a9e6 04be cb1e 7dbe
00000130: 07c8 70be f086 033e d0eb f3bd 3498 893d
00000140: 555e 9dbd 59d9 abbe 76b6 333e 9a3c 0dbe
00000150: d6c5 75bd d91e 1bbe 846e 0c3c 69c4 23bd
00000160: 5297 b9bd 7146 28be 8b9c 233e ccc5 6cb9
00000170: 3fe9 f93d a31f 03bc 659a 373e 4efc 46bb
00000180: a75b 0cbe 578b 9bbe ce34 89be e62a 723c
00000190: 80cb e53d 1796 003e 4634 e9bc b37e f0bd
000001a0: 23c9 0ebd 0779 89be b877 aabe 3251 bdbc
000001b0: 6bf5 92be de2f 2c3e 9ba5 2abe 63f0 453b
000001c0: 13b3 49bf 9e54 cfbe 56d6 753e 84d2 81be
000001d0: a945 49be 24ca 14be 46cb 393d 8efc 90be
000001e0: b729 0ebf f53d a7be 2dea 6c3e 5b98 3ebe
000001f0: d108 3f3e ea34 043c fcdb 5e3e 9a32 5abe
00000200: b1d2 0d3d 767e dcbc cec2 a0be 9eac 96bd
00000210: 6ec9 d73c b5fd a93d b94f 4c3e fb55 e0bd
00000220: 9ca8 08bd d101 33be 54eb 73be a0d4 febc
00000230: 079d 933d 73ff 473e de78 75bd d55d 8dbd
00000240: 1774 fdbd 31a3 88be f7b2 7a3e cbea f7bd
00000250: 4261 38be 3b13 57bd 308b 853d 0523 2cbe
00000260: f524 ebbd 0259 95be 7169 863e 9442 04be
00000270: dc05 943d e1b0 3b3d 0e3b e63c 360e 23be

model.2.bias f4 [10]
-1.6790559 0.061571803 1.4009218 -0.39414036 1.0920721 -0.598493 0.5947601 -1.018041
-0.6867597 0.12107225
00000000: 4eeb d6bf b732 7c3d 6851 b33f c4cc c9be
00000010: 05c9 8b3f d636 19bf 3342 183f 2b4f 82bf
00000020: 7ccf 2fbf baf4 f73d

exp_avg f4 [16, 784]
-6e-45 -6e-45 -6e-45 -6e-45 -6e-45 -6e-45 -6e-45 -6e-45
-6e-45 -6e-45 -6e-45 -6e-45 -6e-45 -6e-45 -6e-45 -6e-45
-6e-45 -6e-45 -6e-45 -6e-45 -6e-45 -6e-45 -6e-45 -6e-45
-6e-45 -6e-45 -6e-45 -6e-45 -6e-45 -6e-45 -6e-45 -6e-45
-6e-45 -6e-45 -6e-45 -6e-45 -6e-45 -6e-45 -6e-45 -6e-45
-6e-45 -6e-45 -6e-45 -6e-45 -6e-45 -6e-45 -6e-45 -6e-45
-6e-45 -6e-45 -6e-45 -6e-45 -6e-45 -6e-45 -6e-45 -6e-45
-6e-45 -6e-45 -6e-45 -6e-45 -6e-45 -6e-45 -6e-45 -6e-45
-6e-45 -6e-45 -6e-45 -6e-45 -6e-45 -6e-45 -6e-45 -6e-45
-6e-45 -6e-45 -6e-45 -6e-45 -6e-45 -6e-45 -6e-45 -6e-45
-6e-45 -6e-45 -6e-45 -6e-45 -6e-45 -6e-45 -6e-45 -6e-45
-6e-45 6e-45 -6e-45 -6e-45 -6e-45 -6e-45 -6e-45 -6e-45
-6e-45 -6e-45 -6e-45 -6e-45 -6e-45 -6e-45 -6e-45 -6e-45
-6e-45 -6e-45 -6e-45 -6e-45 -6e-45 -6e-45 -6e-45 -6e-45
-6e-45 -6e-45 -6e-45 6e-45 6e-45 6e-45 6e-45 6e-45
6e-45 -6e-45 -6e-45 -6e-45 -6e-45 -6e-45 -6e-45 -6e-45
-6e-45 -6e-45 -6e-45 -6e-45 -6e-45 -6e-45 -6e-45 -6e-45
-6e-45 -6e-45 -6e-45 -6e-45 6e-45 6e-45 6e-45 6e-45
6e-45 6e-45 6e-45 6e-45 6e-45 -6e-45 -6e-45 -6e-45
-6e-45 -6e-45 -6e-45 -6e-45 -6e-45 -6e-45 -6e-45 -6e-45
-6e-45 -6e-45 -6e-45 -6e-45 -6e-45 -6e-45 -6e-45 -6e-45
6e-45 6e-45 6e-45 6e-45 6e-45 6e-45 6e-45 6e-45
6e-45 -6e-45 -6e-45 -6e-45 -6e-45 -6e-45 -6e-45 -6e-45
-6e-45 -6e-45 -6e-45 -6e-45 -6e-45 -6e-45 -6e-45 -6e-45
-6e-45 -6e-45 -6e-45 -6e-45 6e-45 6e-45 6e-45 6e-45
6e-45 6e-45 6e-45 6e-45 6e-45 6e-45 -6e-45 -6e-45
-6e-45 -6e-45 -6e-45 -6e-45 -6e-45 -6e-45 -6e-45 -6e-45
-6e-45 -6e-45 -6e-45 -6e-45 -6e-45 -6e-45 -6e-45 -6e-45
6e-45 6e-45 6e-45 6e-45 6e-45 6e-45 6e-45 6e-45
6e-45 6e-45 -6e-45 -6e-45 -6e-45 -6e-45 -6e-45 -6e-45
-6e-45 -6e-45 -6e-45 -6e-45 -6e-45 -6e-45 -6e-45 -6e-45
-6e-45 -6e-45 -6e-45 -6e-45 6e-45 6e-45 6e-45 6e-45
00000000: 0400 0080 0400 0080 0400 0080 0400 0080
00000010: 0400 0080 0400 0080 0400 0080 0400 0080
00000020: 0400 0080 0400 0080 0400 0080 0400 0080
00000030: 0400 0080 0400 0080 0400 0080 0400 0080
00000040: 0400 0080 0400 0080 0400 0080 0400 0080
00000050: 0400 0080 0400 0080 0400 0080 0400 0080
00000060: 0400 0080 0400 0080 0400 0080 0400 0080
00000070: 0400 0080 0400 0080 0400 0080 0400 0080
00000080: 0400 0080 0400 0080 0400 0080 0400 0080
00000090: 0400 0080 0400 0080 0400 0080 0400 0080
000000a0: 0400 0080 0400 0080 0400 0080 0400 0080
000000b0: 0400 0080 0400 0080 0400 0080 0400 0080
000000c0: 0400 0080 0400 0080 0400 0080 0400 0080
000000d0: 0400 0080 0400 0080 0400 0080 0400 0080
000000e0: 0400 0080 0400 0080 0400 0080 0400 0080
000000f0: 0400 0080 0400 0080 0400 0080 0400 0080
00000100: 0400 0080 0400 0080 0400 0080 0400 0080
00000110: 0400 0080 0400 0080 0400 0080 0400 0080
00000120: 0400 0080 0400 0080 0400 0080 0400 0080
00000130: 0400 0080 0400 0080 0400 0080 0400 0080
00000140: 0400 0080 0400 0080 0400 0080 0400 0080
00000150: 0400 0080 0400 0080 0400 0080 0400 0080
00000160: 0400 0080 0400 0000 0400 0080 0400 0080
00000170: 0400 0080 0400 0080 0400 0080 0400 0080
00000180: 0400 0080 0400 0080 0400 0080 0400 0080
00000190: 0400 0080 0400 0080 0400 0080 0400 0080
000001a0: 0400 0080 0400 0080 0400 0080 0400 0080
000001b0: 0400 0080 0400 0080 0400 0080 0400 0080
000001c0: 0400 0080 0400 0080 0400 0080 0400 0000
000001d0: 0400 0000 0400 0000 0400 0000 0400 0000
000001e0: 0400 0000 0400 0080 0400 0080 0400 0080
000001f0: 0400 0080 0400 0080 0400 0080 0400 0080
00000200: 0400 0080 0400 0080 0400 0080 0400 0080
00000210: 0400 0080 0400 0080 0400 0080 0400 0080
00000220: 0400 0080 0400 0080 0400 0080 0400 0080
00000230: 0400 0000 0400 0000 0400 0000 0400 0000
00000240: 0400 0000 0400 0000 0400 0000 0400 0000
00000250: 0400 0000 0400 0080 0400 0080 0400 0080
00000260: 0400 0080 0400 0080 0400 0080 0400 0080
00000270: 0400 0080 0400 0080 0400 0080 0400 0080
00000280: 0400 0080 0400 0080 0400 0080 0400 0080
00000290: 0400 0080 0400 0080 0400 0080 0400 0080
000002a0: 0400 0000 0400 0000 0400 0000 0400 0000
000002b0: 0400 0000 0400 0000 0400 0000 0400 0000
000002c0: 0400 0000 0400 0080 0400 0080 0400 0080
000002d0: 0400 0080 0400 0080 0400 0080 0400 0080
000002e0: 0400 0080 0400 0080 0400 0080 0400 0080
000002f0: 0400 0080 0400 0080 0400 0080 0400 0080
00000300: 0400 0080 0400 0080 0400 0080 0400 0080
00000310: 0400 0000 0400 0000 0400 0000 0400 0000
00000320: 0400 0000 0400 0000 0400 0000 0400 0000
00000330: 0400 0000 0400 0000 0400 0080 0400 0080
00000340: 0400 0080 0400 0080 0400 0080 0400 0080
00000350: 0400 0080 0400 0080 0400 0080 0400 0080
00000360: 0400 0080 0400 0080 0400 0080 0400 0080
00000370: 0400 0080 0400 0080 0400 0080 0400 0080
00000380: 0400 0000 0400 0000 0400 0000 0400 0000
00000390: 0400 0000 0400 0000 0400 0000 0400 0000
000003a0: 0400 0000 0400 0000 0400 0080 0400 0080
000003b0: 0400 0080 0400 0080 0400 0080 0400 0080
000003c0: 0400 0080 0400 0080 0400 0080 0400 0080
000003d0: 0400 0080 0400 0080 0400 0080 0400 0080
000003e0: 0400 0080 0400 0080 0400 0080 0400 0080
000003f0: 0400 0000 0400 0000 0400 0000 0400 0000

exp_avg_sq f4 [16, 784]
3.532023e-09 3.54675e-09 3.5237964e-09 3.5401346e-09 2.2396929e-09 2.210501e-09 1.9976927e-09 2.9592724e-09
3.2885654e-09 1.7562433e-09 1.914043e-09 3.3737386e-09 4.3451744e-09 4.007812e-09 4.529568e-09 4.5899076e-09
3.19351e-09 3.1863043e-09 6.9639877e-10 6.7102846e-10 3.3329421e-09 3.4801602e-09 3.4764833e-09 3.339728e-09
3.7036727e-09 3.485742e-09 3.426853e-09 3.30298e-09 3.603861e-09 3.726255e-09 2.5947655e-09 4.878575e-09
4.308176e-09 4.2910266e-09 4.480625e-09 4.1085055e-09 4.7880606e-09 4.757556e-09 4.702651e-09 4.7552424e-09
4.1354373e-09 3.6400039e-09 3.6961987e-09 3.9113934e-09 3.785284e-09 4.133018e-09 2.7526683e-09 2.8825557e-09
3.2431025e-09 3.3182845e-09 2.8606588e-09 2.841941e-09 3.005367e-09 2.9331404e-09 2.9151255e-09 3.3928396e-09
3.6711416e-09 2.673979e-09 4.8014352e-09 4.2481294e-09 3.449696e-09 3.4618093e-09 4.277851e-09 4.1662007e-09
4.5842192e-09 4.248428e-09 3.82202e-09 2.3519136e-09 4.6024766e-09 4.6625264e-09 3.5272734e-09 3.984664e-09
3.974004e-09 3.5463275e-09 3.3712413e-09 3.6541874e-09 1.6675566e-09 2.5570885e-09 2.718816e-09 2.7830913e-09
2.9887306e-09 2.9010034e-09 2.9520675e-09 3.5070715e-09 2.9203409e-09 4.4342294e-09 4.016464e-09 4.3871426e-09
4.499717e-09 4.494451e-09 3.9169854e-09 2.3893532e-09 4.443259e-09 3.9380867e-09 4.6374606e-09 4.667085e-09
4.330335e-09 4.693186e-09 4.6190505e-09 4.390435e-09 3.3546907e-09 2.698745e-09 3.844163e-09 3.9588004e-09
9.51068e-10 3.3815566e-09 2.8470397e-09 2.8934053e-09 2.9462535e-09 3.0560876e-09 3.037691e-09 3.5506935e-09
2.6061808e-09 4.83373e-09 3.7046426e-09 2.995991e-09 4.7713256e-09 4.7173123e-09 4.7541793e-09 4.1879002e-09
4.4391886e-09 2.6160905e-09 4.7346718e-09 4.772142e-09 2.9437472e-09 3.6509924e-09 4.659235e-09 2.959323e-09
2.6506897e-09 2.4154274e-09 3.8845207e-09 4.0091725e-09 4.0490185e-09 1.7738695e-09 2.806938e-09 2.984759e-09
2.983744e-09 2.8720024e-09 2.96485e-09 3.3287397e-09 4.842201e-09 3.8358787e-09 4.5564357e-09 4.762292e-09
3.389188e-09 3.3175525e-09 3.296715e-09 3.310334e-09 4.706061e-09 4.701022e-09 4.742059e-09 4.3030948e-09
3.951967e-09 4.6608775e-09 4.2332498e-09 2.832308e-09 4.2031574e-09 3.881856e-09 3.7289283e-09 3.6840764e-09
4.1223767e-09 2.5462623e-09 2.7614897e-09 3.0495093e-09 2.8732774e-09 3.0105038e-09 3.0441027e-09 2.8603568e-09
3.4441876e-09 4.049175e-09 4.3820094e-09 4.5647424e-09 4.682204e-09 4.620197e-09 3.916221e-09 2.3930995e-09
4.1066266e-09 3.9974237e-09 4.808197e-09 3.5176988e-09 2.9937204e-09 4.7808424e-09 4.4233435e-09 3.791222e-09
4.3088195e-09 4.0146e-09 3.7019416e-09 3.585799e-09 3.6598928e-09 3.4783174e-09 2.5598605e-09 2.8411096e-09
2.7098015e-09 3.529597e-09 3.4969079e-09 2.6606775e-09 3.4435796e-09 4.047223e-09 4.3851296e-09 4.565553e-09
4.63852e-09 4.5724535e-09 3.913891e-09 2.3950666e-09 4.1626698e-09 4.0227155e-09 4.763323e-09 3.5244454e-09
2.9959808e-09 4.7663447e-09 4.4044355e-09 3.5555816e-09 4.3474757e-09 3.808578e-09 3.461567e-09 3.527979e-09
3.915e-09 3.4624728e-09 2.6138056e-09 2.836565e-09 2.8354457e-09 3.2811982e-09 3.2861136e-09 3.5825691e-09
1.924404e-09 4.6401754e-09 4.0259005e-09 4.2661634e-09 4.2402952e-09 4.2225765e-09 4.4961497e-09 4.7036144e-09
2.6238747e-09 4.6085433e-09 3.6747847e-09 4.644171e-09 4.794849e-09 4.20279e-09 4.0283497e-09 4.3746122e-09
2.9091556e-09 3.7738968e-09 2.4015843e-09 2.5194828e-09 3.862723e-09 2.385594e-09 2.8209963e-09 2.8510931e-09
3.239503e-09 2.605905e-09 2.519894e-09 3.6576202e-09 1.8354406e-09 4.835869e-09 4.1273873e-09 3.5807746e-09
00000000: 01b8 7231 16bb 7331 4827 7231 b546 7331
00000010: 18e9 1931 8be7 1731 c847 0931 125c 4b31
00000020: 0efd 6131 5160 f130 3388 0331 70d7 6731
00000030: 8f4c 9531 16b5 8931 80a2 9b31 41b5 9d31
00000040: d274 5b31 0ff6 5a31 b56c 3f30 6e73 3830
00000050: bd09 6531 a027 6f31 f1e6 6e31 1e81 6531
00000060: b383 7e31 d289 6f31 d67d 6b31 a3fa 6231
00000070: cba7 7731 7c08 8031 994f 3231 66a0 a731
00000080: 1e07 9431 4570 9331 fff3 9931 cc2a 8d31
00000090: 3a84 a431 e877 a331 f594 a131 8e63 a331
000000a0: b117 8e31 a023 7a31 3700 7e31 fb64 8631
000000b0: b60f 8231 6902 8e31 7429 3d31 7516 4631
000000c0: 43dd 5e31 e107 6431 3e95 4431 f44b 4331
000000d0: fa86 4e31 5a90 4931 6e53 4831 7727 6931
000000e0: 6847 7c31 23c1 3731 dff9 a431 f1f6 9131
000000f0: b20f 6d31 cbe4 6d31 60fc 9231 4a26 8f31
00000100: 3883 9d31 91f9 9131 d852 8331 4d9f 2131
00000110: d023 9e31 0434 a031 7364 7231 7ae9 8831
00000120: b58b 8831 a7b3 7331 81ab 6731 251d 7b31
00000130: ef2f e530 c7b8 2f31 ebd5 3a31 a940 3f31
00000140: 4e62 4d31 fe5a 4731 52dd 4a31 0e01 7131
00000150: 2eaf 4831 e55b 9831 3101 8a31 b7bd 9631
00000160: ee9b 9a31 9c6d 9a31 2b96 8631 f231 2431
00000170: 52ab 9831 c74f 8731 8957 9f31 1d5c a031
00000180: 08ca 9431 b341 a131 99b5 9e31 adda 9631
00000190: 5888 6631 d374 3931 9e15 8431 fa05 8831
000001a0: bbb6 8230 f960 6831 a7a5 4331 53d5 4631
000001b0: 0a77 4a31 4303 5231 a0bf 5031 7600 7431
000001c0: 6b18 3331 f015 a631 c394 7e31 08e2 4d31
000001d0: 06f1 a331 eb15 a231 345a a331 29e5 8f31
000001e0: 8487 9831 c0c6 3331 9dae a231 34f8 a331
000001f0: f34a 4a31 f0e4 7a31 1117 a031 f65c 4b31
00000200: 6d27 3631 a6fc 2531 9b78 8531 0ec1 8931
00000210: 8b1f 8b31 7ccc f330 2de4 4031 701c 4d31
00000220: 940a 4d31 cd5c 4531 31be 4b31 cfbf 6431
00000230: 7360 a631 bfcc 8331 d58e 9c31 90a1 a331
00000240: 3ae7 6831 00fb 6331 6c8c 6231 037c 6331
00000250: f3b2 a131 a086 a131 98ef a231 6cda 9331
00000260: dfc9 8731 8325 a031 0f74 9131 7da2 4231
00000270: 5d6b 9031 2b61 8531 0020 8031 f52a 7d31
00000280: cfa4 8d31 52fa 2e31 a4c4 3d31 898f 5131
00000290: 3b73 4531 58e1 4e31 6c30 5131 ee8f 4431
000002a0: caae 6c31 ec20 8b31 9090 9631 e6d7 9c31
000002b0: 1ae1 a031 afbf 9e31 728f 8631 da73 2431
000002c0: 451a 8d31 b659 8931 5935 a531 03bc 7131
000002d0: 16ba 4d31 bc44 a431 24fc 9731 f143 8231
000002e0: c70c 9431 ccf0 8931 3f65 7e31 0b6a 7631
000002f0: 8481 7b31 3507 6f31 8be9 2f31 543d 4331
00000300: 5537 3a31 548d 7231 414e 7031 22d7 3631
00000310: 18a4 6c31 c00f 8b31 02ac 9631 07df 9c31
00000320: da60 9f31 ba1b 9d31 f37a 8631 7596 2431
00000330: 3b07 8f31 2e38 8a31 a2aa a331 b332 7231
00000340: dae1 4d31 36c5 a331 d355 9731 7456 7431
00000350: cd60 9531 9bdc 8231 88e0 6d31 dd70 7231
00000360: b484 8631 77f0 6d31 8e9e 3331 61ed 4231
00000370: b0d9 4231 737b 6131 ecd1 6131 3931 7631
00000380: 793e 0431 6a6f 9f31 3254 8a31 9295 9231
00000390: 08b2 9131 2d16 9131 8d7c 9a31 6e9d a131
000003a0: b14f 3431 2d59 9e31 7f87 7c31 8f92 9f31
000003b0: f0bf a431 2268 9031 bd69 8a31 7f4f 9631
000003c0: 68ea 4731 8cab 8131 1e09 2531 3623 2d31
000003d0: dfb8 8431 d0ef 2331 7edb 4131 f6ec 4331
000003e0: f19d 5e31 9113 3331 722a 2d31 8959 7b31
000003f0: d342 fc30 c128 a631 e2d0 8d31 a711 7631

exp_avg f4 [16]
6e-45 2.6651021e-05 0.00080813776 -0.0016999979 -0.00043482336 -2.4913694e-05 -0.00035115916 -0.00047224294
0.0008972289 2.5380023e-06 -0.0014773419 -0.00049588864 0.0007559824 0.0015942288 -0.0015355935 9.545436e-05
00000000: 0400 0000 a290 df37 35d9 533a 77d2 deba
00000010: 01f9 e3b9 c0fd d0b7 c91b b8b9 6097 f7b9
00000020: 0334 6b3a 8c52 2a36 5ea3 c1ba 86fe 01ba
00000030: 1f2d 463a 71f5 d03a f845 c9ba ab2e c838

exp_avg_sq f4 [16]
4.9688276e-09 2.4162687e-06 4.136961e-05 9.463667e-05 9.8379816e-05 9.450574e-05 5.2739713e-05 6.3599487e-06
2.0008008e-07 3.8737272e-07 4.6491306e-05 1.0044229e-05 3.971539e-05 2.35327e-05 4.6895704e-05 5.1783918e-05
00000000: 45ba aa31 2e27 2236 4884 2d38 ad77 c638
00000010: 4351 ce38 6231 c638 d634 5d38 8b67 d536
00000020: 98d5 5634 1af8 cf34 a9ff 4238 a383 2837
00000030: 1394 2638 1768 c537 e1b1 4438 8f32 5938

exp_avg f4 [10, 16]
6e-45 0.00044516518 -0.017827466 -0.14197378 -0.079704255 -0.18515179 -0.08792879 -0.073495
-0.07338833 -0.00026368507 0.0051264213 0.004067158 -0.04819876 -0.1541451 -0.0038523453 0.0136665255
6e-45 7.298625e-07 -0.0544633 -0.093749136 -0.028430957 -0.030242028 0.005208371 -0.039840106
7.628957e-14 7.1039236e-10 -0.0076393415 0.03953287 0.0068406207 -0.00029959079 0.016031617 -0.037356243
6e-45 0.0004711943 0.0050980914 0.07860217 0.052937895 0.0056162826 -0.0045733545 0.01741604
0.011730052 0.00013662521 0.013188954 -0.022723278 0.0041424623 0.10182422 0.02260313 -0.03230665
6e-45 0.0005851096 0.038666017 0.2791445 0.2180735 0.15686788 0.005047267 0.034352202
1.1354024e-06 1.1347302e-08 0.008248921 -0.053852696 0.019815234 0.01224988 0.009467002 0.057445172
6e-45 -0.0010885537 0.0014228876 -0.12792784 -0.06460147 0.06708967 0.037990075 0.002531198
1.7572396e-10 3.3828286e-07 -0.0031305614 0.00890919 -0.005166635 -0.08367242 0.004558969 0.016023807
6e-45 -0.039271712 -0.063281015 0.0011127522 -0.04470956 -0.034287095 -0.12055897 -0.037930828
1.2330236e-07 2.0521025e-08 0.016780999 0.024554648 0.0031768738 -0.017193604 -0.21625946 0.0047729127
6e-45 5.4025473e-05 0.018999463 -0.019697966 -0.10769455 -0.12191272 -0.012984585 0.05269086
0.048582926 9.1695954e-05 0.0019010595 0.027780376 0.016349297 0.113609 0.0133610135 -0.033650372
6e-45 -0.008753794 -0.052209444 0.019712936 0.05457044 -0.039228816 -0.008996876 0.011488411
1.3196199e-11 1.297078e-10 0.0045207203 0.0053884746 -0.041515484 -0.015177316 0.10368298 -0.023950696
6e-45 -0.011174777 -0.006977341 -0.0057421387 0.020042866 0.083041586 0.075063005 0.012303992
0.013073995 3.4984878e-05 0.0052206563 0.007872223 -0.026852246 0.013988659 -0.036545284 0.043245982
-6e-45 0.0587326 0.13057213 0.0105185 -0.020483928 0.09820696 0.11173384 0.02048325
1.0816747e-07 7.9704785e-09 -0.044217817 -0.041528966 0.071408644 0.028816309 0.08695238 -0.007890452
00000000: 0400 0000 0f65 e939 e80a 92bc 9361 11be
00000010: fc3b a3bd 6e98 3dbe 0214 b4bd 8c84 96bd
00000020: 9f4c 96bd 363f 8ab9 8afb a73b cb45 853b
00000030: 106c 45bd 37d8 1dbe a177 7cbb 90e9 5f3c
00000040: 0400 0000 c5eb 4335 e914 5fbd 8cff bfbd
00000050: 0ae8 e8bc 21be f7bc fcaa aa3b 612f 23bd
00000060: f1c9 ab29 6b45 4330 7153 fabb 38ed 213d
00000070: 4927 e03b 6512 9db9 bd54 833c dc02 19bd
00000080: 0400 0000 a10a f739 e40d a73b 2dfa a03d
00000090: 68d5 583d cb08 b83b 14dc 95bb 15ac 8e3c
000000a0: 672f 403c 0d43 0f39 7c16 583c 2b26 babc
000000b0: 7ebd 873b 3789 d03d 332a b93c fa53 04bd
000000c0: 0400 0000 0a62 193a 4260 1e3d 07ec 8e3e
000000d0: a94e 5f3e f9a1 203e 8b63 a53b e5b4 0c3d
000000e0: 2164 9835 f6f1 4232 7b26 073c a594 5cbd
000000f0: 8f53 a23c b8b3 483c 7c1b 1b3c a14b 6b3d
00000100: 0400 0000 cdad 8eba 2f80 ba3a 84ff 02be
00000110: c74d 84bd 4f66 893d 7b9b 1b3d 75e2 253b
00000120: e635 412f 3e9d b534 1b2a 4dbb daf7 113c
00000130: e04c a9bb 725c abbd 6763 953b 5c44 833c
00000140: 0400 0000 60db 20bd 7a99 81bd c5d9 913a
00000150: 5f21 37bd a070 0cbd 9fe7 f6bd 5b5d 1bbd
00000160: 1865 0434 3646 b032 4e78 893c d426 c93c
00000170: 1933 503b 9ad9 8cbc 1f73 5dbe 1866 9c3b
00000180: 0400 0000 6999 6238 c3a4 9b3c a15d a1bc
00000190: f68e dcbd 60ad f9bd 4cbd 54bc 5fd2 573d
000001a0: e4fe 463d e44c c038 f92c f93a ac93 e33c
000001b0: f6ee 853c d6ab e83d 27e8 5a3c f9d4 09bd
000001c0: 0400 0000 136c 0fbc 92d9 55bd 067d a13c
000001d0: 4185 5f3d 65ae 20bd a267 13bc e339 3c3c
000001e0: 6626 682d 809d 0e2f 8d22 943b cd91 b03b
000001f0: 240c 2abd 47aa 78bc be57 d43d 4034 c4bc
00000200: 0400 0000 6916 37bc 2ea2 e4bb 8d28 bcbb
00000210: f030 a43c b511 aa3d a2ba 993d af96 493c
00000220: 4f34 563c babc 1238 0a12 ab3b 7ffa 003c
00000230: 3ef9 dbbc b030 653c 82b0 15bd b322 313d
00000240: 0400 0080 9891 703d b3b4 053e c955 2c3c
00000250: e9cd a7bc bb20 c93d b6d4 e43d 7dcc a73c
00000260: b249 e833 89ee 0832 be1d 35bd 471a 2abd
00000270: b23e 923d 2e10 ec3c 1714 b23d f446 01bc

exp_avg_sq f4 [10, 16]
1.0976621e-07 0.004322414 0.012016143 0.64245963 0.6056802 0.26357427 0.06428988 0.0018799629
0.00053939625 8.083279e-05 0.007852891 0.0070347693 0.024613844 0.09612397 0.0107908 0.029163882
1.6829266e-07 8.147035e-07 0.019502452 0.36306188 0.061989702 0.028758379 0.0019666317 0.0017154316
2.865356e-07 4.6305418e-06 0.015486231 0.009172222 0.015247223 0.0050666085 0.002192818 0.058168903
2.7631265e-06 0.00014513568 0.0042756204 0.050081946 0.25158882 0.438415 0.026374267 0.001568797
6.901837e-05 0.00051089923 0.0061845807 0.0027180358 0.011657953 0.101408 0.006040259 0.20362224
1.578229e-09 0.00034035268 0.018610006 0.7785822 0.21491963 0.22494835 0.0032259014 0.0031395846
3.2475228e-08 4.935704e-09 0.017714778 0.019393781 0.061341196 0.014871241 0.0037226249 0.02797105
1.4795943e-07 0.0002594775 0.008903682 0.18490265 0.12737142 0.49544615 0.018131334 0.00051849725
2.1695798e-09 0.00016024249 0.0075396686 0.001499571 0.010502725 0.07884731 0.002494321 0.249471
1.7585246e-06 0.011060783 0.14931495 0.022978416 0.15498997 0.13580643 0.17675492 0.014439383
0.0003376889 7.1462914e-06 0.14334553 0.028473496 0.31084484 0.016291175 0.42915985 0.047628194
1.6064101e-06 5.1586772e-05 0.0055425162 0.42594698 0.62889946 0.4880491 0.079306476 0.0014360546
0.00026831627 0.00036843005 0.00376797 0.0053463583 0.010723712 0.119428135 0.0076550385 0.16259377
3.4633245e-09 0.0015994288 0.2049741 0.0030305977 0.0665303 0.19913034 0.35404405 0.0020913107
5.2519066e-08 5.740145e-09 0.19428357 0.008861527 0.38230962 0.024781998 0.5629611 0.015925992
1.917796e-06 0.016173076 0.0058394726 0.02961531 0.095906734 0.22677033 0.15386042 0.004910795
0.00017296046 0.0009593282 0.009439102 0.007855139 0.15536022 0.034615472 0.0654124 0.02819645
1.7011729e-06 0.009966047 0.30320942 0.019932155 0.09777677 0.25979838 0.27975726 0.00950445
0.00028457973 7.1064433e-06 0.2846911 0.021432132 0.23754406 0.03243367 0.16971822 0.02651216
00000000: 9db8 eb33 09a3 8d3b 5bdf 443c 3c78 243f
00000010: dc0d 1b3f 35f3 863e 6aaa 833d 1669 f63a
00000020: 4566 0d3a c684 a938 6aa9 003c ec83 e63b
00000030: f9a2 c93c a5dc c43d e5cb 303c 18e9 ee3c
00000040: efb3 3434 00b2 5a35 9bc3 9f3c 3fe3 b93e
00000050: eae8 7d3d b196 eb3c 9be2 003b 55d8 e03a
00000060: 27d5 9934 0d60 9b36 f6b9 7d3c 1647 163c
00000070: 7dcf 793c cb05 a63b 62b5 0f3b 8442 6e3d
00000080: 276e 3936 902f 1839 811a 8c3b ba22 4d3d
00000090: 40d0 803e ee77 e03e d90e d83c 18a0 cd3a
000000a0: f5bd 9038 deed 053a 06a8 ca3b 1321 323b
000000b0: 0001 3f3c ffae cf3d 5ded c53b 5982 503e
000000c0: ffe8 d830 5d71 b239 0374 983c 2a51 473f
000000d0: e413 5c3e dc58 663e a569 533b 7dc1 4d3b
000000e0: e47a 0b33 e996 a931 951e 913c b5df 9e3c
000000f0: e840 7b3d 81a6 733c 48f7 733b 8b23 e53c
00000100: c7de 1e34 7b0a 8839 c0e0 113c 1f57 3d3e
00000110: a76d 023e 1eab fd3e 2a88 943c c3eb 073a
00000120: a717 1531 c406 2839 530f f73b 418d c43a
00000130: 9f13 2c3c b37a a13d c377 233b 5375 7f3e
00000140: 7206 ec35 4938 353c 05e6 183e 3b3d bc3c
00000150: b1b5 1e3e d710 0b3e 3eff 343e 2993 6c3c
00000160: d60b b139 2dca ef36 2cc9 123e 4041 e93c
00000170: 0e27 9f3e 1275 853c d7ba db3e c815 433d
00000180: d59b d735 e05e 5838 ff9d b53b b915 da3e
00000190: 8eff 203f 92e1 f93e 6f6b a23d ff39 bc3a
000001a0: cdac 8c39 d829 c139 0cf0 763b 8130 af3b
000001b0: 82b2 2f3c bd96 f43d 1ed7 fa3b fb7e 263e
000001c0: 73ff 6d31 eda3 d13a bbe4 513e fe9c 463b
000001d0: 0a41 883d d3e8 4b3e 4345 b53e 5f0e 093b
000001e0: 5391 6133 d93a c531 46f2 463e f02f 113c
000001f0: 16be c33e 9e03 cb3c 381e 103f 3a77 823c
00000200: 7cb3 0036 667d 843c 0c59 bf3b ce9b f23c
00000210: c06a c43d 7b36 683e 968d 1d3e bcea a03b
00000220: b85c 3539 6d7b 7b3a 77a6 1a3c d7b2 003c
00000230: c016 1f3e f4c8 0d3d f0f6 853d 3efc e63c
00000240: db53 e435 a148 233c 443e 9b3e c248 a33c
00000250: 303f c83d 4b04 853e 583c 8f3e 8db8 1b3c
00000260: a533 9539 e273 ee36 08c3 913e 7092 af3c
00000270: c03e 733e 2bd9 043d 9dca 2d3e 0830 d93c

exp_avg f4 [10]
-0.010933066 -0.0047689877 0.0005739087 0.0156230675 -0.006041627 -0.0029957031 0.000668071 -0.0010451886
0.005658557 0.0032609664
00000000: 9a20 33bc 2b45 9cbb 5c72 163a e5f7 7f3c
00000010: d7f8 c5bb 8f53 44bb 7c21 2f3a b6fe 88ba
00000020: 6b6b b93b f0b5 553b

exp_avg_sq f4 [10]
0.0016042645 0.0007040957 0.0021751039 0.0014367496 0.0021588723 0.0013524914 0.0026967283 0.0015096518
0.0007121011 0.001035699
00000000: 2f46 d23a 1093 383a 308c 0e3b 5151 bc3a
00000010: de7b 0d3b 1546 b13a 98bb 303b 82df c53a
00000020: 4cac 3a3a 4bc0 873a
