course/week3/fashion_project/checkpoints/entropy.ckpt (torch, 160739 bytes, 12 tensors)

model.0.weight f4 [16, 784]
0.37883836 0.0833231 0.13031 -0.23814999 -0.61912465 -0.72013485 -0.9713602 -0.41045684
-0.009119475 0.15253799 0.7807467 0.7307445 -0.083656915 -0.9614227 -1.224219 -1.043827
-0.23410052 0.26070955 0.395031 -0.009193431 -0.6635782 -0.5637851 -0.3291211 -0.28441435
-0.013326525 -0.15393363 0.25905088 0.056294963 0.2956563 -0.055315405 0.29772952 -0.2759266
-0.571797 -0.3904172 0.058369193 0.4514962 0.28917035 0.19959413 0.058586914 0.3521432
0.120229445 -0.032165162 0.18604682 -0.0067258044 0.02935418 -0.05583541 -0.104136705 -0.07519566
0.3179377 -0.043486167 -0.12701026 -0.48621115 -0.42471477 -0.29553932 -0.023692474 -0.606853
-0.12877375 -0.15078747 0.10213488 -0.014998119 -0.28812012 0.4524329 0.7640699 0.13562302
-0.29005846 -0.34010127 -0.28507853 0.0060117207 -0.37171963 -0.2591117 -0.0014283826 -0.4329866
-0.31794184 -0.33042595 -0.22317326 -0.071238995 0.381156 0.5478744 0.6678903 0.49042797
-0.2844427 -0.8870726 -0.01750851 -0.4438458 -0.4525303 0.07798308 -0.2116718 -0.09113637
0.51756793 0.74835026 0.20001905 -0.44265145 -0.46697757 -0.5059914 -0.066619955 -0.24323843
0.461805 -0.3775176 -0.9373582 -0.2352326 -0.23025359 -0.20731367 -0.35425296 -0.01642186
0.16218658 0.33649573 0.76209897 0.6627373 0.06380824 -0.56631315 0.04523197 0.5416118
-0.21277538 -0.0306204 -0.017009173 0.91056186 0.7130598 0.20740595 -0.27505383 -0.812402
-0.7783259 -0.22741795 -0.28820452 -0.51230496 -0.0497076 -0.23891196 -0.62533325 -0.13081007
-0.48236033 -0.5107541 -0.16426137 -0.4083075 -0.36969033 0.030472556 0.40799278 0.30273798
-0.21379325 -0.106660455 0.24677062 -0.27181923 -0.23739092 0.09833407 0.89631546 0.54366934
0.3564051 0.19957553 -0.21545525 -0.46544832 -0.76816595 -0.701227 -0.47513726 -0.40502498
-0.061508793 -0.26185822 -0.4976325 -0.2410992 -0.45006266 -0.49371848 -0.23027053 -0.2049183
0.08399951 0.15430109 0.385213 0.1615905 0.053805985 0.30631593 0.07762259 -0.6813399
-0.5748015 -0.89224297 -0.18779081 0.16207512 0.26079327 -0.19636442 -0.09363394 0.11531918
-0.5794213 -0.91371757 -0.465759 -0.52624416 -0.29731715 -0.16507238 -0.78295475 0.0780456
-0.4820185 -0.7128399 -0.32804197 -0.3511359 0.089576885 0.34293744 0.17423105 0.11422374
0.102729686 -0.02981304 -0.48832992 -1.1215671 -0.82008165 -0.5112208 0.17045225 0.3908051
-0.012592832 -0.61323994 -0.02694493 0.45715782 -0.20794247 -0.721757 -0.27062482 -0.36645326
-0.116571404 -0.38296908 -0.21513502 0.026649214 -0.4095096 -0.36264348 -0.4837329 -0.7195729
-0.12890327 0.11988791 0.03654954 0.2901552 0.1252557 -0.1983281 -0.3881968 -0.06005529
-0.67982394 -0.20243996 0.43769482 0.265761 -0.13144378 -0.7667679 -0.31922483 0.6922731
-0.23083489 -0.047799937 0.008688962 -0.24891622 0.083919585 0.40661535 0.17580083 0.36815283
-0.12339156 -0.24066007 -0.15512218 -0.19448231 0.03258225 0.062341027 -0.13253513 -0.036639374
0.08858071 0.10444246 -0.026960507 0.41726655 -0.7694406 -0.5706164 -0.22547305 0.50493246
00000000: 1af7 c13e 4da5 aa3d fc6f 053e 97dd 73be
00000010: f47e 1ebf c25a 38bf 10ab 78bf 6627 d2be
00000020: da69 15bc eb32 1c3e 04df 473f 1212 3b3f
00000030: 5154 abbd cc1f 76bf 35b3 9cbf 209c 85bf
00000040: 0cb8 6fbe b97b 853e 8141 ca3e 0ba0 16bc
00000050: 43e0 29bf 3854 10bf 9082 a8be c29e 91be
00000060: 7f57 5abc c7a0 1dbe 51a2 843e 8c95 663d
00000070: 4360 973e 6892 62bd 0170 983e 4046 8dbe
00000080: 4a61 12bf c3e4 c7be 8914 6f3d 832a e73e
00000090: 230e 943e 6762 4c3e d5f8 6f3d 1d4c b43e
000000a0: db3a f63d 9ebf 03bd 0f83 3e3e 2364 dcbb
000000b0: 2d78 f03c acb3 64bd a045 d5bd 2f00 9abd
000000c0: bbc8 a23e 8d1e 32bd fa0e 02be abf0 f8be
000000d0: 3774 d9be ee50 97be b816 c2bc b85a 1bbf
000000e0: 44dd 03be 0868 1abe 182c d13d acba 75bc
000000f0: 7b84 93be 49a5 e73e 169a 433f c3e0 0a3e
00000100: 8b82 94be c121 aebe d0f5 91be f8fd c43b
00000110: 0952 bebe 4aaa 84be 9138 bbba 6bb0 ddbe
00000120: 46c9 a2be 972d a9be 8887 64be c0e5 91bd
00000130: e126 c33e 7f41 0c3f dcfa 2a3f 6019 fb3e
00000140: 79a2 91be 3117 63bf 026e 8fbc c23f e3be
00000150: 0db2 e7be 98b5 9f3d 7ec0 58be b5a5 babd
00000160: 557f 043f e293 3f3f cbd1 4c3e 36a3 e2be
00000170: af17 efbe a788 01bf 0b70 88bd 7f13 79be
00000180: b471 ec3e fd49 c1be b5f6 6fbf d1e0 70be
00000190: 99c7 6bbe 094a 54be a560 b5be 2387 86bc
000001a0: 3d14 263e 2b49 ac3e eb18 433f 27a9 293f
000001b0: e5ad 823d e6f9 10bf 2845 393d 12a7 0a3f
000001c0: cae1 59be a2d7 fabc d256 8bbc 951a 693f
000001d0: 168b 363f 3a62 543e dbd3 8cbe 94f9 4fbf
000001e0: 5e40 47bf 40e0 68be 8b8f 93be 6b26 03bf
000001f0: 329a 4bbd 56a5 74be d715 20bf 13f3 05be
00000200: eff7 f6be c8c0 02bf 2234 28be ae0d d1be
00000210: 0d48 bdbe 95a1 f93c 6ee4 d03e 7900 9b3e
00000220: 9eec 5abe cc70 dabd 70b1 7c3e e42b 8bbe
00000230: 9b16 73be 5f63 c93d ee74 653f ea2d 0b3f
00000240: bb7a b63e 875d 4c3e 4da0 5cbe 3e4f eebe
00000250: 86a6 44bf 9d83 33bf 3145 f3be 6f5f cfbe
00000260: a5f0 7bbd 4812 86be b0c9 febe b5e2 76be
00000270: 9d6e e6be abc8 fcbe 0acc 6bbe 1ad6 51be
00000280: ef07 ac3d 1b01 1e3e a33a c53e fb77 253e
00000290: aa63 5c3d 71d5 9c3e 98f8 9e3d 4b6c 2ebf
000002a0: 3126 13bf 096a 64bf 3c4c 40be 05f7 253e
000002b0: b286 853e c113 49be 27c3 bfbd 762c ec3d
000002c0: f454 14bf 65e9 69bf f777 eebe f0b7 06bf
000002d0: f439 98be bc08 29be b96f 48bf 5fd6 9f3d
000002e0: 21cb f6be ad7c 36bf 1ef5 a7be 16c8 b3be
000002f0: 1674 b73d 7f95 af3e a069 323e 23ee e93d
00000300: f163 d23d 7a3a f4bc 6106 fabe 838f 8fbf
00000310: dff0 51bf 5edf 02bf 098b 2e3e 9b17 c83e
00000320: 2a52 4ebc 4bfd 1cbf 9dbb dcbc 9710 ea3e
00000330: dfee 54be 11c5 38bf 568f 8abe c39f bbbe
00000340: fdbc eebd 8614 c4be 5b4c 5cbe 744f da3c
00000350: 3eab d1be 68ac b9be d7ab f7be ee35 38bf
00000360: 38ff 03be cb87 f53d f8b4 153d 398f 943e
00000370: 0843 003e 8516 4bbe bbc1 c6be 89fc 75bd
00000380: f108 2ebf 6c4c 4fbe 8919 e03e d311 883e
00000390: 3399 06be e74a 44bf 7071 a3be cf38 313f
000003a0: fb5f 6cbe dec9 43bd 265c 0e3c e5e3 7ebe
000003b0: 08de ab3d e32f d03e 2205 343e 877e bc3e
000003c0: b7b4 fcbd 986f 76be 59d8 1ebe 5f26 47be
000003d0: f774 053d 4e59 7f3d 4ab7 07be 2b13 16bd
000003e0: ce69 b53d eee5 d53d 48dc dcbc f6a3 d53e
000003f0: 0ffa 44bf eb13 12bf 68e2 66be 4143 013f

model.0.bias f4 [16]
2.0529451 0.336763 0.4268137 -0.055360857 0.06688225 0.33118182 -0.6166883 0.95259875
-0.030273637 1.1769652 -0.042357903 -0.23293646 0.828315 0.0050243335 0.7664947 0.9650172
00000000: 7463 0340 336c ac3e 5387 da3e 11c2 62bd
00000010: 90f9 883d aa90 a93e 49df 1dbf 83dd 733f
00000020: 6b00 f8bc cca6 963f 7b7f 2dbd e586 6ebe
00000030: 740c 543f 2aa3 a43b ff38 443f 5e0b 773f

model.2.weight f4 [10, 16]
-0.2844949 -0.21390666 0.23591861 0.06957318 -0.16855389 -0.5819927 -0.052662928 0.05188143
-0.2362557 -0.29619738 -0.076682545 -0.2122929 -0.10444087 -0.10714541 0.1159873 -0.17619213
-0.7557132 -0.58236265 -0.59645253 -0.20673767 -0.1987754 -0.5503322 -0.12279998 -0.54639727
0.08344635 -0.48183283 -0.000570999 0.28698632 0.41370094 -0.20942944 0.49576917 0.22560945
0.10364198 -0.14492533 0.048084557 0.16864611 -0.00849309 -0.7320368 0.15051223 -0.013273862
0.2083091 -0.2803268 0.21438679 0.14257649 -0.37564966 0.19489616 -0.61510307 0.21990426
-0.66945505 -0.31599343 0.19083281 -0.25910836 -0.19342852 -0.54279625 -0.13306764 0.062100444
0.18457271 0.21648133 0.12271173 0.13117613 0.20147519 0.0042600497 0.06394956 0.14541987
-0.16772778 -0.4815766 0.037145335 0.22239754 0.09832471 -0.77882415 0.2738313 -0.23515168
-0.048547495 0.13973938 0.11781649 0.26535332 -0.06804129 0.14030398 -0.6707265 0.036531713
0.7068821 -0.089894705 0.34015593 -0.1720168 0.2972396 0.08992399 -1.2110975 0.3892695
0.19555879 0.2996428 0.034406584 0.28538245 -0.69849813 0.020465683 -0.37018046 0.501847
-0.002070629 -0.37184778 0.085266456 0.15492773 0.37509593 -0.8702513 0.13686407 0.14140345
-0.09416464 -0.026644638 0.02895556 -0.07817138 -0.39815664 -0.11707968 0.004149306 -0.10236083
-0.33975187 0.15005924 -0.60846734 -0.17255317 -0.52358764 0.22784169 -1.0936778 -0.08634502
-0.023442704 0.43370682 0.13368239 -0.4943836 -1.036675 0.11005179 -2.1715436 -0.355546
0.03979615 -0.5372322 0.12162894 0.12674226 -0.38444957 0.21412998 -0.10556283 0.10363573
0.09648667 0.024968216 -0.2196863 0.384078 -0.14976989 0.14577289 -0.59799826 -0.7627979
-0.5664176 0.3483021 -0.15639256 0.14811027 0.43475997 0.36426374 -0.63476545 0.046647582
0.08498688 -0.2932653 -0.03570744 -0.4714248 -0.6704089 -0.13402998 -0.6987128 -0.17819121
00000000: 51a9 91be 590a 5bbe a694 713e 627c 8e3d
00000010: 6499 2cbe 79fd 14bf 15b5 57bd 9f81 543d
00000020: 04ed 71be 2fa7 97be bd0b 9dbd 4f63 59be
00000030: 18e5 d5bd 0d6f dbbd c08a ed3d b66b 34be
00000040: 6c76 41bf b815 15bf 1db1 18bf 0ab3 53be
00000050: c78b 4bbe 92e2 0cbf 8e7e fbbd b1e0 0bbf
00000060: ece5 aa3d cbb2 f6be 18af 15ba dfef 923e
00000070: 9cd0 d33e ac74 56be 75d5 fd3e 2a06 673e
00000080: 3f42 d43d 4e67 14be 50f4 443d 91b1 2c3e
00000090: 9a26 0bbc c466 3bbf e11f 1a3e 9d7a 59bc
000000a0: fb4e 553e ff86 8fbe 3688 5b3e 92ff 113e
000000b0: 2755 c0be dc92 473e 6577 1dbf 952e 613e
000000c0: 6861 2bbf e4c9 a1be ad69 433e daa9 84be
000000d0: 2012 46be b2f4 0abf e242 08be 095d 7e3d
000000e0: a100 3d3e 48ad 5d3e 4a50 fb3d 0953 063e
000000f0: 834f 4e3e e397 8b3b fdf7 823d f2e8 143e
00000100: d5c0 2bbe 3591 f6be b525 183d 2ebc 633e
00000110: 775e c93d 0561 47bf 9e33 8c3e 9acb 70be
00000120: bdd9 46bd d717 0f3e c649 f13d 64dc 873e
00000130: 3b59 8bbd d9ab 0f3e bbb4 2bbf 47a2 153d
00000140: 3af6 343f b71a b8bd eb28 ae3e 2c25 30be
00000150: ca2f 983e 122a b83d 3e05 9bbf 554e c73e
00000160: 9040 483e c86a 993e ebed 0c3d a61d 923e
00000170: c6d0 32bf a6a7 a73c 4b88 bdbe 0c79 003f
00000180: 64b3 07bb d562 bebe 2ea0 ae3d 60a5 1e3e
00000190: 930c c03e cac8 5ebf 1826 0c3e 11cc 103e
000001a0: 64d9 c0bd db45 dabc 3634 ed3c 5118 a0bd
000001b0: 30db cbbe 79c7 efbd e7f6 873b 8ea2 d1bd
000001c0: f5f3 adbe 21a9 193e 84c4 1bbf c7b1 30be
000001d0: d709 06bf 554f 693e a2fd 8bbf a8d5 b0bd
000001e0: ea0a c0bc d20e de3e 09e4 083e d91f fdbe
000001f0: c4b1 84bf d562 e13d 92fa 0ac0 200a b6be
00000200: 4a01 233d 0d88 09bf 9818 f93d b9c8 013e
00000210: 93d6 c4be e444 5b3e 5331 d8bd f83e d43d
00000220: ce9a c53d 258a cc3c 72f5 60be dfa5 c43e
00000230: 475d 19be 7d45 153e 6a16 19bf b946 43bf
00000240: be00 11bf a754 b23e 5f25 20be 38aa 173e
00000250: dc98 de3e c780 ba3e fd7f 22bf 8911 3f3d
00000260: 9a0d ae3d df26 96be f741 12bd 975e f1be
00000270: eb9f 2bbf 283f 09be d8de 32bf c277 36be

model.2.bias f4 [10]
0.46147734 -0.77760667 0.07833813 0.5999904 -0.7462421 0.7140665 0.44652486 0.35328752
-0.93452126 -0.99491876
00000000: c246 ec3e 3b11 47bf be6f a03d f998 193f
00000010: b909 3fbf 10cd 363f e89e e43e 1ae2 b43e
00000020: c93c 6fbf ffb2 7ebf

exp_avg f4 [16, 784]
-1.1122333e-06 -1.1122333e-06 -1.1122333e-06 -1.1122333e-06 -1.1122333e-06 -4.04134e-06 -1.911831e-05 -3.379317e-05
2.9267607e-05 -0.00013899247 -4.122855e-05 0.00029560557 -6.107597e-05 9.971684e-05 8.259177e-05 -0.00040201299
-0.00016112332 -0.00028602546 -0.00021300148 -7.722246e-05 -7.355387e-05 -3.7869213e-05 -1.1122333e-06 -1.1122333e-06
-1.1122333e-06 -1.1122333e-06 -1.1122333e-06 -1.1122333e-06 -1.1122333e-06 -1.1122333e-06 -1.1122333e-06 -1.1122333e-06
-1.1122333e-06 -8.445561e-06 -8.696806e-05 -0.00020864335 -0.00062073104 -0.00016275642 -1.7533697e-05 -0.00014937013
0.00025838785 -0.00026550543 0.00024990147 0.00013773765 3.6174675e-05 -0.0003839066 -0.0007645911 -0.00096867513
0.00050382246 0.00011647142 0.00012600688 -1.109208e-06 -1.1122333e-06 -1.1122333e-06 -1.1122333e-06 -1.1122333e-06
-1.1122333e-06 -1.1122333e-06 -1.2126088e-06 -7.887063e-06 -3.0435482e-05 -0.00015416832 -0.00032039944 -0.00016568154
-0.00039953084 -0.00016228949 -0.00058084016 -0.00044163052 -0.00043035223 -0.00036419457 -0.00057447917 -0.0006998476
-0.0005469971 -0.0011776976 -0.0018857463 -0.0008554149 -8.6425665e-05 7.7267796e-05 0.00023166536 6.9467336e-05
-6.210083e-06 -1.2975262e-06 -1.1122333e-06 -1.2048796e-06 -1.1122333e-06 -7.991842e-07 -2.1964383e-06 -4.1157895e-05
-0.00038644986 -0.00048453777 -0.0006790582 -0.00048272513 -8.709647e-05 -0.00039096316 -0.0005791608 0.00019011104
0.0004328016 0.0002452327 7.283219e-05 0.00027938 -3.875308e-05 -0.0015923213 -0.0020626585 -0.0011276522
-0.0001935402 6.539249e-05 0.00031363007 -2.8622142e-05 -3.4400622e-05 3.971924e-06 -1.2975262e-06 -1.1122333e-06
5.188318e-05 8.2073224e-05 8.097433e-05 -0.0014539632 -0.0010997269 -0.00039125874 -0.0003290893 0.00023814608
-0.00020880652 -0.0002711795 8.5590465e-05 0.00022372119 4.052573e-06 -0.00021268068 0.00081676856 0.00021829564
-0.00027098344 -0.001257795 -0.0006503856 -1.4142179e-05 0.00013036492 0.00013038718 0.0007543078 0.00044148433
-3.2930882e-05 -2.3681193e-06 3.3352997e-06 4.1254737e-08 5.2981402e-05 7.7721896e-05 -0.00036503366 -0.002254101
-0.0025906211 -0.0011485973 -0.00089802465 -0.0010204841 -9.2977774e-05 4.3774773e-05 0.00023093488 -0.00041879495
-0.0005356345 -0.000789473 0.0003786414 0.00016161028 -0.0006934245 -0.00012785704 0.00030710513 -8.284276e-05
-0.00013361024 -0.00016788181 -1.0783127e-05 0.00063842797 0.00013472815 -0.00016025589 -1.6341653e-05 2.7499743e-07
2.601475e-05 0.0002693411 0.00031085752 -0.00057716825 -0.0019440025 -0.0019755913 -0.002212352 -0.0024084523
-0.0012476897 -0.00048362368 -0.0001423811 -0.00062904577 -0.000114413495 -0.00026010402 0.000118862015 0.0003199586
-0.0005073167 0.00026724898 6.863915e-05 0.00018422557 0.00021310491 0.00029985816 0.00012124622 0.00066943804
0.00018954922 -7.635401e-05 1.7365678e-06 -5.8306596e-06 -2.3320274e-05 3.61208e-05 -0.00066753675 -0.0022263336
-0.0020654423 -0.0026418169 -0.002485908 -0.0019987465 -0.0014866331 -0.0014725788 -0.001706896 -0.00013214041
6.35938e-05 -9.285387e-06 0.0004051499 0.00030751518 -0.00023441236 9.16019e-06 -2.9928862e-05 -0.00031345463
0.0001791459 4.0557297e-05 0.00027679486 -0.0003502319 -0.000299927 -7.266191e-05 -0.00022180237 -5.801328e-05
-0.00020294257 -0.0008557649 -0.0022352287 -0.0028941776 -0.0048444956 -0.0037053733 -0.0034373568 -0.0022009264
-0.0016233807 -0.0025193004 -0.0016886966 -0.0002549473 -0.00081998 -0.00038521388 -0.00037054892 8.948704e-05
-3.1131676e-05 0.0004871077 -0.0001628087 0.0005112674 3.0508721e-05 -2.4304338e-05 -7.9088495e-05 -0.00030406794
-0.00041317174 -0.00015656545 -0.000104183724 -0.000101311525 -0.00036640113 -7.3266594e-05 -0.0014006876 -0.002636697
00000000: 0c48 95b5 0c48 95b5 0c48 95b5 0c48 95b5
00000010: 0c48 95b5 d99a 87b6 4260 a0b7 24bd 0db8
00000020: b583 f537 82be 11b9 d2ec 2cb8 82fb 9a39
00000030: e915 80b8 121f d138 1e35 ad38 45c5 d2b9
00000040: 36f3 28b9 b0f5 95b9 2659 5fb9 7ef2 a1b8
00000050: ef40 9ab8 c2d5 1eb8 0c48 95b5 0c48 95b5
00000060: 0c48 95b5 0c48 95b5 0c48 95b5 0c48 95b5
00000070: 0c48 95b5 0c48 95b5 0c48 95b5 0c48 95b5
00000080: 0c48 95b5 69b1 0db7 9f62 b6b8 46c7 5ab9
00000090: 8eb8 22ba 98a9 2ab9 5415 93b7 3da0 1cb9
000000a0: 3b78 8739 8933 8bb9 3505 8339 ab6d 1039
000000b0: 43ba 1738 1247 c9b9 d76e 48ba b0ee 7dba
000000c0: f412 043a 1e42 f438 b720 0439 19e0 94b5
000000d0: 0c48 95b5 0c48 95b5 0c48 95b5 0c48 95b5
000000e0: 0c48 95b5 0c48 95b5 ecc0 a2b5 ad52 04b7
000000f0: b34f ffb7 3ea8 21b9 49fb a7b9 cdba 2db9
00000100: 1f78 d1b9 412c 2ab9 8643 18ba a58a e7b9
00000110: e6a0 e1b9 5ef1 beb9 a598 16ba fa75 37ba
00000120: 5b64 0fba f95c 9aba 252b f7ba ec3d 60ba
00000130: 6d3f b5b8 d50a a238 32eb 7239 feae 9138
00000140: 3560 d0b6 a926 aeb5 0c48 95b5 59b7 a1b5
00000150: 0c48 95b5 8587 56b5 8666 13b6 f4a0 2cb8
00000160: 6c9c cab9 8f09 feb9 d302 32ba 4516 fdb9
00000170: 90a7 b6b8 30fa ccb9 d3d2 17ba 8b58 4739
00000180: a6e9 e239 9392 8039 7cbd 9838 c079 9239
00000190: ce8a 22b8 70b5 d0ba ab2d 07bb bbcd 93ba
000001a0: 0df1 4ab9 5323 8938 b76e a439 9519 f0b7
000001b0: 6349 10b8 9146 8536 a926 aeb5 0c48 95b5
000001c0: 249d 5938 ba1e ac38 c3d0 a938 e992 beba
000001d0: b624 90ba dc21 cdb9 9e89 acb9 dab6 7939
000001e0: 13f3 5ab9 192d 8eb9 087f b338 b396 6a39
000001f0: 56fb 8736 0903 5fb9 691c 563a 4ae6 6439
00000200: c812 8eb9 99dc a4ba a47e 2aba 3244 6db7
00000210: 91b2 0839 8bb8 0839 bdbc 453a 0677 e739
00000220: 441f 0ab8 fbeb 1eb6 03d4 5f36 1030 3133
00000230: 5938 5e38 a0fe a238 fd61 bfb9 8ab9 13bb
00000240: 69c7 29bb 888c 96ba 6a69 6bba c4c1 85ba
00000250: 10fd c2b8 ce9a 3738 1c27 7239 b591 dbb9
00000260: d369 0cba a3f4 4eba 6384 c639 ee75 2939
00000270: eec6 35ba 5d11 06b9 f402 a139 debb adb8
00000280: ba19 0cb9 6e09 30b9 2ee9 34b7 2d5c 273a
00000290: d045 0d39 5d0a 28b9 6f15 89b7 5ca3 9334
000002a0: 403a da37 5a36 8d39 97fa a239 1b4d 17ba
000002b0: e6cd feba ec78 01bb 1bfd 10bb 20d7 1dbb
000002c0: 8589 a3ba df8e fdb9 234c 15b9 8ce6 24ba
000002d0: 47f1 efb8 925e 88b9 8f45 f938 1ec0 a739
000002e0: 73fd 04ba 8d1d 8c39 5df2 8f38 ad2c 4139
000002f0: ea74 5f39 4836 9d39 9245 fe38 3a7d 2f3a
00000300: bbc1 4639 3f20 a0b8 0414 e935 fca4 c3b6
00000310: e89f c3b7 6a80 1738 a2fd 2eba aee7 11bb
00000320: 5f5c 07bb 5522 2dbb 9eea 22bb 67fd 02bb
00000330: 21db c2ba 8c03 c1ba edb9 dfba 2c8f 0ab9
00000340: a95d 8538 6fc8 1bb7 4d6a d439 fd39 a139
00000350: 97cc 75b9 b7ae 1937 be0f fbb7 2b57 a4b9
00000360: 1dd9 3b39 111c 2a38 c71e 9139 549f b7b9
00000370: 853f 9db9 1162 98b8 9f93 68b9 4953 73b8
00000380: fbcc 54b9 6955 60ba ea7c 12bb 3eac 3dbb
00000390: 93be 9ebb d9d5 72bb 4745 61bb 6b3d 10bb
000003a0: 9ec7 d4ba d91a 25bb 4157 ddba 73aa 85b9
000003b0: edf3 56ba 88f6 c9b9 3c46 c2b9 fdaa bb38
000003c0: 6293 02b8 7d62 ff39 a1b7 2ab9 9306 063a
000003d0: fbec ff37 2be1 cbb7 50dc a5b8 4f6b 9fb9
000003e0: f99e d8b9 b82b 24b9 367d dab8 3677 d4b8
000003f0: 8719 c0b9 b4a6 99b8 4797 b7ba 6fcc 2cbb

exp_avg_sq f4 [16, 784]
1.4603366e-08 1.4621691e-08 1.4672476e-08 1.6770434e-08 1.9294632e-08 2.3563144e-08 1.0803154e-07 1.8220075e-07
9.0789115e-07 6.690674e-07 2.501764e-06 3.3560557e-06 2.6136295e-06 3.6898482e-06 3.0090796e-06 3.077853e-06
3.6383194e-06 3.6249105e-06 1.3152581e-06 1.4537576e-06 1.5896715e-06 1.1551198e-06 1.1652726e-06 6.531722e-07
2.015195e-07 9.338421e-08 2.5250642e-08 3.093382e-08 1.4604299e-08 1.4621927e-08 1.533597e-08 2.9428008e-08
4.4312518e-08 1.0666129e-07 3.8859017e-07 1.0318762e-06 2.2865793e-06 4.3838386e-06 5.3186945e-06 6.3832035e-06
9.145511e-06 1.0400724e-05 1.0251151e-05 1.15925795e-05 1.2371807e-05 1.2131678e-05 9.378031e-06 9.080206e-06
7.4289433e-06 5.846049e-06 5.2935316e-06 3.4615405e-06 1.7836294e-06 3.7062074e-07 1.2437253e-07 3.585239e-08
1.4611215e-08 1.4700255e-08 1.6612006e-08 4.2383522e-08 1.9816795e-07 4.8523924e-07 1.197869e-06 2.153446e-06
4.5567203e-06 5.5410387e-06 5.686126e-06 6.415981e-06 8.603878e-06 9.204839e-06 1.0493689e-05 1.3814479e-05
1.3532524e-05 1.298826e-05 1.4460853e-05 1.5354715e-05 1.3981274e-05 1.1393094e-05 1.0423079e-05 8.2237875e-06
6.693474e-06 2.5849088e-06 1.0486601e-06 2.6411545e-08 1.4678119e-08 1.5829867e-08 3.7906347e-08 9.679843e-08
6.341943e-07 1.4050052e-06 2.6966386e-06 3.227435e-06 4.8543366e-06 7.16078e-06 7.0391543e-06 6.955053e-06
8.752496e-06 9.71955e-06 1.1836109e-05 1.3688789e-05 1.608878e-05 1.7724107e-05 1.7755983e-05 1.6755639e-05
1.710575e-05 1.5463811e-05 1.521347e-05 1.44672595e-05 1.0692312e-05 4.9241326e-06 2.183018e-06 2.442634e-07
5.080906e-08 9.484497e-08 1.5710964e-07 1.0944962e-06 2.5026914e-06 5.9844997e-06 5.2531004e-06 4.991752e-06
7.721318e-06 7.5957987e-06 9.392039e-06 8.347594e-06 8.928094e-06 1.1232226e-05 1.648859e-05 1.718211e-05
1.6851838e-05 1.8404067e-05 2.2102093e-05 2.324652e-05 2.4611229e-05 2.3311137e-05 2.1401524e-05 1.8209807e-05
1.4701666e-05 7.3794718e-06 2.4404978e-06 1.0100261e-07 5.080581e-08 3.7015062e-07 4.5385318e-07 3.711481e-06
9.890592e-06 7.8218245e-06 6.236919e-06 7.189656e-06 7.456868e-06 1.0165088e-05 9.012844e-06 9.2154205e-06
1.1714462e-05 1.330181e-05 1.7068229e-05 1.855139e-05 2.0179996e-05 2.11271e-05 2.2801123e-05 2.5914e-05
2.9013341e-05 2.89219e-05 2.6748512e-05 2.3741168e-05 2.0790048e-05 1.3095731e-05 3.60899e-06 9.3961816e-08
2.7419857e-08 2.6440554e-07 2.1861426e-06 6.2935196e-06 1.0089264e-05 1.3676167e-05 1.0324217e-05 9.601823e-06
9.3263225e-06 8.889538e-06 8.4447365e-06 9.836763e-06 1.0857256e-05 1.7100498e-05 2.295417e-05 2.679715e-05
2.9505922e-05 2.915085e-05 3.0070993e-05 3.0542986e-05 3.108019e-05 3.128844e-05 3.1640448e-05 2.8623033e-05
2.6460748e-05 1.9335806e-05 4.1514695e-06 3.8647286e-07 4.8870017e-08 5.385875e-07 3.2469975e-06 7.5879025e-06
1.1203385e-05 1.49121715e-05 1.3929464e-05 1.4737465e-05 1.2565921e-05 1.2063236e-05 1.0570718e-05 9.866975e-06
1.4782266e-05 2.0149273e-05 2.7094495e-05 3.4965862e-05 3.8691065e-05 3.6635673e-05 3.8907216e-05 3.6718237e-05
3.8082107e-05 3.7463447e-05 3.9132432e-05 3.4394267e-05 3.4028566e-05 2.4998008e-05 6.3627936e-06 3.6393632e-07
2.5865947e-07 1.2596572e-06 5.278089e-06 8.700802e-06 1.29477285e-05 1.6486587e-05 1.6789058e-05 1.8972745e-05
1.6205042e-05 1.653076e-05 1.5503776e-05 1.6430822e-05 1.9656265e-05 2.9302695e-05 3.8354265e-05 4.612578e-05
4.915817e-05 4.8888953e-05 4.63276e-05 4.791769e-05 4.8210342e-05 4.566199e-05 4.472616e-05 4.5340075e-05
4.3585682e-05 3.439512e-05 1.3948952e-05 1.1268052e-06 3.0610497e-07 1.818195e-06 9.457213e-06 8.199276e-06
00000000: 48e2 7a32 e132 7b32 3b12 7c32 930e 9032
00000010: 58bd a532 e767 ca32 f8fe e733 f6a2 4334
00000020: ceb5 7335 f699 3335 fae3 2736 9938 6136
00000030: d065 2f36 1c9f 7736 98ef 4936 1d8d 4e36
00000040: da29 7436 7d43 7336 ed87 b035 bb1e c335
00000050: b25c d535 9d09 9b35 7666 9c35 a755 2f35
00000060: 4261 5834 838a c833 c0e6 d832 18dc 0433
00000070: 63e6 7a32 ea33 7b32 28bc 8332 e0c8 fc32
00000080: 2152 3e33 aa0d e533 6d9f d034 ff7e 8a35
00000090: 2273 1936 e318 9336 3d77 b236 4d2f d636
000000a0: ac6f 1937 c57e 2e37 5cfc 2b37 c07d 4237
000000b0: 8290 4f37 2989 4b37 5656 1d37 3057 1837
000000c0: 2346 f936 2e29 c436 179f b136 d04c 6836
000000d0: 0a65 ef35 baf9 c634 438b 0534 1ffc 1933
000000e0: ce04 7b32 688c 7c32 30b2 8e32 2d09 3633
000000f0: fec7 5434 6341 0235 77c6 a035 ec83 1036
00000100: eee5 9836 29ed b936 73cb be36 db48 d736
00000110: 6059 1037 7c6e 1a37 0d0e 3037 bcc4 6737
00000120: bf09 6337 27e8 5937 e49c 7237 00ce 8037
00000130: 1d91 6a37 f724 3f37 c9de 2e37 e6f8 0937
00000140: 8198 e036 6578 2d36 b0bf 8c35 9adf e232
00000150: 0d2b 7c32 3ffa 8732 78ce 2233 80df cf33
00000160: 803d 2a35 9c93 bc35 e6f7 3436 e996 5836
00000170: 6fe2 a236 a246 f036 e031 ec36 735f e936
00000180: afd7 1237 2611 2337 b393 4637 e7a8 6537
00000190: 64f6 8637 3bae 9437 aff2 9437 768e 8c37
000001a0: 527e 8f37 48b8 8137 5b3d 7f37 68b8 7237
000001b0: 2163 3337 fa39 a536 f77f 1236 4e23 8334
000001c0: 2739 5a33 93ad cb33 f8b1 2834 9ae6 9235
000001d0: e9f3 2736 76ce c836 ca43 b036 d37e a736
000001e0: cf8a 0137 6adf fe36 8092 1d37 a50c 0c37
000001f0: dfc9 1537 0b72 3c37 fa50 8a37 4d22 9037
00000200: 0c5d 8d37 6f62 9a37 e267 b937 8601 c337
00000210: 3674 ce37 498c c337 6c87 b337 43c1 9837
00000220: 2da7 7637 2e9d f736 6fc7 2336 c6e6 d833
00000230: 9435 5a33 1db9 c634 1ba9 f334 c212 7936
00000240: c5ef 2537 7b3a 0337 ba46 d136 ad3e f136
00000250: 0236 fa36 b88a 2a37 df35 1737 ee9b 1a37
00000260: 3b89 4437 d72a 5f37 be2d 8f37 cf9e 9b37
00000270: 3648 a937 1a3a b137 0a45 bf37 e461 d937
00000280: ad61 f337 4f9d f237 fe61 e037 c527 c737
00000290: 4a66 ae37 bdb5 5b37 fa31 7236 0ec8 c933
000002a0: e788 eb32 9ff3 8d34 a5b5 1236 ec2c d336
000002b0: 0f45 2937 b172 6537 2d36 2d37 8417 2137
000002c0: 4078 1c37 4624 1537 dead 0d37 9308 2537
000002d0: 8f27 3637 0a73 8f37 b48d c037 71ca e037
000002e0: 7c83 f737 f988 f437 f740 fc37 481b 0038
000002f0: 1a5c 0238 b53b 0338 acb5 0438 7f1b f037
00000300: 06f8 dd37 5433 a237 da4c 8b36 6d7c cf34
00000310: 27e5 5133 7493 1035 fee6 5936 969b fe36
00000320: 2cf6 3b37 4a2f 7a37 98b2 6937 ee40 7737
00000330: 38d2 5237 3463 4a37 e358 3137 568a 2537
00000340: 5901 7837 3c06 a937 fc48 e337 4fa8 1238
00000350: 3748 2238 41a9 1938 4e30 2338 e801 1a38
00000360: 5aba 1f38 1222 1d38 2122 2438 9042 1038
00000370: e5b9 0e38 d0b2 d137 fb7f d536 0763 c334
00000380: e3dd 8a34 7e11 a935 701a b136 a9f9 1137
00000390: 123a 5937 ad4c 8a37 3ad6 8c37 a927 9f37
000003a0: 10f0 8737 89ab 8a37 1b0e 8237 ecd4 8937
000003b0: 82e3 a437 0fcf f537 94de 2038 2e77 4138
000003c0: 2f2f 4e38 1d0e 4d38 e24f 4238 3afb 4838
000003d0: 7635 4a38 3085 3f38 5998 3b38 892b 3e38
000003e0: c5cf 3638 7b43 1038 4b06 6a37 bb3c 9735
000003f0: bf56 a434 b408 f435 6caa 1e37 9f8f 0937

exp_avg f4 [16]
-0.01353832 -0.0027094544 0.00019833329 6e-45 -0.0043044365 0.0018438539 -0.0022027537 -0.00094518287
6e-45 -0.0068470207 6e-45 -0.00019689588 -0.005997578 6e-45 0.0023031216 -0.0015717017
00000000: d4cf 5dbc 1a91 31bb b0f7 4f39 0400 0000
00000010: 3b0c 8dbb 78ad f13a 135c 10bb 26c6 77ba
00000020: 0400 0000 f95c e0bb 0400 0000 d675 4eb9
00000030: 5587 c4bb 0400 0000 f8ef 163b 8f01 ceba

exp_avg_sq f4 [16]
0.00032141546 0.00019032505 0.00010998439 2.295484e-09 0.0003997917 0.0001543253 0.00047192257 0.0003096792
1.4474813e-10 0.00027298287 1.0655666e-10 0.00020018197 0.00032324705 4.9796844e-10 0.00022686514 0.00013894521
00000000: a783 a839 fe91 4739 6ba7 e638 95be 1d31
00000010: 229b d139 62d2 2139 606c f739 705c a239
00000020: fa26 1f2f 241f 8f39 1152 ea2e f0e7 5139
00000030: 7c79 a939 6ae1 0830 a6e2 6d39 d2b1 1139

exp_avg f4 [10, 16]
0.008314873 -0.024169596 0.0061319047 6e-45 0.0012647473 0.000114423 -0.17981444 -0.01477944
6e-45 0.0042136307 -6e-45 0.003820569 -0.011787924 6e-45 -0.01853351 0.00089919474
0.0015202592 0.006259618 0.001114739 -6e-45 0.00038895704 0.00045223662 0.018363517 0.0020888946
6e-45 0.0038943717 6e-45 -0.00068325107 0.0016551352 -6e-45 0.003392519 -0.00025257442
0.0024982272 -0.012167602 -0.00014875304 6e-45 0.005130901 0.005871303 0.19568986 0.0019505434
6e-45 0.01597747 6e-45 -0.0044161584 0.007828454 6e-45 0.011482989 1.5248063e-05
0.0038165743 0.012162313 -0.002067736 6e-45 0.0014790568 -0.0021294365 -0.013271907 0.005625322
6e-45 -0.050548665 6e-45 -0.0013707835 -0.015534693 -6e-45 -0.025619216 -0.00065825914
-0.0063629886 -0.022276869 0.0008346796 6e-45 0.003371885 0.0005743612 -0.32865793 0.003799024
6e-45 0.008974602 6e-45 0.00044753088 -0.0005080937 -6e-45 -0.017209228 -0.00017993028
-0.017197082 -0.022610934 -0.0077506555 -6e-45 0.0003428381 -0.027710909 0.0006585753 -0.00854126
6e-45 -0.022218937 6e-45 -0.0003578234 -0.005209613 6e-45 -0.00352341 -0.0014668313
-0.0047634332 0.051146854 0.00079363666 6e-45 -0.009993219 0.0013889264 0.2985356 0.016711352
-6e-45 0.008383344 6e-45 0.00198797 0.0091156885 -6e-45 0.043794923 0.00039620738
0.010885308 0.027992235 0.0008450045 -6e-45 6.868525e-05 0.003933461 0.008646373 -0.0035993208
-6e-45 0.017527 -6e-45 4.986436e-05 0.005453293 6e-45 0.00062008254 0.0009521221
0.0020855195 0.00060352514 -0.00011019104 6e-45 -0.001927061 0.00607995 0.0012923956 0.00285127
-6e-45 0.010650582 6e-45 0.0006167919 0.0076744757 6e-45 3.9036102e-05 0.00019963419
-0.0007972541 -0.016939543 0.0003573711 6e-45 -0.00012678902 0.011425694 -0.0014420124 -0.006106382
6e-45 0.003146615 -6e-45 -9.470882e-05 0.0013132835 -6e-45 0.0055558165 9.51887e-05
00000000: 1b3b 083c 51ff c5bc 25ee c83b 0400 0000
00000010: e1c5 a53a 61f6 ef38 4721 38be 7725 72bc
00000020: 0400 0000 7f12 8a3b 0400 0080 8362 7a3b
00000030: 2322 41bc 0400 0000 96d3 97bc f0b7 6b3a
00000040: 6f43 c73a 7b1d cd3b 6f1c 923a 0400 0080
00000050: eeec cb39 2c1a ed39 166f 963c d6e5 083b
00000060: 0400 0000 b738 7f3b 0400 0000 341c 33ba
00000070: 1ff1 d83a 0400 0080 0655 5e3b f76b 84b9
00000080: 4cb9 233b 9f5a 47bc 97fa 1bb9 0400 0000
00000090: 1e21 a83b 0f64 c03b ec62 483e 60a9 ff3a
000000a0: 0400 0000 2fe3 823c 0400 0000 6cb5 90bb
000000b0: ea42 003c 0400 0000 2623 3c3c efd1 7f37
000000c0: 7e1f 7a3b 7044 473c da82 07bb 0400 0000
000000d0: e9dc c13a 048e 0bbb 6a72 59bc 9f54 b83b
000000e0: 0400 0000 1e0c 4fbd 0400 0000 ddab b3ba
000000f0: 3a85 7ebc 0400 0080 64df d1bc 068f 2cba
00000100: 9e80 d0bb fb7d b6bc 66ce 5a3a 0400 0000
00000110: d8fa 5c3b ba90 163a da45 a8be 0cf9 783b
00000120: 0400 0000 360a 133c 0400 0000 94a2 ea39
00000130: 9731 05ba 0400 0080 5efa 8cbc abab 3cb9
00000140: e5e0 8cbc 913a b9bc 36f9 fdbb 0400 0080
00000150: f3be b339 fd01 e3bc 3ea4 2c3a a4f0 0bbc
00000160: 0400 0000 7d04 b6bc 0400 0000 3e9a bbb9
00000170: 67b5 aabb 0400 0000 03e9 66bb b142 c0ba
00000180: 9316 9cbb 5d7f 513d 0e0c 503a 0400 0000
00000190: 99ba 23bc a30c b63a a8d9 983e 3fe6 883c
000001a0: 0400 0080 4b5a 093c 0400 0000 9a48 023b
000001b0: f859 153c 0400 0080 4e62 333d 0eba cf39
000001c0: 4a58 323c f94f e53c 4b83 5d3a 0400 0080
000001d0: 1d0b 9038 43e4 803b 84a9 0d3c 95e2 6bbb
000001e0: 0400 0080 c894 8f3c 0400 0080 7325 5138
000001f0: 8ab1 b23b 0400 0000 098d 223a d597 793a
00000200: 36ad 083b e335 1e3a 5d16 e7b8 0400 0000
00000210: 7095 fcba 513a c73b 9a65 a93a 5fdc 3a3b
00000220: 0400 0080 c77f 2e3c 0400 0000 34b0 213a
00000230: 2b7a fb3b 0400 0000 b2ba 2338 e554 5139
00000240: d1fe 50ba ccc4 8abc 895d bb39 0400 0000
00000250: abf2 04b9 d632 3b3c e801 bdba 0b18 c8bb
00000260: 0400 0000 7137 4e3b 0400 0080 699e c6b8
00000270: 7b22 ac3a 0400 0080 910d b63b 0ba0 c738

exp_avg_sq f4 [10, 16]
0.0016509912 0.005657562 0.03141611 5.10137e-12 0.0007579268 0.0019561746 0.09630128 0.058107834
1.0184755e-11 0.0029150797 1.135126e-14 0.004649496 0.010572929 3.9598316e-12 0.04737485 0.0018746745
2.6203428e-05 0.0004285497 0.0013801067 1.5073245e-12 0.00022315363 0.00023979803 0.014778091 0.0020141033
1.0121832e-11 0.000907206 8.4057295e-13 0.0022019015 0.012584211 1.7297083e-12 0.0055106925 0.0026220381
0.002716739 0.0118245315 0.0039660437 6.4073243e-12 0.022112021 0.0007368503 0.35166916 0.03515277
2.6211461e-12 0.011313844 1.2383177e-12 0.07610082 0.0036987197 2.24655e-12 0.0013661148 0.012843372
0.00026078755 0.0018993105 0.01432891 1.2230854e-13 0.0006646669 0.0010129742 0.05943908 0.021938173
6.2927536e-12 0.010256063 5.360164e-13 0.003134556 0.0372907 6.253133e-11 0.014181262 0.0063557727
0.0013894143 0.0058482653 0.0026019048 5.1037863e-12 0.03575512 0.0007666078 0.39008927 0.02106399
1.0672004e-11 0.031196492 8.6991276e-13 0.08906626 0.012635011 2.850161e-12 0.0005649002 0.0126782255
0.0016490868 0.0046287794 0.00072707434 6.502512e-13 0.0045913844 0.028658744 0.0026174437 0.0041682995
2.8639268e-12 0.0075387517 2.204254e-16 0.0018104808 0.00035261016 9.233733e-12 0.0004339035 0.00036467068
0.002575802 0.010388508 0.025168883 4.6329386e-12 0.035008352 0.0008885512 0.36860108 0.088960305
9.480338e-13 0.02249446 8.7928346e-13 0.049877036 0.007681435 4.2653524e-12 0.039416503 0.006000668
0.00081439456 0.009321304 0.00013058113 1.2286511e-10 0.0019926098 0.06715809 0.0011533524 0.0026684687
1.7476849e-10 0.009236613 3.9662098e-14 0.00050169165 7.563566e-05 1.5714567e-11 0.00016413548 0.0003305705
0.0015129568 0.00052432413 0.0023436667 3.6809765e-12 0.00063927635 0.007459309 0.022311667 0.014189382
1.5825558e-11 0.0027494053 6.7400154e-13 0.006386456 0.0022447472 1.2865195e-11 0.000638796 0.0001409229
0.00048442793 0.011603664 0.00046631446 2.7184515e-12 0.005395394 0.06409848 0.0013297172 0.0032554928
7.356505e-12 0.002228948 2.6649039e-11 0.00092199707 6.101546e-05 1.2145584e-12 0.0001620344 6.5726104e-05
00000000: 1266 d83a 1263 b93b 2eae 003d 0e7d b32c
00000010: 9baf 463a 2a33 003b 9b39 c53d 7b02 6e3d
00000020: 0f2c 332d ec0a 3f3b 727c 4c28 cd5a 983b
00000030: 143a 2d3c fe52 8b2c 210c 423d a3b7 f53a
00000040: 6fcf db37 f8ae e039 b2e4 b43a 1723 d42b
00000050: 59fe 6939 4b72 7b39 ce1f 723c 0cff 033b
00000060: ae10 322d 90d1 6d3a aa99 6c2b c74d 103b
00000070: 022e 4e3c 4f6f f32b 0a93 b43b 80d6 2b3b
00000080: 510b 323b aebb 413c 96f5 813b 0c70 e12c
00000090: 4524 b53c 3029 413a fb0d b43e 5afc 0f3d
000000a0: 5f72 382c b35d 393c 1947 ae2b bfda 9b3d
000000b0: 3866 723b 3f16 1e2c 350f b33a 026d 523c
000000c0: 50ba 8839 49f2 f83a cec3 6a3c 09b5 092a
000000d0: 0a3d 2e3a c6c5 843a 6576 733d afb7 b33c
000000e0: 1668 dd2c 0c09 283c 0de0 162b 206d 4d3b
000000f0: 22be 183d 0282 892e 8658 683c 1644 d03b
00000100: 021d b63a cea2 bf3b b884 2a3b d292 b32c
00000110: f673 123d 2ef6 483a c8b9 c73e 648e ac3c
00000120: 6fbe 3b2d c98f ff3c d2db 742b 5f68 b63d
00000130: 1403 4f3c f08f 482c d015 143a 55b8 4f3c
00000140: 2c26 d83a 04ad 973b 2299 3e3a 8907 372b
00000150: 5373 963b bec5 ea3c 6b89 2b3b 3b96 883b
00000160: eb87 492c a207 f73b 1822 7e25 a84d ed3a
00000170: 89de b839 0971 222d 8b7d e339 4531 bf39
00000180: c9ce 283b 9034 2a3c f92e ce3c cd01 a32c
00000190: eb64 0f3d a9ed 683a 48b9 bc3e d230 b63d
000001a0: 846c 852b 4d46 b83c 0d7f 772b dd4b 4c3d
000001b0: 8cb4 fb3b e112 962c 3373 213d 40a1 c43b
000001c0: 187d 553a 62b8 183c 9bec 0839 7417 072f
000001d0: 7296 023b 2e8a 893d 162c 973a 7ae1 2e3b
000001e0: f528 402f 2a55 173c 499f 3229 f583 033a
000001f0: 969e 9e38 0f3a 8a2d c81b 2c39 6c50 ad39
00000200: 684e c63a cc72 093a 3498 193b 4a83 812c
00000210: 1c95 273a 386d f43b f5c6 b63c 957a 683c
00000220: fd33 8b2d 5e2f 343b eeb6 3d2b 7a45 d13b
00000230: 9c1c 133b b053 622d e074 273a b4c4 1339
00000240: d1fa fd39 4b1d 3e3c ab7b f439 454b 3f2c
00000250: d8cb b03b 1046 833d e849 ae3a 1b5a 553b
00000260: c16a 012d 8b13 123b 4d68 ea2d 2db2 713a
00000270: daea 7f38 14ef aa2b c7e7 2939 6fd6 8938

exp_avg f4 [10]
-0.017047219 0.004137341 0.031579264 -0.02789838 -0.018115558 -0.0050068405 0.019154733 0.008844786
0.007233304 -0.0028814184
00000000: 9ca6 8bbc 8892 873b 4259 013d 258b e4bc
00000010: 1467 94bc 6c10 a4bb 63ea 9c3c b9e9 103c
00000020: 5a05 ed3b 2ed6 3cbb

exp_avg_sq f4 [10]
0.0013077797 0.0004205657 0.0018441572 0.0011553795 0.0018347307 0.0005931295 0.0026362275 0.0006154201
0.0003676417 0.00047456525
00000000: ce69 ab3a 5f7f dc39 a6b7 f13a 1a70 973a
00000010: 597b f03a 3f7c 1b3a 8fc4 2c3b 2554 213a
00000020: 09c0 c039 12cf f839
