course/week3/fashion_project/checkpoints/margin.ckpt (torch, 160739 bytes, 12 tensors)

model.0.weight f4 [16, 784]
0	0x3ea346a0	0.3188982
1	0x3cfbc03f	0.030731319
2	0x3db6e464	0.08930281
3	0xbe4faff3	-0.20281963
4	0xbf14c0dc	-0.5810678
5	0xbf3dfd12	-0.7421428
6	0xbf91e536	-1.1398075
7	0xbf38ee71	-0.7223883
8	0x3db0288c	0.08601484
9	0x3d8112d7	0.063024215
10	0x3f39a084	0.7251055
11	0x3f2e7dd8	0.6816077
12	0xbdbf6e37	-0.09347194
13	0xbf540be0	-0.8283062
14	0xbf84a5a6	-1.0363052
15	0xbf803bc0	-1.0018234
16	0xbe86dac4	-0.2633878
17	0x3e63a4e9	0.22230877
18	0x3e30fa09	0.17282881
19	0xbd96384e	-0.07334958
20	0xbf33f8ea	-0.7030169
21	0xbf1e0e47	-0.61740535
22	0xbea54aff	-0.3228378
23	0xbe8d4b53	-0.2759653
24	0x3b0019fe	0.0019546743
25	0xbe067aee	-0.13132831
26	0x3e9a99da	0.30195504
27	0x3dc419a1	0.09575201
28	0x3e71e4df	0.23622464
29	0xbddcd709	-0.10783202
30	0x3e9d6e3f	0.30748174
31	0xbe713a90	-0.23557496
32	0xbf0beae2	-0.5465528
33	0xbecf1d69	-0.40452126
34	0xbd9e2852	-0.07722534
35	0x3e91cf53	0.28478488
36	0x3d1d28d6	0.038369022
37	0x3dbe1b96	0.09282605
38	0xbdbaa018	-0.09112567
39	0x3e4853d7	0.19563232
40	0x3d5ccb94	0.053905085
41	0xbcd94a37	-0.026524646
42	0x3e58d70b	0.21175782
43	0x3d9f7394	0.07785717
44	0x3ddecdfa	0.10879131
45	0xbd596444	-0.053074136
46	0xbe3325fb	-0.17494957
47	0xbe3a6dea	-0.18205991
48	0x3ea3903a	0.31945974
49	0xbd3311fa	-0.043718316
50	0xbdc696c0	-0.09696722
51	0xbef70d11	-0.48252156
52	0xbed6d6f8	-0.41960883
53	0xbe919060	-0.28430462
54	0xbb8879c1	-0.004164905
55	0xbf11efab	-0.5700633
56	0xbe3d780b	-0.18502824
57	0xbe3fa740	-0.18716145
58	0x3e0a027a	0.13477507
59	0xbbf5afd4	-0.007497767
60	0xbe9c7b5c	-0.30562866
61	0x3e855754	0.2604319
62	0x3f2bdac0	0.6713066
63	0x3dc39130	0.09549177
64	0xbe59afc6	-0.21258458
65	0xbe9ae2c9	-0.30251148
66	0xbec9752e	-0.39347214
67	0xbd4a1e5d	-0.049345363
68	0xbea5069f	-0.32231614
69	0xbe60b0ca	-0.2194244
70	0xbdba5c75	-0.09099666
71	0xbeb9e088	-0.36304116
72	0xbea56a56	-0.3230769
73	0xbee69865	-0.45038143
74	0xbea222fc	-0.31667316
75	0xbdf0dc2b	-0.11760744
76	0x3ed24c0a	0.41073638
77	0x3f14d6d5	0.5814031
78	0x3f39912d	0.72487146
79	0x3f00a35c	0.50249267
80	0xbe919544	-0.28434193
81	0xbf6210b8	-0.8830676
82	0xbc31b247	-0.010845727
83	0xbece42d2	-0.40285355
84	0xbefc2fc8	-0.49255204
85	0x3dd672a8	0.10471088
86	0xbdfec654	-0.12440172
87	0xbe0bc1f8	-0.13648212
88	0x3e98602e	0.2976088
89	0x3f40d3fa	0.7532345
90	0x3d473796	0.048636995
91	0xbf102390	-0.56304264
92	0xbe7db9df	-0.24777935
93	0xbeb96685	-0.3621103
94	0xbe450036	-0.19238362
95	0xbdec2506	-0.11530499
96	0x3f104836	0.56360185
97	0xbeb12b7d	-0.3460349
98	0xbf7a41ca	-0.97756636
99	0xbe843427	-0.2582104
100	0xbe599383	-0.21247678
101	0xbe7a8d26	-0.24467906
102	0xbef336f8	-0.47502875
103	0xbde9f419	-0.11423511
104	0x3dd717eb	0.10502609
105	0x3e930558	0.28715014
106	0x3f47ea17	0.7809157
107	0x3f260e3e	0.6486548
108	0x3d5a16a2	0.05324424
109	0xbf100e83	-0.56272143
110	0x3d4b1e98	0.049589723
111	0x3f0e33b4	0.5554764
112	0x3d889f60	0.06671023
113	0x3e99603e	0.2995624
114	0x3e6c693e	0.23087022
115	0x3f2e5324	0.6809561
116	0x3f20d6f0	0.6282797
117	0x3ec37c1d	0.38180628
118	0xbe51ea84	-0.20499617
119	0xbf16cf9f	-0.58910555
120	0xbec31b3b	-0.38106713
121	0xbd62965c	-0.055319175
122	0xbe571fbf	-0.21008204
123	0xbed716c5	-0.4200956
124	0xbd5e48dc	-0.054268703
125	0xbe914603	-0.28373727
126	0xbf087f2f	-0.53319067
127	0xbdf1aaac	-0.11800131
128	0xbef89881	-0.4855385
129	0xbf0591b7	-0.5217547
130	0xbe2b0ab6	-0.16703305
131	0xbedb73d3	-0.42861804
132	0xbeb68b1b	-0.35653004
133	0xbc443086	-0.0119744595
134	0x3ecb99f4	0.39765894
135	0x3e98a98f	0.29816863
136	0xbe8df089	-0.27722576
137	0xbde50a55	-0.11183611
138	0x3e806aae	0.2508139
139	0xbe7fbdad	-0.249747
140	0x3cfc5032	0.030799959
141	0x3e339bc6	0.17539892
142	0x3f112899	0.5670257
143	0xbd3bed76	-0.045880757
144	0x3ec4a54f	0.3840737
145	0x3ed65bca	0.41866904
146	0xbe20c00a	-0.15698257
147	0xbee4dbd2	-0.4469896
148	0xbf12f04a	-0.573979
149	0xbeb35372	-0.350246
150	0xbed66ff1	-0.4188228
151	0xbece34f3	-0.40274772
152	0xbdcc35cf	-0.09971201
153	0xbebc53ff	-0.36782834
154	0xbf01f790	-0.50768375
155	0xbe38644a	-0.18007007
156	0xbed7fe52	-0.42186219
157	0xbefe3063	-0.4964629
158	0xbe89ff30	-0.26952505
159	0xbe5af7c6	-0.2138358
160	0x3e25950c	0.16170138
161	0x3e33300f	0.17498802
162	0x3eb8097b	0.35944733
163	0x3df680e6	0.12036304
164	0x3b241673	0.0025037795
165	0x3e845aaf	0.25850436
166	0x3d8c1570	0.068400264
167	0xbf3090bc	-0.6897085
168	0xbeacf6e0	-0.337821
169	0xbe7d00b3	-0.24707298
170	0xbd37ed91	-0.044904295
171	0x3e986b2a	0.2976926
172	0x3e21c7d5	0.15798886
173	0xbe1c5b05	-0.15269096
174	0xbd214084	-0.039368168
175	0x3d80f880	0.062973976
176	0xbf0bf55c	-0.54671264
177	0xbf32f751	-0.69908625
178	0xbeb74135	-0.35791937
179	0xbf1a84cc	-0.6035888
180	0xbe78305e	-0.242372
181	0xbe39a3c6	-0.18128881
182	0xbf559af1	-0.83439547
183	0x3c6ec6d5	0.014573772
184	0xbf011e78	-0.50437117
185	0xbf2ca530	-0.67439556
186	0xbeab1073	-0.33410987
187	0xbe7d0d2e	-0.24712059
188	0x3e3ec4c9	0.18629755
189	0x3ea34195	0.31885973
190	0x3e081a15	0.132912
191	0x3dbf39e4	0.09337214
192	0x3cdd0f63	0.026984876
193	0xbcb77066	-0.022392463
194	0xbf012e27	-0.5046105
195	0xbf9016b1	-1.1256925
196	0xbebbbb28	-0.36666226
197	0xbe1d9c88	-0.15391743
198	0x3f17f315	0.5935529
199	0x3eb0ccf7	0.34531376
200	0x3d5c59b2	0.053796478
201	0xbf3bd40a	-0.7337042
202	0xbe62a308	-0.22132504
203	0x3e33faa9	0.17576088
204	0xbe9e17bf	-0.30877492
205	0xbf4cb226	-0.7995933
206	0xbf0e8ba9	-0.55681854
207	0xbea6fc0d	-0.32614174
208	0xbc839bd8	-0.016065523
209	0xbe89cdc8	-0.2691481
210	0xbe09f814	-0.1347354
211	0x3ce8f50b	0.028437158
212	0xbee3b36b	-0.44472823
213	0xbe911f13	-0.2834402
214	0xbee15c7f	-0.4401588
215	0xbf2d2916	-0.6764082
216	0xbd693a38	-0.056940287
217	0x3dcfb577	0.101420335
218	0x3d0b6877	0.034035172
219	0x3e47f3f2	0.19526652
220	0x3d526efc	0.051375374
221	0xbe453394	-0.19257957
222	0xbec248db	-0.3794621
223	0xbc9ed35b	-0.019387892
224	0xbf2d1efe	-0.67625415
225	0xbd8d7ef3	-0.06908979
226	0x3f81a587	1.012864
227	0x3f1e67f9	0.618774
228	0xbeac0b02	-0.33602148
229	0xbf927470	-1.1441784
230	0xbf088463	-0.53327006
231	0x3ec2f2e5	0.3807594
232	0xbeb1984e	-0.34686512
233	0xbed905f6	-0.4238736
234	0xbe3a9240	-0.18219852
235	0xbe733d5d	-0.23753877
236	0x3da7c4ec	0.08191857
237	0x3f032ff9	0.51245075
238	0x3e261ca7	0.16221868
239	0x3ef05ed6	0.46947354
240	0x3baf79f6	0.005355115
241	0xbe25d323	-0.16193824
242	0xbe08a0a7	-0.13342534
243	0xbe358f90	-0.17730546
244	0x3cfca3f9	0.030839907
245	0x3d2a0f74	0.041518643
246	0xbe1334f8	-0.14375675
247	0xbdb79757	-0.08964413
248	0x3d85e6a1	0.065381296
249	0x3da34dab	0.07973798
250	0xbd00a86a	-0.031410612
251	0x3ed76a0a	0.4207309
252	0xbf6ee36b	-0.9331576
253	0xbecc98e3	-0.39960393
254	0x3ee9b5b6	0.45646447
255	0x3f3209c3	0.69546145

model.0.bias f4 [16]
0	0x3ffc0942	1.9690325
1	0x3e86058b	0.26176104
2	0x3e9f8bd0	0.31161356
3	0xbd62c211	-0.055360857
4	0x3d61dfe0	0.055145144
5	0x3f1950b8	0.5988879
6	0xbf3a606f	-0.72803396
7	0x3f6a01e7	0.9140915
8	0xbcf8006b	-0.030273637
9	0x3fad7dc1	1.3554002
10	0xbd2d7f7b	-0.042357903
11	0xbe8e25a5	-0.27763095
12	0x3f4ce0f2	0.8003074
13	0x3ba4a32a	0.0050243335
14	0x3f2b88e7	0.6700577
15	0x3f6d90c0	0.92798996

model.2.weight f4 [10, 16]
0	0xbc996fcd	-0.018730069
1	0xbe4d8fb2	-0.20074347
2	0x3e765cf5	0.24058898
3	0x3d8e7c62	0.06957318
4	0xbe411bfd	-0.18858333
5	0xbf1eef4c	-0.6208389
6	0x3d77ccce	0.06049805
7	0x39713f74	0.00023007189
8	0xbe71ed04	-0.2362557
9	0xbe8b487e	-0.27203745
10	0xbd9d0bbd	-0.076682545
11	0xbe1fafbc	-0.15594381
12	0xbdde1af0	-0.10844982
13	0xbddb6f0d	-0.10714541
14	0x3db67d89	0.08910663
15	0xbe3b6075	-0.18298514
16	0xbee4d69e	-0.4469499
17	0xbf0911fc	-0.53543067
18	0xbf0b9967	-0.5453095
19	0xbe53b30a	-0.20673767
20	0xbd93ac13	-0.07210555
21	0xbf05b3ad	-0.5222729
22	0x3e75d6f4	0.2400778
23	0xbee3ca95	-0.44490495
24	0x3daae5ec	0.08344635
25	0xbee843c5	-0.45364204
26	0xba15af18	-0.000570999
27	0x3e98bcd6	0.2983157
28	0x3ed987fd	0.42486563
29	0xbe5674ac	-0.20942944
30	0x3f22cdde	0.6359538
31	0x3e88382a	0.2660535
32	0x3d1e9a89	0.038721595
33	0xbd81ea1c	-0.06343481
34	0x3d853d2c	0.06505808
35	0x3e2cb191	0.16864611
36	0xbc44994f	-0.011999442
37	0xbf76e7da	-0.9644753
38	0x3decd410	0.11563885
39	0xbda3becc	-0.07995376
40	0x3e554efb	0.2083091
41	0xbe95061f	-0.29106233
42	0x3e5b8836	0.21438679
43	0x3e108c3f	0.14116
44	0xbed4b8a8	-0.41547132
45	0x3e4792dc	0.19489616
46	0xbf101099	-0.56275326
47	0x3e6275a7	0.22115193
48	0xbf200ba0	-0.6251774
49	0xbe9748aa	-0.29547626
50	0x3e3d6443	0.18495278
51	0xbe84a9da	-0.25910836
52	0xbe518055	-0.20459111
53	0xbea684f6	-0.32523316
54	0xbd1062ef	-0.0352506
55	0x3ad241b5	0.0016041311
56	0x3e3d00a1	0.18457271
57	0x3ded7456	0.11594455
58	0x3dfb504a	0.12271173
59	0x3e02d005	0.12774666
60	0x3e852848	0.26007295
61	0x3b8b97e3	0.0042600497
62	0x3d66da0d	0.056360293
63	0x3df3328a	0.11874874
64	0xbe521f5d	-0.20519777
65	0xbf017783	-0.50572985
66	0x3d793d2c	0.060849354
67	0x3e63bc2e	0.22239754
68	0x3e110e1b	0.14165537
69	0xbf41ece7	-0.7575211
70	0x3e78f20c	0.24311084
71	0xbe2eaf80	-0.17059135
72	0xbd46d9bd	-0.048547495
73	0x3ddcb806	0.10777287
74	0x3df149c6	0.11781649
75	0x3e897efb	0.2685469
76	0xbe115a02	-0.14194492
77	0x3e0fabd9	0.14030398
78	0xbf26d137	-0.65162987
79	0x3d2022a6	0.039095543
80	0x3f24e632	0.6441375
81	0x3c96acf0	0.01839301
82	0x3e79180f	0.24325584
83	0xbe30252c	-0.1720168
84	0x3ea277ce	0.3173203
85	0x3e5997d8	0.2124933
86	0xbfa17cb1	-1.2616178
87	0x3e8b5b75	0.27218214
88	0x3e484090	0.19555879
89	0x3ec34c53	0.38144168
90	0x3d0cedeb	0.034406584
91	0x3e03dfa1	0.12878276
92	0xbefd5077	-0.49475452
93	0x3ca7a7a6	0.020465683
94	0xbe92d2a9	-0.28676346
95	0x3f0630b4	0.52418065
96	0x3c2b2da6	0.010447895
97	0xbeee16ff	-0.4650192
98	0x3d856de1	0.06515098
99	0x3e1ea560	0.15492773
100	0x3eb5b2a8	0.35487866
101	0xbf5feede	-0.8747386
102	0x3da452ab	0.0802358
103	0xbc93bcd2	-0.018034372
104	0xbdc0d964	-0.09416464
105	0xbd58879e	-0.05286371
106	0x3ced3436	0.02895556
107	0xbdc62f1b	-0.096769534
108	0xbe9d4de7	-0.30723497
109	0xbdefc779	-0.11707968
110	0xbd1ee947	-0.03879669
111	0xbdc02eec	-0.0938395
112	0xbed67283	-0.4188424
113	0x3ebcb2de	0.36855215
114	0xbeee9104	-0.46595013
115	0xbe30b1c7	-0.17255317
116	0xbf077cf4	-0.5292504
117	0x3e37d8df	0.17953824
118	0xbf69571d	-0.9114855
119	0x3e482482	0.19545177
120	0xbcc00aea	-0.023442704
121	0x3f0c3116	0.547624
122	0x3e08e409	0.13368239
123	0xbefb2677	-0.49052784
124	0xbf9deeb0	-1.2338467
125	0x3de162d5	0.11005179
126	0xbffceba1	-1.9759408
127	0xbed012ba	-0.40639287
128	0xbc59c036	-0.013290456
129	0xbf1f0b32	-0.6212646
130	0x3de91e5f	0.11382746
131	0x3e01c8b9	0.12674226
132	0xbf20a73e	-0.6275519
133	0x3e2ad70b	0.16683595
134	0xbe65db73	-0.22446994
135	0x3e95367f	0.2914314
136	0x3dc59ace	0.09648667
137	0x3d538060	0.0516361
138	0xbe60f572	-0.2196863
139	0x3ec872ae	0.39149994
140	0xbeba7faf	-0.3642554
141	0x3e15457d	0.14577289
142	0xbf2b5dd0	-0.6694002
143	0xbf405a31	-0.7513762
144	0xbf2a1958	-0.6644492
145	0x3db76364	0.08954504
146	0xbe25976f	-0.16171049
147	0x3e17aa38	0.14811027
148	0x3edaf2e3	0.42763433
149	0x3eaf4625	0.34233204
150	0xbf92b009	-1.1459972
151	0x3ee0275c	0.4378003
152	0x3dae0d9a	0.08498688
153	0xbe965777	-0.29363605
154	0xbd1241f7	-0.03570744
155	0xbeb203e6	-0.347686
156	0xbf566f91	-0.83763987
157	0xbe093f28	-0.13402998
158	0xbf3ac037	-0.72949547
159	0xbe4e657f	-0.20155905

model.2.bias f4 [10]
0	0x3ec4fa0a	0.38472015
1	0xbf144713	-0.5792095
2	0x3f50a573	0.81502455
3	0x3dcb0d8f	0.099146955
4	0x3f1e3fb5	0.6181596
5	0xbf219e95	-0.631326
6	0x3f31001e	0.69140804
7	0xbf284380	-0.65727997
8	0xbf987173	-1.1909622
9	0xbfcc5a09	-1.5964977

exp_avg f4 [16, 784]
0	0x358845de	1.0153124e-06
1	0x358845de	1.0153124e-06
2	0x358845de	1.0153124e-06
3	0x358845de	1.0153124e-06
4	0x357e87f2	9.48202e-07
5	0x358845de	1.0153124e-06
6	0x358845de	1.0153124e-06
7	0xb68d936b	-4.219289e-06
8	0xb77149b1	-1.4381877e-05
9	0xb7bd10c4	-2.2538363e-05
10	0xb7bc534e	-2.2450138e-05
11	0xb80604bf	-3.195251e-05
12	0xb7c5f16d	-2.3596653e-05
13	0xb7af52f2	-2.090025e-05
14	0xb7f7c940	-2.9538409e-05
15	0xb7c488f2	-2.342879e-05
16	0xb732a93c	-1.064903e-05
17	0xb66c8df5	-3.524937e-06
18	0xb63f1ec7	-2.8479133e-06
19	0xb623f01b	-2.4428653e-06
20	0xb60de739	-2.1145227e-06
21	0xb5a6ea2e	-1.2436119e-06
22	0x358845de	1.0153124e-06
23	0x358845de	1.0153124e-06
24	0x358845de	1.0153124e-06
25	0x358845de	1.0153124e-06
26	0x358845de	1.0153124e-06
27	0x358845de	1.0153124e-06
28	0x358845de	1.0153124e-06
29	0x358845de	1.0153124e-06
30	0x358845de	1.0153124e-06
31	0x358845de	1.0153124e-06
32	0x355a805c	8.1398116e-07
33	0x358845de	1.0153124e-06
34	0x350d0af0	5.254251e-07
35	0xb71c578b	-9.318707e-06
36	0xb8191898	-3.6500947e-05
37	0xb9f4730a	-0.00046625017
38	0xb76e18d8	-1.419169e-05
39	0xb8428d68	-4.63849e-05
40	0xb790f286	-1.7279071e-05
41	0xb73f5b88	-1.1405798e-05
42	0xb792a625	-1.7481923e-05
43	0xb7e01a3a	-2.6715094e-05
44	0xb7933fcc	-1.7553473e-05
45	0xb7c113e9	-2.3016664e-05
46	0xb738ad3f	-1.1007592e-05
47	0xb71c7ebf	-9.327835e-06
48	0xb7871731	-1.6104053e-05
49	0xb693a964	-4.400661e-06
50	0x343845e2	1.7161759e-07
51	0x358845de	1.0153124e-06
52	0x358845de	1.0153124e-06
53	0x358845de	1.0153124e-06
54	0x358845de	1.0153124e-06
55	0x358845de	1.0153124e-06
56	0x358845de	1.0153124e-06
57	0x358845de	1.0153124e-06
58	0x358845de	1.0153124e-06
59	0x358845de	1.0153124e-06
60	0xb5e8aa95	-1.7334993e-06
61	0x37eaae13	2.7976033e-05
62	0xb8933f17	-7.0212576e-05
63	0xb97b4334	-0.0002396226
64	0xb97cd534	-0.00024112017
65	0xba20a3ce	-0.00061279244
66	0xb9da096c	-0.0004158722
67	0xb8c93e37	-9.596015e-05
68	0xb8b006f6	-8.3936306e-05
69	0x361d459a	2.3435337e-06
70	0x376c3e04	1.4081135e-05
71	0xb7a3ed29	-1.954155e-05
72	0xb70d0784	-8.406005e-06
73	0xb77ef0b4	-1.5195623e-05
74	0xb7c06e2b	-2.2939485e-05
75	0xb7a88f7e	-2.009398e-05
76	0xb76a6bd3	-1.3972592e-05
77	0xb692f3f2	-4.379538e-06
78	0xb617090c	-2.250602e-06
79	0x358845de	1.0153124e-06
80	0x358845de	1.0153124e-06
81	0x358845de	1.0153124e-06
82	0x358845de	1.0153124e-06
83	0x358845de	1.0153124e-06
84	0x358845de	1.0153124e-06
85	0x358845de	1.0153124e-06
86	0x358845de	1.0153124e-06
87	0xb5bcd4f9	-1.4069075e-06
88	0x3804821c	3.1592426e-05
89	0xb8b554cd	-8.646548e-05
90	0xb8c15b44	-9.219957e-05
91	0xb983355a	-0.00025026017
92	0xb98deba3	-0.0002706918
93	0xb962e0d0	-0.00021636789
94	0xba210668	-0.0006142617
95	0xb99998f6	-0.000292964
96	0xb9a3ff70	-0.00031280098
97	0xb833381e	-4.272919e-05
98	0xb61815ad	-2.2662382e-06
99	0xb79096b4	-1.7236314e-05
100	0xb7a28a9d	-1.9376452e-05
101	0xb8025892	-3.1076903e-05
102	0xb7a4c9c4	-1.9644278e-05
103	0xb798f89a	-1.8235576e-05
104	0xb7507b75	-1.2426511e-05
105	0x3795ac0d	1.7842302e-05
106	0xb7118751	-8.674179e-06
107	0xb7103785	-8.5959955e-06
108	0xb531d2ca	-6.6244377e-07
109	0x358845de	1.0153124e-06
110	0x358845de	1.0153124e-06
111	0x358845de	1.0153124e-06
112	0x358845de	1.0153124e-06
113	0x358845de	1.0153124e-06
114	0xb58ba6e2	-1.0404876e-06
115	0xb8cbbd5c	-9.715065e-05
116	0xb8fe07d4	-0.00012113122
117	0xb97ed04d	-0.00024300926
118	0x3876c01c	5.8829886e-05
119	0xb8def1f4	-0.00010630852
120	0xb96909d4	-0.00022224273
121	0xb923f214	-0.00015635072
122	0xba0ed401	-0.0005448461
123	0xba080660	-0.0005188938
124	0xb94ad38d	-0.0001934303
125	0xb8bfdb97	-9.1484915e-05
126	0xb8469737	-4.734771e-05
127	0xb81986d2	-3.6603604e-05
128	0xb89107bc	-6.9155794e-05
129	0xb8199c5a	-3.6623656e-05
130	0xb800a322	-3.0669507e-05
131	0xb6189cb0	-2.274097e-06
132	0xb6ede5a8	-7.089886e-06
133	0x37712f14	1.4375681e-05
134	0xb65a46cb	-3.2525738e-06
135	0x375ea0ea	1.3269697e-05
136	0xb746aee4	-1.184244e-05
137	0x358845de	1.0153124e-06
138	0x358845de	1.0153124e-06
139	0x358845de	1.0153124e-06
140	0x358845de	1.0153124e-06
141	0xb52782c7	-6.2402654e-07
142	0x369fbb93	4.760406e-06
143	0xb80e8617	-3.398032e-05
144	0xb99ec308	-0.00030281418
145	0xb9a25c20	-0.00030967686
146	0xb91006f4	-0.000137355
147	0xb7510058	-1.2457451e-05
148	0xb821138f	-3.8403607e-05
149	0xb970ff34	-0.00022983254
150	0xb941e806	-0.0001849235
151	0xba069340	-0.00051336363
152	0xba221d0e	-0.0006184139
153	0xba2298b5	-0.00062025647
154	0x3695d6cd	4.465552e-06
155	0xb8c5c37d	-9.4301045e-05
156	0xb95d9133	-0.00021130293
157	0xb898195f	-7.2526505e-05
158	0xb7c408d8	-2.3369139e-05
159	0xb85c41b0	-5.2513264e-05
160	0xb960a0c4	-0.00021422195
161	0xb8146f46	-3.538958e-05
162	0xb7f0956b	-2.8679808e-05
163	0x376ad17a	1.3996259e-05
164	0x372bad42	1.0232734e-05
165	0xb68a3b49	-4.119622e-06
166	0x358845de	1.0153124e-06
167	0x355a805c	8.1398116e-07
168	0x358287b1	9.725246e-07
169	0xb6da0232	-6.497162e-06
170	0x380691ee	3.2083997e-05
171	0xb94cc955	-0.00019529958
172	0xb936b265	-0.0001742333
173	0xb9c544aa	-0.00037625927
174	0xb971f820	-0.00023075985
175	0x36dbb415	6.547673e-06
176	0x38bc6ae8	8.9844514e-05
177	0xb98bfdfe	-0.00026701385
178	0xb95b3b37	-0.00020907527
179	0xb987efb4	-0.000259278
180	0xb981971e	-0.00024717388
181	0xb9053419	-0.00012703276
182	0xb936b586	-0.00017424495
183	0xb888ea3f	-6.528617e-05
184	0xb9435a5b	-0.00018630309
185	0xb940dcd0	-0.00018392806
186	0xb94d5d4d	-0.00019585081
187	0xb9baa22a	-0.00035597506
188	0xb92c5c39	-0.00016437554
189	0xb82e3c88	-4.1541207e-05
190	0xb83ff34e	-4.5764544e-05
191	0xb824c6cc	-3.928579e-05
192	0xb72ee6cd	-1.0424946e-05
193	0xb75c65ad	-1.3136695e-05
194	0xb7bfbf88	-2.2858163e-05
195	0x355a805c	8.1398116e-07
196	0xb6b97980	-5.527574e-06
197	0x382607e7	3.9584844e-05
198	0xb8e8e048	-0.00011104398
199	0xb9603571	-0.00021382213
200	0xb989b54e	-0.0002626576
201	0xb9c38feb	-0.00037300526
202	0xb99d194a	-0.00029964215
203	0xb92fc627	-0.00016763118
204	0xb8a11c36	-7.682333e-05
205	0xb9354002	-0.0001728535
206	0xb94f519c	-0.0001977146
207	0xb98dc9af	-0.00027043882
208	0xb9311391	-0.00016887324
209	0xb95a525d	-0.00020820783
210	0xb97b4ff7	-0.00023967015
211	0xb8c2a293	-9.280923e-05
212	0xb73af08f	-1.1142473e-05
213	0xb9933f13	-0.0002808502
214	0xb99d9f1e	-0.00030063925
215	0xb9e89304	-0.00044360023
216	0xb9c1b14b	-0.00036943922
217	0xb9270f98	-0.0001593217
218	0xb9164a72	-0.00014332848
219	0xb6d9abaf	-6.4870906e-06
220	0xb7aabed5	-2.0354442e-05
221	0xb80361e1	-3.132399e-05
222	0xb7d996c0	-2.5938614e-05
223	0xb851733b	-4.99368e-05
224	0xb772ed6c	-1.4479603e-05
225	0x38049155	3.1606603e-05
226	0xb9cbb57d	-0.00038854397
227	0xb9ca5165	-0.00038589086
228	0xb9664e37	-0.00021963647
229	0xb956022b	-0.00020409438
230	0xb9c90ab9	-0.00038345697
231	0xb9c1a760	-0.00036936533
232	0xb95fc072	-0.00021338629
233	0xb98bedf8	-0.00026689447
234	0xb8e896f4	-0.00011090739
235	0xb965e5bd	-0.00021924726
236	0xb863b7cb	-5.4292188e-05
237	0xb883f00e	-6.2912804e-05
238	0xb361560e	-5.246516e-08
239	0xb9a94b8a	-0.00032290473
240	0xb9a0894b	-0.0003061987
241	0xb9584c32	-0.0002062775
242	0xb9384612	-0.0001757371
243	0xb96f66a9	-0.0002283106
244	0xb988e3b7	-0.00026109602
245	0xb99b6a82	-0.00029643258
246	0xb90d6607	-0.00013484816
247	0xb8d32ced	-0.00010069632
248	0xb8e946c3	-0.00011123486
249	0xb7ee1fb5	-2.8386576e-05
250	0xb7715f64	-1.4386929e-05
251	0xb828bb75	-4.0228904e-05
252	0xb779cf44	-1.4889814e-05
253	0xb9bd574f	-0.0003611394
254	0xb9aabcb3	-0.0003256552
255	0xb9a25985	-0.00030965745

exp_avg_sq f4 [16, 784]
0	0x30dd64f2	1.6108557e-09
1	0x30df9c38	1.6269786e-09
2	0x30e5c042	1.6716586e-09
3	0x3171b76b	3.5174377e-09
4	0x31c54fdc	5.7425336e-09
5	0x32173251	8.800797e-09
6	0x335c7cce	5.133625e-08
7	0x33f376c2	1.1337171e-07
8	0x34d0cd55	3.8892418e-07
9	0x3540a0f6	7.17598e-07
10	0x35a0e3ca	1.1987224e-06
11	0x35e2878b	1.687776e-06
12	0x35e30860	1.6915255e-06
13	0x35ff9a85	1.9043952e-06
14	0x35edc4ce	1.7715154e-06
15	0x360a385d	2.059641e-06
16	0x361ad509	2.307179e-06
17	0x360cdeeb	2.099138e-06
18	0x35908b59	1.0769392e-06
19	0x359844eb	1.134494e-06
20	0x359a424e	1.1493191e-06
21	0x35746a2d	9.105159e-07
22	0x3588178c	1.0139643e-06
23	0x35173e24	5.634231e-07
24	0x34324dfe	1.6605915e-07
25	0x33984ddb	7.0922134e-08
26	0x323c9b1e	1.097831e-08
27	0x328940d6	1.5978383e-08
28	0x30dd81d8	1.611677e-09
29	0x30dfa368	1.6271828e-09
30	0x311afd6a	2.2553999e-09
31	0x327bbef3	1.465354e-08
32	0x32eeb3c2	2.7788591e-08
33	0x33aefcdc	8.148501e-08
34	0x34a5099b	3.0740634e-07
35	0x354c3ac6	7.608145e-07
36	0x35bcfb2b	1.4080191e-06
37	0x36051095	1.9828196e-06
38	0x36215308	2.40392e-06
39	0x366359af	3.3877839e-06
40	0x36a69b59	4.9652704e-06
41	0x36d99a01	6.4850324e-06
42	0x36e77408	6.8978443e-06
43	0x36ffbd67	7.6216415e-06
44	0x36fcce1b	7.534179e-06
45	0x36eec0a9	7.1153813e-06
46	0x36f605d7	7.332051e-06
47	0x36ecaced	7.0534793e-06
48	0x36d44814	6.3264833e-06
49	0x3693fa8d	4.4101093e-06
50	0x3693108e	4.3828686e-06
51	0x364b9f6d	3.0342155e-06
52	0x35d11c5d	1.5579968e-06
53	0x34a90685	3.1483447e-07
54	0x33d2da0f	9.818552e-08
55	0x32ae6ccb	2.030574e-08
56	0x30de5809	1.6177647e-09
57	0x30e91c1c	1.696097e-09
58	0x31699afa	3.3994056e-09
59	0x32da7546	2.543187e-08
60	0x342293bd	1.5141173e-07
61	0x34e1a382	4.2028483e-07
62	0x358c038b	1.0431844e-06
63	0x35cd1d2a	1.5282178e-06
64	0x35dcd30a	1.6452698e-06
65	0x3626a418	2.4831443e-06
66	0x36315f2f	2.643046e-06
67	0x364b0b36	3.0255883e-06
68	0x368f3c14	4.268726e-06
69	0x36b91219	5.5155365e-06
70	0x36e506e1	6.8255326e-06
71	0x370e0f2f	8.467395e-06
72	0x37157c3f	8.91002e-06
73	0x370ef1fc	8.520201e-06
74	0x371e4671	9.433935e-06
75	0x3734a54d	1.0767323e-05
76	0x3725f9e5	9.8929495e-06
77	0x371083a4	8.613719e-06
78	0x370de633	8.457852e-06
79	0x36ef4037	7.1302306e-06
80	0x36c5246a	5.8752967e-06
81	0x3617dc9b	2.2629163e-06
82	0x3574a51c	9.113735e-07
83	0x324dca6b	1.1978595e-08
84	0x30e66ee1	1.6766216e-09
85	0x31390909	2.692618e-09
86	0x326b1cfc	1.3685391e-08
87	0x3361c8fb	5.2569685e-08
88	0x353ee9a1	7.112049e-07
89	0x359ec02b	1.1827846e-06
90	0x35efd756	1.7869559e-06
91	0x35f0d197	1.7942392e-06
92	0x36142d97	2.2080255e-06
93	0x3615d26c	2.2325212e-06
94	0x3653d42b	3.1564948e-06
95	0x36671d24	3.4438644e-06
96	0x369dc256	4.7015883e-06
97	0x36bc0747	5.603684e-06
98	0x36e341c9	6.7727856e-06
99	0x370e1646	8.4690455e-06
100	0x3730893a	1.0522368e-05
101	0x3751b5cd	1.24997e-05
102	0x375249f9	1.25341985e-05
103	0x375211ba	1.2521103e-05
104	0x375e8111	1.3262282e-05
105	0x3741937e	1.1538037e-05
106	0x374edbe2	1.2329752e-05
107	0x374dce08	1.2266923e-05
108	0x371d8027	9.387767e-06
109	0x3690fa76	4.320692e-06
110	0x3600221e	1.9093345e-06
111	0x345aaf24	2.0366548e-07
112	0x3116ee9b	2.1963504e-09
113	0x31a24610	4.7227857e-09
114	0x32c4663c	2.2863894e-08
115	0x33ee7d04	1.1105479e-07
116	0x3565c28b	8.5592245e-07
117	0x3604a107	1.9763263e-06
118	0x36031181	1.953071e-06
119	0x35fcd2f5	1.883686e-06
120	0x36196c03	2.2861648e-06
121	0x362c502f	2.567667e-06
122	0x3672c8a6	3.6177603e-06
123	0x367f6724	3.8057997e-06
124	0x3695d0f5	4.464872e-06
125	0x36d87dc1	6.4519413e-06
126	0x37261e91	9.901488e-06
127	0x373ae1ca	1.11390345e-05
128	0x374e1815	1.2284164e-05
129	0x375dde89	1.32244395e-05
130	0x378587dd	1.5918102e-05
131	0x37901646	1.717651e-05
132	0x379e4c04	1.8870465e-05
133	0x379c2a46	1.8616334e-05
134	0x378d942b	1.6877506e-05
135	0x3781725e	1.5431255e-05
136	0x375bbed7	1.3097851e-05
137	0x36d97748	6.48099e-06
138	0x360f4ee0	2.1354572e-06
139	0x33a6b326	7.762564e-08
140	0x30fd809a	1.8444724e-09
141	0x32268fbe	9.695155e-09
142	0x32df3978	2.598675e-08
143	0x35c892a8	1.4943844e-06
144	0x36121a93	2.1771164e-06
145	0x36065839	2.0018908e-06
146	0x36124d73	2.1800777e-06
147	0x360dd279	2.1133148e-06
148	0x3623581c	2.434018e-06
149	0x362c4d7c	2.56751e-06
150	0x36349705	2.6909995e-06
151	0x3664e210	3.4106233e-06
152	0x36a85db1	5.0176973e-06
153	0x370781b6	8.076828e-06
154	0x37404c3b	1.1461841e-05
155	0x374c6651	1.218317e-05
156	0x377af632	1.4958483e-05
157	0x378b6c2a	1.6620459e-05
158	0x3795b131	1.7844695e-05
159	0x37a9fe7c	2.0264873e-05
160	0x37c7bb5e	2.3809898e-05
161	0x37bf5603	2.2809027e-05
162	0x37b743a4	2.1846798e-05
163	0x37a42099	1.9565503e-05
164	0x379d7a1f	1.8772726e-05
165	0x373ffc26	1.1443195e-05
166	0x36545f31	3.164587e-06
167	0x339cddf2	7.304688e-08
168	0x310970c8	2.0000233e-09
169	0x33a0ff5b	7.4970295e-08
170	0x3524e2c9	6.1424777e-07
171	0x36233ae2	2.4323167e-06
172	0x36252599	2.46088e-06
173	0x3631d335	2.6497994e-06
174	0x3662285b	3.3700114e-06
175	0x362f7acd	2.6148512e-06
176	0x3667d29a	3.4544269e-06
177	0x3643cc3e	2.917615e-06
178	0x360efc59	2.1306535e-06
179	0x36665b1b	3.43257e-06
180	0x36bfafa3	5.7126904e-06
181	0x372b2f51	1.0203411e-05
182	0x37585062	1.2893319e-05
183	0x379590d6	1.7829629e-05
184	0x37bd5eed	2.2574759e-05
185	0x37c1c736	2.3100158e-05
186	0x37c82ea9	2.3863586e-05
187	0x37d67175	2.556362e-05
188	0x37cfbe18	2.4764842e-05
189	0x37d3b786	2.523862e-05
190	0x37de7caf	2.6522523e-05
191	0x37c927ef	2.3979663e-05
192	0x37c056cc	2.2928602e-05
193	0x378b85b3	1.663235e-05
194	0x3674b799	3.6465701e-06
195	0x34b1526d	3.3028792e-07
196	0x335be178	5.1194974e-08
197	0x34ace1bb	3.2201737e-07
198	0x355bcfc6	8.188621e-07
199	0x360590a5	1.9902739e-06
200	0x35ed4992	1.7679288e-06
201	0x36147fb5	2.2128054e-06
202	0x366f39f4	3.5647508e-06
203	0x3696d80c	4.4954995e-06
204	0x364867e1	2.9862788e-06
205	0x367fd7f6	3.8123667e-06
206	0x363f9568	2.8548184e-06
207	0x369dd60c	4.703883e-06
208	0x371350c6	8.780689e-06
209	0x3761bde9	1.3455262e-05
210	0x379bdf79	1.8581502e-05
211	0x37c7ae71	2.380388e-05
212	0x37ec2cef	2.8154316e-05
213	0x37e9baa1	2.786267e-05
214	0x37fc5ffc	3.0085437e-05
215	0x3800492f	3.0585736e-05
216	0x3805ecc1	3.1930165e-05
217	0x38046865	3.1568477e-05
218	0x38080684	3.2430995e-05
219	0x37f837ea	2.958994e-05
220	0x37fd1517	3.0169771e-05
221	0x37b7d63a	2.1915057e-05
222	0x36b9ba49	5.535116e-06
223	0x34c1f2e4	3.6125778e-07
224	0x34817fdb	2.412115e-07
225	0x35357ebb	6.761217e-07
226	0x358c7353	1.0464377e-06
227	0x3541f171	7.2249446e-07
228	0x361c7571	2.3314171e-06
229	0x365156a1	3.1193852e-06
230	0x36720979	3.6066324e-06
231	0x36951def	4.4440308e-06
232	0x368a0a6f	4.113935e-06
233	0x369d36d3	4.685347e-06
234	0x36a0b4c4	4.7894155e-06
235	0x36e9c7dd	6.9672083e-06
236	0x374c7089	1.2185549e-05
237	0x37a923c1	2.016302e-05
238	0x37e8298d	2.7675904e-05
239	0x38101224	3.434917e-05
240	0x38241942	3.912417e-05
241	0x3825d7f4	3.9540188e-05
242	0x3818338d	3.6287634e-05
243	0x3822dc86	3.882919e-05
244	0x3824d8f1	3.930269e-05
245	0x38210b6a	3.839602e-05
246	0x381d67bd	3.752833e-05
247	0x3827e268	4.002676e-05
248	0x38203119	3.81927e-05
249	0x37fdb25f	3.024301e-05
250	0x374fdcc6	1.2389564e-05
251	0x35913b80	1.0820659e-06
252	0x346c2527	2.1992729e-07
253	0x35a8c9bf	1.2575691e-06
254	0x356d78f8	8.846541e-07
255	0x3574b751	9.1163844e-07

exp_avg f4 [16]
0	0xbab46aaa	-0.0013764699
1	0x3aec3b5a	0.0018023059
2	0xb7ac7184	-2.0556858e-05
3	0x00000004	6e-45
4	0xb9af867b	-0.00033478797
5	0xbbea83c4	-0.007156821
6	0xb8fb2d12	-0.00011977008
7	0xba19b614	-0.00058636186
8	0x00000004	6e-45
9	0xbb83f21a	-0.0040266635
10	0x00000004	6e-45
11	0x3883dee4	6.2880834e-05
12	0xba97b572	-0.0011574461
13	0x00000004	6e-45
14	0x3a8fb6d2	0.0010964519
15	0xba1dde32	-0.00060221844

exp_avg_sq f4 [16]
0	0x394c98e8	0.00019511918
1	0x390f34ac	0.00013657165
2	0x38d27afc	0.00010036488
3	0x310ac88a	2.0195636e-09
4	0x39b464c7	0.0003440736
5	0x3915c0cc	0.0001428157
6	0x39a7610b	0.00031925025
7	0x399d5017	0.00030005045
8	0x2f0c059d	1.273492e-10
9	0x39855029	0.0002542746
10	0x2ece27a5	9.374838e-11
11	0x3937e2df	0.00017536756
12	0x398e4733	0.00027137398
13	0x2ff0dac5	4.381119e-10
14	0x3981f133	0.00024784505
15	0x390373b1	0.00012536232

exp_avg f4 [10, 16]
0	0x3a65b1d9	0.0008762158
1	0x3a3adb6c	0.00071280333
2	0x385487a3	5.067106e-05
3	0x00000004	6e-45
4	0x3894bb78	7.092109e-05
5	0x3b7ade4c	0.0038279472
6	0x398a3a03	0.00026364633
7	0x3befb7ed	0.007315627
8	0x00000004	6e-45
9	0x39beb6c8	0.00036375807
10	0x80000004	-6e-45
11	0x39ea74e0	0.00044719037
12	0xbb612edb	-0.0034360203
13	0x00000004	6e-45
14	0x3c185c43	0.009299341
15	0x3961ab1f	0.0002152142
16	0x3747a93c	1.1900727e-05
17	0x38711ecf	5.748757e-05
18	0x37a31e27	1.9445155e-05
19	0x80000004	-6e-45
20	0x380a5842	3.298396e-05
21	0x3a42f2c4	0.00074366876
22	0x3a0ba0e1	0.0005326402
23	0xbb6223ec	-0.0034506274
24	0x00000004	6e-45
25	0x3af20a29	0.0018466163
26	0x00000004	6e-45
27	0x3a88ba02	0.0010431411
28	0xbd114618	-0.035467237
29	0x80000004	-6e-45
30	0xbc0b2c4f	-0.008494451
31	0xb8265a83	-3.966178e-05
32	0xbadf66e1	-0.001704421
33	0x3a2c747e	0.0006578638
34	0x3786e1ae	1.6079135e-05
35	0x00000004	6e-45
36	0x391d6048	0.00015008554
37	0x3b20c558	0.0024531689
38	0xbb007aed	-0.001960452
39	0xba8a658c	-0.0010558828
40	0x00000004	6e-45
41	0x3b9e3e59	0.0048292098
42	0x00000004	6e-45
43	0xbb7b74bf	-0.0038369147
44	0x3b6298ba	0.0034575895
45	0x00000004	6e-45
46	0xb78b33ec	-1.659427e-05
47	0x39bcbd6d	0.00035999288
48	0x39e5aa17	0.0004380501
49	0x3a283a29	0.0006417358
50	0xb921fdae	-0.0001544866
51	0x00000004	6e-45
52	0x38b851e7	8.789059e-05
53	0x3a0abf16	0.0005292756
54	0x39d84e74	0.00041257183
55	0x3ceebcde	0.029142793
56	0x00000004	6e-45
57	0x3be674b6	0.007032956
58	0x00000004	6e-45
59	0x3a402b01	0.0007330627
60	0x3d281a79	0.04104087
61	0x80000004	-6e-45
62	0xbbcee034	-0.006313348
63	0x3a4e6111	0.00078727404
64	0x3909897b	0.00013116554
65	0x39ab73e4	0.00032702007
66	0x38067055	3.2052707e-05
67	0x00000004	6e-45
68	0xba2e1e19	-0.0006642058
69	0x3b9ca043	0.004779847
70	0x390fabe3	0.00013701576
71	0xbcfa4cfb	-0.030554285
72	0x00000004	6e-45
73	0x3ca837de	0.020534452
74	0x00000004	6e-45
75	0x3a8c2039	0.0010690755
76	0x3b35ccf4	0.002774057
77	0x80000004	-6e-45
78	0x3a6a03ed	0.00089269766
79	0x39ff4ea0	0.0004869597
80	0xbaf04822	-0.0018332044
81	0xbbc84b09	-0.0061124605
82	0xb9f3f5dd	-0.00046531754
83	0x80000004	-6e-45
84	0x39b79a4a	0.00035019434
85	0xbd34bb22	-0.044123776
86	0x38175eaf	3.6089386e-05
87	0x3cc00e6f	0.023444382
88	0x00000004	6e-45
89	0xbd1fc8b4	-0.039009765
90	0x00000004	6e-45
91	0xba101104	-0.00054956996
92	0xbc63d67d	-0.013906118
93	0x00000004	6e-45
94	0xbaff85b4	-0.0019494803
95	0xbb344b48	-0.0027510691
96	0xb7b1d7aa	-2.120047e-05
97	0xb9ae2188	-0.0003321285
98	0x37c6e6c4	2.3710898e-05
99	0x00000004	6e-45
100	0x39b9441e	0.000353367
101	0x3b343df6	0.0027502752
102	0x39fdbb96	0.00048395683
103	0x3d13fcd9	0.036129806
104	0x80000004	-6e-45
105	0x3c514a4a	0.01277406
106	0x00000004	6e-45
107	0x3a09080a	0.0005227333
108	0xbc28e1ba	-0.010307724
109	0x80000004	-6e-45
110	0x3b8e4b43	0.004342468
111	0x39f1a30f	0.0004608859
112	0x3a2a8a74	0.00065056165
113	0xbbbe567a	-0.0058086487
114	0x38a5896f	7.893412e-05
115	0x80000004	-6e-45
116	0x39f77866	0.00047201215
117	0x3d4f12df	0.050555106
118	0x37d2e7e5	2.5141935e-05
119	0x3b713ca0	0.0036809817
120	0x80000004	-6e-45
121	0x3b2b30a1	0.0026121514
122	0x80000004	-6e-45
123	0x38394beb	4.417814e-05
124	0x3c3306e8	0.01092694
125	0x00000004	6e-45
126	0xb395709a	-6.958835e-08
127	0x39b85d63	0.00035164793
128	0x3a929bbe	0.0011185331
129	0x3a4febae	0.00079315423
130	0x387a165f	5.962548e-05
131	0x00000004	6e-45
132	0x3922cc9a	0.00015525744
133	0x3c5c466d	0.013444525
134	0x38880b55	6.487096e-05
135	0x3c000b83	0.007815245
136	0x80000004	-6e-45
137	0xbc86c75a	-0.01645248
138	0x00000004	6e-45
139	0x3a03af3d	0.0005023366
140	0x3b8bacfc	0.0042625647
141	0x00000004	6e-45
142	0x39ed1125	0.00045216936
143	0x3850c3a8	4.9773284e-05
144	0x39ae45d8	0.00033239904
145	0x3c147db7	0.009063176
146	0x39b1e226	0.00033928565
147	0x00000004	6e-45
148	0xba842fd7	-0.0010085058
149	0xbd0f3242	-0.03496004
150	0x3697a06b	4.518826e-06
151	0xbd946a20	-0.07246804
152	0x00000004	6e-45
153	0x3bb335a9	0.0054690433
154	0x80000004	-6e-45
155	0x37cfc170	2.47664e-05
156	0x3a2bba13	0.00065508595
157	0x80000004	-6e-45
158	0x3aea42e7	0.0017872722
159	0x38a5a370	7.898256e-05

exp_avg_sq f4 [10, 16]
0	0x3ab1abaf	0.0013555194
1	0x3b8de7f5	0.00433063
2	0x3ce3348b	0.027735015
3	0x2c9de9ee	4.48818e-12
4	0x3a2b0362	0.00065236364
5	0x3adeb0f0	0.0016989987
6	0x3d8cfa76	0.06883709
7	0x3d587d6f	0.052853998
8	0x2d1da2a7	8.960533e-12
9	0x3b26b357	0.0025436485
10	0x2833e813	9.986819e-15
11	0x3b845b1c	0.0040391814
12	0x3c1a6913	0.009424466
13	0x2c75277f	3.4838519e-12
14	0x3d27864f	0.04089957
15	0x3ad32142	0.0016107934
16	0x372cf7fd	1.0309738e-05
17	0x39613ae4	0.0002147961
18	0x3a9fb693	0.0012185149
19	0x2bbaa34c	1.3261419e-12
20	0x398b1865	0.0002653032
21	0x398bd441	0.00026670287
22	0x3c248bc3	0.010043087
23	0x3b02f8f9	0.0019984825
24	0x2d1ca954	8.905172e-12
25	0x3a510983	0.00079741346
26	0x2b50291f	7.395351e-13
27	0x3aed1584	0.0018088077
28	0x3c6dbc9d	0.014510301
29	0x2bd62c70	1.5217948e-12
30	0x3b8e321c	0.0043394696
31	0x3b1a6a33	0.0023561835
32	0x3ac27229	0.0014835048
33	0x3c105fde	0.008811919
34	0x3b691193	0.0035563454
35	0x2cc656fc	5.6371557e-12
36	0x3c9f4d7d	0.019446129
37	0x39d9c55e	0.00041536515
38	0x3e829c29	0.25509766
39	0x3d0d28ae	0.034462623
40	0x2c2246a8	2.3060807e-12
41	0x3c20dd4a	0.009818384
42	0x2b99544d	1.0894702e-12
43	0x3d88e077	0.06683438
44	0x3b5396e8	0.0032285992
45	0x2c0b15a7	1.9765108e-12
46	0x3a970046	0.0011520467
47	0x3c390bce	0.011294318
48	0x3935a351	0.00017322345
49	0x3abfc1ec	0.0014629937
50	0x3c4dd928	0.012563981
51	0x29f24f1e	1.07606835e-13
52	0x3a120a78	0.0005571018
53	0x3a983ca0	0.0011614747
54	0x3d52aa78	0.051432103
55	0x3cade7ca	0.02122869
56	0x2cc2cb0b	5.536354e-12
57	0x3c0f8fdc	0.008762326
58	0x2b04bd63	4.715865e-13
59	0x3b3ca373	0.0028783947
60	0x3d12dfa7	0.035857823
61	0x2e71f557	5.501496e-11
62	0x3c3fee1f	0.011714487
63	0x3bb7e580	0.0056120753
64	0x3a2c7d78	0.00065799756
65	0x3b85ed1d	0.004087104
66	0x3b1a6ad5	0.0023562212
67	0x2c9dfd0f	4.4903035e-12
68	0x3d0160c7	0.031586435
69	0x3a395e2b	0.0007071222
70	0x3e8f0613	0.27934322
71	0x3cb3fe67	0.021971894
72	0x2d252d3d	9.389209e-12
73	0x3ce08626	0.027407717
74	0x2b576d1e	7.6534775e-13
75	0x3da13249	0.07870919
76	0x3c3e7690	0.011624947
77	0x2c307454	2.507568e-12
78	0x39f947a6	0.00047546363
79	0x3c376dc9	0.011195608
80	0x3aa2aa59	0.0012410387
81	0x3b877fe8	0.0041351207
82	0x3a1ed248	0.0006058556
83	0x2b21076d	5.7208996e-13
84	0x3b87f775	0.004149372
85	0x3cfa41c7	0.030548943
86	0x3abcdc9e	0.0014409011
87	0x3c416a4c	0.011805128
88	0x2c314e7d	2.5196783e-12
89	0x3bdf146d	0.006807855
90	0x255f9604	1.9392994e-16
91	0x3abb1032	0.0014271794
92	0x397226c9	0.00023093367
93	0x2d0eea74	8.1238245e-12
94	0x39c088ed	0.0003672311
95	0x39cba59a	0.0003884256
96	0x3aadd66e	0.0013262758
97	0x3be7fcf0	0.007079713
98	0x3cb61fbc	0.022231929
99	0x2c8f69d1	4.0760524e-12
100	0x3cfc9394	0.03083209
101	0x3a341d97	0.00068708643
102	0x3e896b32	0.26839596
103	0x3dab8f9f	0.08377003
104	0x2b6ac5b8	8.340789e-13
105	0x3ca01c98	0.019544885
106	0x2b59bf38	7.7359256e-13
107	0x3d340751	0.04395229
108	0x3bd89bd2	0.006610372
109	0x2c8408e1	3.7526514e-12
110	0x3d0b0a3c	0.033945307
111	0x3badccac	0.00530394
112	0x3a26425d	0.00063422864
113	0x3c07dd14	0.008292455
114	0x3930ea0b	0.00016871856
115	0x2eedb4f0	1.0809653e-10
116	0x3aec3a53	0.0018022753
117	0x3d80dd1c	0.06292173
118	0x3ad2908a	0.0016064805
119	0x3ba0cac3	0.0049069836
120	0x2f290fe3	1.5376105e-10
121	0x3c0da9d6	0.008646449
122	0x291d26ca	3.4894647e-14
123	0x3a005999	0.00048961636
124	0x38d5737b	0.000101781414
125	0x2d73392a	1.3825644e-11
126	0x399fbc5e	0.00030467188
127	0x39837b18	0.0002507798
128	0x3a990e4d	0.0011677236
129	0x39cbd29b	0.0003887609
130	0x3b03307e	0.0020017917
131	0x2c63e3f3	3.2385177e-12
132	0x39cbf667	0.0003890276
133	0x3c0198a4	0.0079099275
134	0x3c73afff	0.014873504
135	0x3c95c4b7	0.018282278
136	0x2d74f0f7	1.3923299e-11
137	0x3b24b699	0.002513325
138	0x2b26e91e	5.929856e-13
139	0x3bb5f0bb	0.005552379
140	0x3af8521f	0.0018945372
141	0x2d471f3f	1.1318778e-11
142	0x3a0a668a	0.0005279562
143	0x39061da2	0.00012790275
144	0x39d62445	0.00040844284
145	0x3c212a51	0.009836749
146	0x3a0290e5	0.00049806974
147	0x2c284cd7	2.391689e-12
148	0x3ba079a3	0.0048973127
149	0x3d81feaa	0.063474014
150	0x39ef4f59	0.0004564475
151	0x3c805a4b	0.015668055
152	0x2ce3b8c6	6.472242e-12
153	0x3b070bbd	0.0020606362
154	0x2dce3b38	2.3445787e-11
155	0x3aa0a851	0.0012257193
156	0x3882674d	6.218124e-05
157	0x2b96632b	1.0685666e-12
158	0x3932dcf0	0.00017057708
159	0x38684365	5.5375876e-05

exp_avg f4 [10]
0	0x3c87d9a3	0.01658327
1	0x3abab187	0.0014243581
2	0xbd1fe2ce	-0.039034657
3	0x3ccfeeb1	0.025382372
4	0xbd2bea81	-0.041971687
5	0x3ca413a3	0.020028895
6	0xbc693011	-0.014232651
7	0x3ce24d66	0.027624797
8	0x3a893b9d	0.0010470037
9	0x3b4e53eb	0.0031483124

exp_avg_sq f4 [10]
0	0x3acc272a	0.0015575637
1	0x3a2317ac	0.0006221484
2	0x3b16ad67	0.002299154
3	0x3ab99cdc	0.0014161128
4	0x3b40cac3	0.002941773
5	0x3a92bf1f	0.0011195875
6	0x3b291fbc	0.0025806269
7	0x3aafc446	0.0013409934
8	0x39ffe60e	0.00048808794
9	0x3a15f40e	0.0005720266
