course/week3/fashion_project/checkpoints/random.ckpt (torch, 160739 bytes, 12 tensors)

model.0.weight f4 [16, 784]
0	0x3e6e2fbb	0.23260395
1	0xbd7cb280	-0.06169367
2	0xbc499f9c	-0.01230612
3	0xbeb256a5	-0.3483173
4	0xbf35ed42	-0.7106515
5	0xbf5cdcb5	-0.8627427
6	0xbf97e3ed	-1.1866432
7	0xbf2679b0	-0.6502943
8	0x3e335f9b	0.1751694
9	0x3d71fc91	0.059078757
10	0x3f3c0d4a	0.7345778
11	0x3f2b04fc	0.6680448
12	0xbd47e01b	-0.048797708
13	0xbf615c9c	-0.88031936
14	0xbf8dc284	-1.1074986
15	0xbf94fff6	-1.1640613
16	0xbe921bbd	-0.28536788
17	0x3e48efbb	0.196227
18	0x3d713856	0.058891617
19	0xbde7ecea	-0.11324485
20	0xbf39989f	-0.72498506
21	0xbf234da2	-0.63790333
22	0xbeac5c88	-0.33664346
23	0xbe96c1be	-0.2944469
24	0xbd020c17	-0.03174981
25	0xbe3a928e	-0.18219969
26	0x3e423f83	0.1896954
27	0xbb103c42	-0.0022008573
28	0x3e19145e	0.14949176
29	0xbe4d2396	-0.20033106
30	0x3e2e0b20	0.16996431
31	0xbeac7758	-0.33684802
32	0xbf1dd764	-0.61656785
33	0xbee73652	-0.4515863
34	0xbdccf540	-0.10007715
35	0x3e9b0d71	0.30283692
36	0xbb507189	-0.0031805953
37	0x3d3eeea7	0.046614315
38	0xbe1043d2	-0.14088371
39	0x3db1c52b	0.08680185
40	0x3d3a8005	0.045532245
41	0xbc2f46b2	-0.010698007
42	0x3e5ecdda	0.21758214
43	0x3d379dbe	0.04482817
44	0x3d7f7c39	0.062374327
45	0xbdac2244	-0.08404973
46	0xbe48ccd5	-0.19609387
47	0xbe40ac5b	-0.18815748
48	0x3eb64a46	0.3560354
49	0xbd2e967b	-0.042623978
50	0xbdc1ad4c	-0.09456882
51	0xbefb1d7f	-0.4904594
52	0xbedc8921	-0.4307337
53	0xbe9e3130	-0.30896902
54	0xbd43742e	-0.04771822
55	0xbf28b8ba	-0.6590687
56	0xbe8c857e	-0.27445596
57	0xbe959240	-0.29213142
58	0xbc3431fa	-0.0109982435
59	0xbdb537b8	-0.08848518
60	0xbeb7bf7a	-0.35888273
61	0x3e86d932	0.26337582
62	0x3f254236	0.64554155
63	0x3d574cdc	0.052563533
64	0xbe79f533	-0.24409942
65	0xbecf69c4	-0.4051038
66	0xbf05a2a1	-0.52201277
67	0xbe6361be	-0.22205254
68	0xbed985fb	-0.4248503
69	0xbe7b8ea2	-0.24566129
70	0xbd5ce41a	-0.053928472
71	0xbed3d581	-0.41373828
72	0xbeb69e27	-0.35667536
73	0xbeefbb83	-0.46822748
74	0xbeab853e	-0.33500093
75	0xbe3125d7	-0.17299591
76	0x3ecc36fa	0.39885694
77	0x3f0ce479	0.5503612
78	0x3f358f7b	0.7092206
79	0x3f01074a	0.5040175
80	0xbe948634	-0.2900864
81	0xbf646efa	-0.89231837
82	0xbcd01dd9	-0.025404857
83	0xbf030eb6	-0.5119432
84	0xbf183ede	-0.5947093
85	0xbd20ef81	-0.03929091
86	0xbe69c726	-0.22829875
87	0xbe63a7a1	-0.22231914
88	0x3e770432	0.24122694
89	0x3f30dc42	0.69086087
90	0x3e10f570	0.14156127
91	0xbedffe1c	-0.43748558
92	0xbe80569c	-0.25066078
93	0xbea546a7	-0.32280466
94	0xbec608b0	-0.38678503
95	0xbe505828	-0.20346129
96	0x3ee61edd	0.44945422
97	0xbea4bb99	-0.32174376
98	0xbf708100	-0.9394684
99	0xbe9181a5	-0.28419223
100	0xbe876329	-0.2644284
101	0xbe91a71c	-0.28447807
102	0xbf048a52	-0.5177356
103	0xbdd23636	-0.10264246
104	0x3dc01671	0.0937928
105	0x3e6a2f22	0.22869542
106	0x3f384cc3	0.7199213
107	0x3f1b8914	0.6075604
108	0x3d582053	0.0527652
109	0xbf11b756	-0.56920373
110	0x3d21df44	0.039519563
111	0x3f066181	0.5249253
112	0xbd8dd2dd	-0.069249846
113	0x3e2273db	0.15864508
114	0x3d95ae95	0.073086895
115	0x3ed79a35	0.42109838
116	0x3f11c8f8	0.5694728
117	0x3e917c88	0.28415322
118	0xbd94faf6	-0.072744295
119	0xbf03c1e6	-0.5146774
120	0xbee0a129	-0.43872955
121	0xbdc2f66e	-0.09519659
122	0xbe452782	-0.19253352
123	0xbf078245	-0.5293315
124	0xbe29b2ea	-0.16572157
125	0xbe9b92c7	-0.3038542
126	0xbf1399f2	-0.57656777
127	0xbe1d3039	-0.15350427
128	0xbf077431	-0.5291167
129	0xbf164e9a	-0.58713686
130	0xbe3439d4	-0.17600185
131	0xbec73b65	-0.38912502
132	0xbec722ea	-0.38893825
133	0xbdaf7d2c	-0.085687965
134	0x3ea1c1f4	0.31593287
135	0x3e7f991d	0.24960752
136	0xbe8eb18e	-0.27869838
137	0xbdedf915	-0.11619774
138	0x3e835223	0.25648603
139	0xbe9790d9	-0.29602697
140	0xbdb5b816	-0.08873002
141	0xbc6043e6	-0.013688063
142	0x3f0bba4a	0.5458113
143	0x3e872ddd	0.26402178
144	0x3ec9d046	0.39416713
145	0x3e3a73a2	0.18208173
146	0xbebc9aa2	-0.36836725
147	0xbeec0826	-0.46099967
148	0xbf05af4b	-0.522206
149	0xbea80efa	-0.32823926
150	0xbeb06681	-0.34453204
151	0xbf0ca178	-0.5493388
152	0xbe74182d	-0.23837347
153	0xbf016682	-0.5054704
154	0xbf09e98a	-0.5387198
155	0xbe852edc	-0.26012313
156	0xbf0b38c7	-0.5438351
157	0xbf0985b6	-0.5371965
158	0xbe9614e2	-0.29312807
159	0xbe808d3c	-0.25107753
160	0xbc9158f8	-0.017742619
161	0x3d916d4c	0.07100925
162	0x3e9321bd	0.28736678
163	0x3db92000	0.09039307
164	0xbd1668f6	-0.036721192
165	0x3e6eb582	0.23311427
166	0x3d5a01c1	0.05322433
167	0xbf2cdeb5	-0.67527324
168	0xbf01afa0	-0.5065861
169	0xbf0f0dd6	-0.55880487
170	0x3e5f0679	0.21779813
171	0x3eb5358a	0.3539241
172	0x3ed5f071	0.41785005
173	0xbe568b33	-0.20951538
174	0xbea08e75	-0.31358686
175	0xbd6d4560	-0.05792749
176	0xbf0213a8	-0.50811243
177	0xbf47164e	-0.7776841
178	0xbec12e60	-0.37730694
179	0xbf29c05a	-0.6630913
180	0xbe9e7f90	-0.30956697
181	0xbe8f9c30	-0.2804885
182	0xbf648a70	-0.8927374
183	0xbd2fd87f	-0.042931076
184	0xbf11cd5b	-0.5695397
185	0xbf397c29	-0.7245508
186	0xbec91741	-0.39275554
187	0xbed72726	-0.42022055
188	0x3c83b3cf	0.01607695
189	0x3e708b1c	0.23490566
190	0x3d8b6832	0.06806983
191	0x3d04d454	0.032429054
192	0xbcba6451	-0.022752913
193	0xbdc063c0	-0.09394026
194	0xbf08cd16	-0.53437936
195	0xbf93a08e	-1.1533372
196	0xbf37f8de	-0.71864116
197	0xbf0e0b29	-0.5548578
198	0x3ec90b8e	0.39266628
199	0x3ec25939	0.37958696
200	0x3db0e507	0.086374335
201	0xbf3ff757	-0.74986786
202	0xbec3d73a	-0.38250142
203	0x3dd0b4d3	0.101907395
204	0xbea9fa3c	-0.33198726
205	0xbf4064e2	-0.75153935
206	0xbf08298f	-0.53188413
207	0xbebaeaad	-0.36507168
208	0xbdd9a736	-0.10627596
209	0xbeb3b0ef	-0.35095927
210	0xbe6a66ea	-0.22890821
211	0xbc352c88	-0.01105798
212	0xbefa7b75	-0.48922315
213	0xbed1dd16	-0.40988988
214	0xbf118654	-0.56845593
215	0xbf5cf9c5	-0.8631862
216	0xbe7a2932	-0.24429777
217	0xbc1d5dd9	-0.009604895
218	0xbdb350c6	-0.08755641
219	0x3e12022f	0.14258645
220	0xbd115a60	-0.03548658
221	0xbe9c2c12	-0.30502373
222	0xbefce9dd	-0.49397174
223	0xbdf56dd6	-0.1198384
224	0xbf612fda	-0.8796364
225	0xbe90744c	-0.28213727
226	0x3f2567ec	0.646117
227	0x3e717fda	0.23583928
228	0xbe6ee37f	-0.2332897
229	0xbf7037a6	-0.9383491
230	0xbf33e976	-0.7027811
231	0x3e56a2d5	0.20960553
232	0xbecce4a2	-0.40018183
233	0xbed8f743	-0.42376146
234	0xbd88b72d	-0.06675563
235	0xbe92d1d6	-0.28675717
236	0xbc5f509a	-0.013630057
237	0x3ed51699	0.41618803
238	0x3d94db0a	0.07268341
239	0x3eb78c36	0.3584916
240	0xbe06687b	-0.13125794
241	0xbe9ef132	-0.31043392
242	0xbe7ccd16	-0.24687609
243	0xbe81cca2	-0.25351435
244	0xbda878ca	-0.08226164
245	0xbd7b8f4f	-0.061415967
246	0xbe63e7a9	-0.2225634
247	0xbe3019fd	-0.17197414
248	0xbd24e666	-0.040258788
249	0xbab0ba01	-0.0013483168
250	0xbdde4a95	-0.10854069
251	0x3ebad235	0.364885
252	0xbf882f1b	-1.0639375
253	0xbf2ca120	-0.6743336
254	0x3e12b6e8	0.14327586
255	0x3f18a0fe	0.59620655

model.0.bias f4 [16]
0	0x3feea35b	1.8643602
1	0x3eaa60b2	0.33276898
2	0x3e9c26ff	0.30498502
3	0xbd62c211	-0.055360857
4	0x3db71981	0.08940411
5	0x3eac067f	0.33598706
6	0xbf3de6e8	-0.7418046
7	0x3f69cdf8	0.9132991
8	0xbcf8006b	-0.030273637
9	0x3faebe0d	1.3651749
10	0xbd2d7f7b	-0.042357903
11	0xbe94f77a	-0.2909506
12	0x3f2e86fb	0.68174714
13	0x3ba4a32a	0.0050243335
14	0x3f33d7cb	0.7025115
15	0x3f902e69	1.1264163

model.2.weight f4 [10, 16]
0	0x3cb6719e	0.022270974
1	0xbe7d99cf	-0.24765705
2	0x3e6a4619	0.22878303
3	0x3d8e7c62	0.06957318
4	0xbe29f127	-0.16595899
5	0xbf10519f	-0.56374544
6	0x3d03aa90	0.032145083
7	0xbc6b3c6c	-0.014357667
8	0xbe71ed04	-0.2362557
9	0xbe83f7e9	-0.25775078
10	0xbd9d0bbd	-0.076682545
11	0xbe3b7d26	-0.18309459
12	0xbd56a777	-0.0524058
13	0xbddb6f0d	-0.10714541
14	0x3dc3bfba	0.09558053
15	0xbe3c758b	-0.18404214
16	0xbe993fd9	-0.29931524
17	0xbe9bc49d	-0.30423442
18	0xbf11b7ce	-0.5692109
19	0xbe53b30a	-0.20673767
20	0xbd55f3f6	-0.052234612
21	0xbf2565e2	-0.64608586
22	0x3e5779d4	0.21042567
23	0xbf0186e3	-0.50596446
24	0x3daae5ec	0.08344635
25	0xbf054b67	-0.5206818
26	0xba15af18	-0.000570999
27	0x3e927426	0.2860424
28	0x3ddce20a	0.10785301
29	0xbe5674ac	-0.20942944
30	0x3eeb5752	0.45965058
31	0x3f00f572	0.5037452
32	0x3c0aac25	0.008463894
33	0xbe03dfed	-0.1287839
34	0x3d85243c	0.06501052
35	0x3e2cb191	0.16864611
36	0xbce4a77d	-0.027911896
37	0xbf5ffaff	-0.87492365
38	0x3e15c73c	0.14626783
39	0x3c9a58b3	0.018841123
40	0x3e554efb	0.2083091
41	0xbe7ec3f9	-0.24879445
42	0x3e5b8836	0.21438679
43	0x3e1a33cc	0.15058821
44	0xbed2879b	-0.41119084
45	0x3e4792dc	0.19489616
46	0xbf1f3354	-0.62187696
47	0x3e3e8534	0.186055
48	0xbefa8f66	-0.4893753
49	0x3d62c2c1	0.055361513
50	0x3e4f666a	0.20253912
51	0xbe84a9da	-0.25910836
52	0xbd8c7ea8	-0.06860095
53	0xbf029e7c	-0.5102308
54	0xbdb323e3	-0.08747079
55	0xbd81fe38	-0.063473165
56	0x3e3d00a1	0.18457271
57	0x3bfcf64e	0.0077197915
58	0x3dfb504a	0.12271173
59	0x3e08d8b8	0.13363922
60	0x3e7dc801	0.24783327
61	0x3b8b97e3	0.0042600497
62	0x3d834578	0.064097345
63	0x3bebb297	0.0071929204
64	0xbe76e835	-0.24112017
65	0xbefda53c	-0.49540126
66	0x3d050ba4	0.032481804
67	0x3e63bc2e	0.22239754
68	0x3def31ab	0.11679395
69	0xbf26cdc4	-0.65157723
70	0x3e7e626d	0.24842234
71	0xbe514355	-0.20435841
72	0xbd46d9bd	-0.048547495
73	0x3e11c92f	0.14236902
74	0x3df149c6	0.11781649
75	0x3e8516b9	0.259939
76	0x3d3e5c45	0.046474714
77	0x3e0fabd9	0.14030398
78	0xbf27534f	-0.65361494
79	0x3cb523c9	0.02211179
80	0x3efa75f4	0.48918116
81	0xb9c032e8	-0.00036659022
82	0x3e00705b	0.1254286
83	0xbe30252c	-0.1720168
84	0x3efd00de	0.49414724
85	0x3e0fa0d9	0.14026202
86	0xbfaa7544	-1.3317037
87	0x3e5683c6	0.20948705
88	0x3e484090	0.19555879
89	0x3ebafe45	0.36522117
90	0x3d0cedeb	0.034406584
91	0x3de3e1b1	0.111270316
92	0xbf18c441	-0.5967446
93	0x3ca7a7a6	0.020465683
94	0xbe34f108	-0.17670071
95	0x3f4c3ae3	0.79777354
96	0xbc938e1e	-0.018012103
97	0xbf00577f	-0.5013351
98	0x3d99cdce	0.07509957
99	0x3e1ea560	0.15492773
100	0x3ec875fa	0.3915251
101	0xbf52243b	-0.82086533
102	0x3da95909	0.08268935
103	0x3c8b2666	0.016986083
104	0xbdc0d964	-0.09416464
105	0xbbb9d3f8	-0.0056710206
106	0x3ced3436	0.02895556
107	0xbdafdb3f	-0.0858674
108	0xbed7e7d5	-0.4216906
109	0xbdefc779	-0.11707968
110	0xbd1aba1a	-0.037775137
111	0xbde5faba	-0.11229463
112	0xbec8c47e	-0.39212412
113	0x3e575688	0.21029103
114	0xbece2fb9	-0.40270784
115	0xbe30b1c7	-0.17255317
116	0xbf06e2dd	-0.52689916
117	0x3e152bfe	0.14567563
118	0xbf6c1fb2	-0.92235863
119	0x3e315131	0.17316128
120	0xbcc00aea	-0.023442704
121	0x3f0293e8	0.5100694
122	0x3e08e409	0.13368239
123	0xbee9b521	-0.45646003
124	0xbfe12965	-1.7590758
125	0x3de162d5	0.11005179
126	0xbfffa8bb	-1.9973367
127	0xbeeee7d2	-0.4666124
128	0xbc91c7ba	-0.017795432
129	0xbf4d32e4	-0.8015578
130	0x3d58dbe4	0.05294408
131	0x3e01c8b9	0.12674226
132	0xbf27478b	-0.6534354
133	0x3e9eda32	0.31025845
134	0xbe3db8e0	-0.18527555
135	0x3e64fb0b	0.2236139
136	0x3dc59ace	0.09648667
137	0xbe949ab8	-0.2902429
138	0xbe60f572	-0.2196863
139	0x3e9e8f02	0.3096848
140	0xbd4a2f2b	-0.04936139
141	0x3e15457d	0.14577289
142	0xbf22bd59	-0.6357017
143	0xbf4ebb13	-0.807542
144	0xbf01b7a8	-0.5067086
145	0x3e44b833	0.19210891
146	0x3cddbd34	0.027067758
147	0x3e17aa38	0.14811027
148	0x3e4a00ca	0.19726864
149	0x3eb7b060	0.3587675
150	0xbf874c92	-1.0570242
151	0x3eb5d0fc	0.35511005
152	0x3dae0d9a	0.08498688
153	0x3c9533e2	0.018213216
154	0xbd1241f7	-0.03570744
155	0xbe758b3c	-0.23978895
156	0xbea280fb	-0.3173903
157	0xbe093f28	-0.13402998
158	0xbf007316	-0.5017561
159	0xbe9c108f	-0.30481383

model.2.bias f4 [10]
0	0x3ebd0e5e	0.36925024
1	0xbda8ac17	-0.082359485
2	0x3f304d38	0.68867826
3	0x3c38ba46	0.01127488
4	0x3e5a5dcd	0.21324845
5	0xbebbce0d	-0.36680642
6	0x3ef0182e	0.46893448
7	0xbebc5e76	-0.36790818
8	0xbef4d6b9	-0.4782007
9	0xbfcdcd76	-1.6078327

exp_avg f4 [16, 784]
0	0xb3294ec4	-3.9420016e-08
1	0xb3294ec4	-3.9420016e-08
2	0xb3294ec4	-3.9420016e-08
3	0xb3294ec4	-3.9420016e-08
4	0xb3294ec4	-3.9420016e-08
5	0xb3294ec4	-3.9420016e-08
6	0xb3294ec4	-3.9420016e-08
7	0xb3294ec4	-3.9420016e-08
8	0xb3294ec4	-3.9420016e-08
9	0xb3294ec4	-3.9420016e-08
10	0xb3294ec4	-3.9420016e-08
11	0xb3294ec3	-3.9420012e-08
12	0xb3294ec3	-3.9420012e-08
13	0xb3294ec3	-3.9420012e-08
14	0xb3294ec1	-3.9420005e-08
15	0xb3294ebf	-3.9419998e-08
16	0xb3294ec3	-3.9420012e-08
17	0xb3294ebf	-3.9419998e-08
18	0xb3294ebf	-3.9419998e-08
19	0xb3294ec3	-3.9420012e-08
20	0xb3294ec4	-3.9420016e-08
21	0xb3294ec4	-3.9420016e-08
22	0xb3294ec4	-3.9420016e-08
23	0xb3294ec4	-3.9420016e-08
24	0xb3294ec4	-3.9420016e-08
25	0xb3294ec4	-3.9420016e-08
26	0xb3294ec4	-3.9420016e-08
27	0xb3294ec4	-3.9420016e-08
28	0xb3294ec4	-3.9420016e-08
29	0xb3294ec4	-3.9420016e-08
30	0xb3294ec4	-3.9420016e-08
31	0xb3294ec4	-3.9420016e-08
32	0xb3294ec4	-3.9420016e-08
33	0xb3294ec4	-3.9420016e-08
34	0xb3294ec4	-3.9420016e-08
35	0xb3294ec4	-3.9420016e-08
36	0xb3294ec4	-3.9420016e-08
37	0xb3294ec4	-3.9420016e-08
38	0xb3294ec4	-3.9420016e-08
39	0xb3294ec3	-3.9420012e-08
40	0xb3294ec3	-3.9420012e-08
41	0xb3294ec1	-3.9420005e-08
42	0xb3294ebf	-3.9419998e-08
43	0xb3294ebb	-3.9419984e-08
44	0xb3294ebb	-3.9419984e-08
45	0xb3294ebb	-3.9419984e-08
46	0xb3294ebb	-3.9419984e-08
47	0xb3294ebb	-3.9419984e-08
48	0xb6df83cd	-6.6612615e-06
49	0xb3294ec4	-3.9420016e-08
50	0xb3294ec4	-3.9420016e-08
51	0xb3294ec4	-3.9420016e-08
52	0xb3294ec4	-3.9420016e-08
53	0xb3294ec4	-3.9420016e-08
54	0xb3294ec4	-3.9420016e-08
55	0xb3294ec4	-3.9420016e-08
56	0xb3294ec4	-3.9420016e-08
57	0xb3294ec4	-3.9420016e-08
58	0xb3294ec4	-3.9420016e-08
59	0xb3294ec4	-3.9420016e-08
60	0xb3294ec4	-3.9420016e-08
61	0xb3294ec4	-3.9420016e-08
62	0xb3294ec3	-3.9420012e-08
63	0xb3294ec3	-3.9420012e-08
64	0xb3294ec3	-3.9420012e-08
65	0xb3294ec3	-3.9420012e-08
66	0xb3294ec3	-3.9420012e-08
67	0xb3294ec3	-3.9420012e-08
68	0xb3294ec3	-3.9420012e-08
69	0xb3294ec1	-3.9420005e-08
70	0xb3294ebf	-3.9419998e-08
71	0xb3294ebb	-3.9419984e-08
72	0xb3294ebb	-3.9419984e-08
73	0xb3294eb9	-3.9419977e-08
74	0xb3294eb9	-3.9419977e-08
75	0xb3294eb8	-3.9419973e-08
76	0xb7574759	-1.2831611e-05
77	0xb754c0fc	-1.2681117e-05
78	0xb3294ec3	-3.9420012e-08
79	0xb3294ec4	-3.9420016e-08
80	0xb3294ec4	-3.9420016e-08
81	0xb3294ec4	-3.9420016e-08
82	0xb3294ec4	-3.9420016e-08
83	0xb3294ec4	-3.9420016e-08
84	0xb3294ec4	-3.9420016e-08
85	0xb3294ec4	-3.9420016e-08
86	0xb3294ec4	-3.9420016e-08
87	0xb3294ec4	-3.9420016e-08
88	0xb3294ec3	-3.9420012e-08
89	0xb3294ec4	-3.9420016e-08
90	0xb3294ec4	-3.9420016e-08
91	0xb3294ec4	-3.9420016e-08
92	0xb3294ec4	-3.9420016e-08
93	0xb3294ec4	-3.9420016e-08
94	0xb3294ec3	-3.9420012e-08
95	0xb3294ec3	-3.9420012e-08
96	0xb3294ec3	-3.9420012e-08
97	0xb3294ebf	-3.9419998e-08
98	0xb3294ebf	-3.9419998e-08
99	0xb3294eb9	-3.9419977e-08
100	0xb3294eb9	-3.9419977e-08
101	0xb3294eb9	-3.9419977e-08
102	0xb3294eb9	-3.9419977e-08
103	0xb78b3364	-1.6594022e-05
104	0xb7730d80	-1.4487072e-05
105	0xb7274e31	-9.972181e-06
106	0xb7274e31	-9.972181e-06
107	0xb3294ebb	-3.9419984e-08
108	0xb3294ec3	-3.9420012e-08
109	0xb3294ec4	-3.9420016e-08
110	0xb3294ec4	-3.9420016e-08
111	0xb3294ec4	-3.9420016e-08
112	0xb3294ec4	-3.9420016e-08
113	0xb3294ec4	-3.9420016e-08
114	0xb3294ec4	-3.9420016e-08
115	0xb3294ec4	-3.9420016e-08
116	0xb3294ec3	-3.9420012e-08
117	0xb3294ec4	-3.9420016e-08
118	0xb3294ec4	-3.9420016e-08
119	0xb3294ec3	-3.9420012e-08
120	0xb3294ec3	-3.9420012e-08
121	0xb3294ec3	-3.9420012e-08
122	0xb3294ec3	-3.9420012e-08
123	0xb3294ec1	-3.9420005e-08
124	0xb3294ebb	-3.9419984e-08
125	0xb3294ebb	-3.9419984e-08
126	0xb3294eb9	-3.9419977e-08
127	0xb3294eb9	-3.9419977e-08
128	0xb3294eb9	-3.9419977e-08
129	0xb3294eb8	-3.9419973e-08
130	0xb715a18f	-8.918708e-06
131	0xb7a6f98b	-1.9904945e-05
132	0xb6a7f780	-5.0058006e-06
133	0xb693c47d	-4.4038156e-06
134	0xb77aa0a2	-1.4938561e-05
135	0xb3a94ebf	-7.8839996e-08
136	0xb3294ebb	-3.9419984e-08
137	0xb3294ec4	-3.9420016e-08
138	0xb3294ec3	-3.9420012e-08
139	0xb3294ec4	-3.9420016e-08
140	0xb3294ec4	-3.9420016e-08
141	0xb3294ec4	-3.9420016e-08
142	0xb3294ec3	-3.9420012e-08
143	0xb3294ec4	-3.9420016e-08
144	0xb3294ec4	-3.9420016e-08
145	0xb3294ec4	-3.9420016e-08
146	0xb3294ec3	-3.9420012e-08
147	0xb3294ec3	-3.9420012e-08
148	0xb3294ec3	-3.9420012e-08
149	0xb3294ec4	-3.9420016e-08
150	0xb3294ec3	-3.9420012e-08
151	0xb3294ec1	-3.9420005e-08
152	0xb3294ebb	-3.9419984e-08
153	0xb3294ebb	-3.9419984e-08
154	0xb3294eb9	-3.9419977e-08
155	0xb3294eb9	-3.9419977e-08
156	0xb5bb159b	-1.3938874e-06
157	0xb7367475	-1.087516e-05
158	0xb7b73fd4	-2.1845022e-05
159	0xb7a6f98b	-1.9904945e-05
160	0xb3294eb3	-3.9419955e-08
161	0xb3a94eb9	-7.883995e-08
162	0xb6bd7d24	-5.647207e-06
163	0x3904cde5	0.00012665203
164	0x39e16ebc	0.00042997848
165	0x38be797e	9.082536e-05
166	0xb3294ec3	-3.9420012e-08
167	0xb3294ec3	-3.9420012e-08
168	0xb3294ec4	-3.9420016e-08
169	0xb3294ec3	-3.9420012e-08
170	0xb3294ec3	-3.9420012e-08
171	0xb3294ec4	-3.9420016e-08
172	0xb3294ec4	-3.9420016e-08
173	0xb3294ec4	-3.9420016e-08
174	0xb3294ec3	-3.9420012e-08
175	0xb3294ec3	-3.9420012e-08
176	0xb3294ec3	-3.9420012e-08
177	0xb3294ec1	-3.9420005e-08
178	0xb3294ebf	-3.9419998e-08
179	0xb3294ebf	-3.9419998e-08
180	0xb3294ebb	-3.9419984e-08
181	0xb44bebd1	-1.8991638e-07
182	0xb3294eb9	-3.9419977e-08
183	0xb3294eb9	-3.9419977e-08
184	0xb783a043	-1.5691045e-05
185	0xb84a83c0	-4.8283255e-05
186	0xb74b50c7	-1.211855e-05
187	0xb70e0e6c	-8.467217e-06
188	0xb991360c	-0.00027696823
189	0xb3a94eb9	-7.883995e-08
190	0x3a4f61c6	0.0007910993
191	0xb927f62f	-0.00016018072
192	0xb9394a2c	-0.00017670606
193	0x373929cc	1.1036591e-05
194	0x3810fee2	3.4569654e-05
195	0xb3294ec4	-3.9420016e-08
196	0xb3294ec3	-3.9420012e-08
197	0xb3294ec4	-3.9420016e-08
198	0xb3294ec4	-3.9420016e-08
199	0xb3294ec4	-3.9420016e-08
200	0xb3294ec4	-3.9420016e-08
201	0xb3294ec3	-3.9420012e-08
202	0xb3294ec3	-3.9420012e-08
203	0xb3294ec1	-3.9420005e-08
204	0xb3294ebf	-3.9419998e-08
205	0xb3294ebf	-3.9419998e-08
206	0xb3294ebf	-3.9419998e-08
207	0xb3294ebf	-3.9419998e-08
208	0xb3294eb9	-3.9419977e-08
209	0xb3294eb9	-3.9419977e-08
210	0xb3294eb7	-3.941997e-08
211	0xb6d56a4b	-6.360269e-06
212	0xb759b662	-1.2976672e-05
213	0xb6c31450	-5.8138176e-06
214	0xb59a23c5	-1.1484304e-06
215	0xba4b46e8	-0.00077544013
216	0xb9c006fd	-0.000366263
217	0xb9d8b095	-0.00041330294
218	0x3a60d670	0.00085768756
219	0xb7da455a	-2.601992e-05
220	0x39fb194f	0.00047893307
221	0x39a0d5ca	0.00030676863
222	0xb8974bcf	-7.2143615e-05
223	0xb3294ec3	-3.9420012e-08
224	0xb3294ec4	-3.9420016e-08
225	0xb3294ec4	-3.9420016e-08
226	0xb3294ec4	-3.9420016e-08
227	0xb3294ec4	-3.9420016e-08
228	0xb3294ec4	-3.9420016e-08
229	0xb3294ec4	-3.9420016e-08
230	0xb3294ebf	-3.9419998e-08
231	0xb3294ec1	-3.9420005e-08
232	0xb3294ebf	-3.9419998e-08
233	0xb3294ebf	-3.9419998e-08
234	0xb3294ebb	-3.9419984e-08
235	0xb3294eb9	-3.9419977e-08
236	0xb3294ebb	-3.9419984e-08
237	0xb57cf91e	-9.423983e-07
238	0xb71af6d5	-9.236585e-06
239	0xb7be5b2e	-2.2692224e-05
240	0xb6ecf424	-7.06177e-06
241	0xb3294eb4	-3.941996e-08
242	0xba2b032e	-0.0006523606
243	0xba1eb8f0	-0.00060547795
244	0xba3a8fa1	-0.0007116739
245	0xb9df532b	-0.0004259584
246	0xb99850bd	-0.00029051854
247	0x39bababc	0.00035615813
248	0x3a1300e2	0.00056077365
249	0x39dea771	0.00042467893
250	0xb8abce98	-8.1923965e-05
251	0xb8292703	-4.0329072e-05
252	0xb3294ec4	-3.9420016e-08
253	0xb3294ec4	-3.9420016e-08
254	0xb3294ec4	-3.9420016e-08
255	0xb3294ec4	-3.9420016e-08

exp_avg_sq f4 [16, 784]
0	0x31b43ba4	5.24547e-09
1	0x31b4d2c5	5.262651e-09
2	0x31b675c6	5.3102864e-09
3	0x31f9d9ea	7.2716277e-09
4	0x3225b66e	9.645744e-09
5	0x325dce89	1.2910854e-08
6	0x33787033	5.7844044e-08
7	0x33cb2d71	9.46119e-08
8	0x3440de4b	1.7962263e-07
9	0x34c296ee	3.6245132e-07
10	0x355922c6	8.08894e-07
11	0x35ac9c33	1.2860459e-06
12	0x35bcb972	1.4061063e-06
13	0x35f4a267	1.8226682e-06
14	0x360827eb	2.0288815e-06
15	0x362fb7cc	2.6184016e-06
16	0x362897c6	2.5122295e-06
17	0x363f14d6	2.8473346e-06
18	0x35e7b3b3	1.726314e-06
19	0x35ae6a6e	1.2994985e-06
20	0x35a4aa29	1.2268475e-06
21	0x3582920b	9.728259e-07
22	0x35919096	1.0845422e-06
23	0x352230d7	6.0420774e-07
24	0x3441e231	1.8056814e-07
25	0x33a9f3ad	7.914e-08
26	0x3282d84b	1.523235e-08
27	0x32b0a2a2	2.0563053e-08
28	0x31b44355	5.2463442e-09
29	0x31b4d4ba	5.2628737e-09
30	0x31cbd7f1	5.9326273e-09
31	0x32a48094	1.9150583e-08
32	0x330e32fb	3.3108318e-08
33	0x33c1f8e5	9.0325365e-08
34	0x34b1a769	3.3090626e-07
35	0x3505b50e	4.980983e-07
36	0x35912242	1.0813312e-06
37	0x35c00926	1.4307777e-06
38	0x3604405e	1.9707e-06
39	0x36496a74	3.0013298e-06
40	0x369acd73	4.613475e-06
41	0x36ddfca6	6.6157254e-06
42	0x370019c1	7.635391e-06
43	0x3728355c	1.0026004e-05
44	0x371e52fc	9.436855e-06
45	0x3719ffcd	9.179069e-06
46	0x371d3dd8	9.372328e-06
47	0x370a5a7a	8.246507e-06
48	0x36f7566a	7.3712336e-06
49	0x369b9cd8	4.637619e-06
50	0x369bd6a1	4.644346e-06
51	0x3659523e	3.238339e-06
52	0x35df692e	1.6645406e-06
53	0x34b618b7	3.3918124e-07
54	0x33e85ef9	1.0820617e-07
55	0x32d843d7	2.517656e-08
56	0x31b47c67	5.2528324e-09
57	0x31b75afd	5.336345e-09
58	0x31f5c02a	7.152285e-09
59	0x33039adf	3.064167e-08
60	0x342eb337	1.6270211e-07
61	0x34b77956	3.417469e-07
62	0x355010ec	7.751066e-07
63	0x3594f9ba	1.1099539e-06
64	0x35a96fed	1.2624056e-06
65	0x35da3ae4	1.6259405e-06
66	0x35fb209c	1.8710448e-06
67	0x3627df0b	2.5014767e-06
68	0x36945dcd	4.4216636e-06
69	0x36d1af28	6.2490763e-06
70	0x3704ef3a	7.923512e-06
71	0x37384a19	1.0984507e-05
72	0x3733f957	1.0727285e-05
73	0x374905b9	1.1981866e-05
74	0x375327b2	1.2585822e-05
75	0x378535cd	1.5879888e-05
76	0x3760919d	1.3385344e-05
77	0x37484d4e	1.1938928e-05
78	0x37195c4e	9.141002e-06
79	0x36fe8e13	7.5863295e-06
80	0x36d24bfd	6.267334e-06
81	0x362223f0	2.41608e-06
82	0x3582e26e	9.751654e-07
83	0x328c0159	1.6298758e-08
84	0x31b6a458	5.315581e-09
85	0x31dbdc10	6.398757e-09
86	0x329ba2de	1.8118438e-08
87	0x3378a60c	5.789302e-08
88	0x34842d03	2.4619666e-07
89	0x350d6cec	5.2685095e-07
90	0x35ae67f9	1.299427e-06
91	0x35b8ff48	1.3783365e-06
92	0x35d6fc99	1.6017758e-06
93	0x35eb207a	1.7518316e-06
94	0x3608c792	2.0381744e-06
95	0x363573b9	2.7038461e-06
96	0x36946554	4.42254e-06
97	0x36f7d723	7.386219e-06
98	0x371589c2	8.913166e-06
99	0x373ed6c8	1.137489e-05
100	0x37692652	1.3896804e-05
101	0x377c26f4	1.502944e-05
102	0x378dc6a0	1.6901002e-05
103	0x378e986c	1.6998696e-05
104	0x379faf98	1.9036044e-05
105	0x37cdd9ee	2.4539386e-05
106	0x378ff9a5	1.7163178e-05
107	0x377379e3	1.4512308e-05
108	0x3727efa5	1.0009772e-05
109	0x369aae5d	4.609856e-06
110	0x3608d7c2	2.0391167e-06
111	0x346cede8	2.2065763e-07
112	0x31c9ae2e	5.869672e-09
113	0x32131d42	8.563179e-09
114	0x32dc7047	2.5662429e-08
115	0x33ad2b79	8.063848e-08
116	0x34c028fe	3.5792613e-07
117	0x3577a043	9.224788e-07
118	0x35b84ceb	1.3731454e-06
119	0x35c4fbe8	1.4676452e-06
120	0x35e556d4	1.70871e-06
121	0x3600a452	1.9169133e-06
122	0x3641b400	2.8864015e-06
123	0x367c10b9	3.756066e-06
124	0x36c974ce	6.0038647e-06
125	0x370e27b5	8.473105e-06
126	0x375ebc8b	1.327613e-05
127	0x377a02ad	1.4901784e-05
128	0x3780ae5d	1.5339983e-05
129	0x3797bfc5	1.8089902e-05
130	0x37aa15e2	2.027577e-05
131	0x37bba38c	2.2368295e-05
132	0x37e16b30	2.6872003e-05
133	0x380eb6c3	3.402565e-05
134	0x37eda1f9	2.8328026e-05
135	0x37ab2054	2.0399842e-05
136	0x3773e378	1.453689e-05
137	0x36ea1093	6.975673e-06
138	0x361a3ba4	2.2982504e-06
139	0x33b85a83	8.584632e-08
140	0x31bcca6f	5.494534e-09
141	0x326132ad	1.3108246e-08
142	0x33855712	6.209133e-08
143	0x3415b034	1.3940809e-07
144	0x3519b022	5.725325e-07
145	0x3573610f	9.0665793e-07
146	0x35c7d5f7	1.4888927e-06
147	0x35d6334b	1.5959171e-06
148	0x35e7391d	1.7227463e-06
149	0x35ecaa46	1.7632926e-06
150	0x3616a611	2.2448405e-06
151	0x3664c412	3.4088775e-06
152	0x36cf1d9d	6.172528e-06
153	0x372784d7	9.984905e-06
154	0x37859e4b	1.5928546e-05
155	0x378e82d7	1.6988646e-05
156	0x37ac38da	2.0530471e-05
157	0x37d21121	2.5041927e-05
158	0x37ed4854	2.8286282e-05
159	0x3801d167	3.0951018e-05
160	0x38155efc	3.561283e-05
161	0x3817b0d3	3.6165886e-05
162	0x3815042c	3.5528254e-05
163	0x3806f036	3.2171803e-05
164	0x37c371d1	2.3298811e-05
165	0x37530000	1.257658e-05
166	0x3663906e	3.3909705e-06
167	0x33be0ce6	8.849911e-08
168	0x31b06e65	5.1348246e-09
169	0x32a01c2d	1.8639264e-08
170	0x33939192	6.8717e-08
171	0x343e0b4c	1.7699239e-07
172	0x3510fda8	5.40133e-07
173	0x358bdda4	1.0420813e-06
174	0x35d19677	1.5615504e-06
175	0x35f6a141	1.8375359e-06
176	0x3614aa86	2.2152976e-06
177	0x3628a59e	2.5130353e-06
178	0x36450b63	2.9361915e-06
179	0x3696c83a	4.493658e-06
180	0x36e53564	6.8309473e-06
181	0x3760674a	1.3375489e-05
182	0x379706b8	1.8003731e-05
183	0x37c7aeba	2.3804012e-05
184	0x37fa90cd	2.986975e-05
185	0x3815b5eb	3.5693793e-05
186	0x3811f3f2	3.4797886e-05
187	0x3815411e	3.5585013e-05
188	0x382ff6a3	4.195295e-05
189	0x3833f617	4.2906115e-05
190	0x3836fcc3	4.3627584e-05
191	0x38465f42	4.7295594e-05
192	0x38269319	3.971448e-05
193	0x37ba5b1a	2.221535e-05
194	0x3689a1c0	4.1017483e-06
195	0x34bec4df	3.55335e-07
196	0x32a80c52	1.9563377e-08
197	0x328b63aa	1.6227052e-08
198	0x34220d0f	1.5092176e-07
199	0x3482622b	2.4285814e-07
200	0x35271407	6.224149e-07
201	0x35a16883	1.2025852e-06
202	0x3611ab71	2.1706476e-06
203	0x36308a90	2.6306698e-06
204	0x365f23e1	3.3250474e-06
205	0x367cd0f9	3.7672564e-06
206	0x365086a3	3.1072784e-06
207	0x36be198d	5.6654158e-06
208	0x3732f888	1.06674925e-05
209	0x378a1a11	1.646302e-05
210	0x37d13107	2.4937572e-05
211	0x38045261	3.1547974e-05
212	0x3827658c	3.9910476e-05
213	0x381dfba8	3.766609e-05
214	0x382c0dbc	4.1020787e-05
215	0x3833e80a	4.289303e-05
216	0x38412b51	4.6055127e-05
217	0x385d782f	5.2802436e-05
218	0x386d603e	5.6594836e-05
219	0x38603952	5.3459145e-05
220	0x3843fdd9	4.6728037e-05
221	0x3802a0f5	3.114432e-05
222	0x3716d7ce	8.990943e-06
223	0x34bb5d9b	3.489957e-07
224	0x33c7eedd	9.3101086e-08
225	0x342ea305	1.6264319e-07
226	0x340f5596	1.3349049e-07
227	0x348ce9f2	2.624725e-07
228	0x353ad939	6.96065e-07
229	0x35b34ccc	1.335889e-06
230	0x3633ee99	2.681196e-06
231	0x36599c1f	3.2426394e-06
232	0x3695a820	4.4601184e-06
233	0x3686f4a2	4.02199e-06
234	0x36a924f0	5.0408926e-06
235	0x37069936	8.022695e-06
236	0x3757d181	1.2863778e-05
237	0x37d21287	2.5042578e-05
238	0x382540de	3.9399478e-05
239	0x384210d4	4.6268877e-05
240	0x38589a58	5.1642157e-05
241	0x38593294	5.1783936e-05
242	0x385a2495	5.200932e-05
243	0x386b3e9a	5.608667e-05
244	0x387c3321	6.01291e-05
245	0x38799170	5.9501675e-05
246	0x38739ecf	5.8083617e-05
247	0x387a8b32	5.973428e-05
248	0x38636aa1	5.4220323e-05
249	0x38340ff0	4.2930187e-05
250	0x37821ab4	1.5509642e-05
251	0x359f86b0	1.1885622e-06
252	0x342b0fff	1.5931435e-07
253	0x34a2d6c7	3.0331123e-07
254	0x34a80c34	3.1301317e-07
255	0x35084579	5.0765044e-07

exp_avg f4 [16]
0	0xba469142	-0.00075747457
1	0xbb63a31b	-0.003473467
2	0x29d2c48b	9.359968e-14
3	0x00000004	6e-45
4	0xbb23b690	-0.0024980642
5	0xbb2fe5bb	-0.002683981
6	0x2adb828e	3.8992805e-13
7	0xbbd37c3a	-0.006454018
8	0x00000004	6e-45
9	0xbb70e433	-0.003675711
10	0x00000004	6e-45
11	0xb997eaeb	-0.00028975992
12	0x3beb0e87	0.0071733627
13	0x00000004	6e-45
14	0x3b88e6fd	0.0041779266
15	0xba2e3ac1	-0.0006646328

exp_avg_sq f4 [16]
0	0x39807f9d	0.00024509142
1	0x3935c233	0.0001733385
2	0x38e7329d	0.00011024366
3	0x3113f5e5	2.153109e-09
4	0x39cc6fe3	0.00038993274
5	0x394d1728	0.0001955895
6	0x399735ff	0.00028841195
7	0x39a3586f	0.0003115567
8	0x2f1547ec	1.3577023e-10
9	0x398627ed	0.0002558822
10	0x2edbc978	9.994755e-11
11	0x394c0b98	0.00019459275
12	0x39752d4c	0.00023381895
13	0x300063fe	4.6708226e-10
14	0x398eaf40	0.00027214922
15	0x39282e06	0.00016038874

exp_avg f4 [10, 16]
0	0x3a809302	0.0009809437
1	0x3c0c7f67	0.008575297
2	0x2af53ede	4.3564365e-13
3	0x00000004	6e-45
4	0x3b856d14	0.004071841
5	0x3b893e09	0.0041883034
6	0x2b489219	7.1257025e-13
7	0xba55c73e	-0.00081549946
8	0x00000004	6e-45
9	0x3b4c4cf9	0.003117381
10	0x80000004	-6e-45
11	0x39b34ab7	0.00034197207
12	0xbc275d8a	-0.010215173
13	0x00000004	6e-45
14	0x3c3bee74	0.011470426
15	0x3a257dc2	0.000631299
16	0x39318dab	0.00016932811
17	0xbc36a2d6	-0.011147222
18	0xa90510fc	-2.9546664e-14
19	0x80000004	-6e-45
20	0x3af3a5df	0.0018588862
21	0x3b9a17dd	0.0047025518
22	0xab6b4dd8	-8.35968e-13
23	0x3bcddbc2	0.0062823007
24	0x00000004	6e-45
25	0x3a0a49be	0.00052752707
26	0x00000004	6e-45
27	0x388f424a	6.831119e-05
28	0x3c928cc3	0.017889386
29	0x80000004	-6e-45
30	0xbc83ff21	-0.016112866
31	0xbb7bb702	-0.0038408642
32	0x3abf2e20	0.001458589
33	0x3c4b7039	0.012416893
34	0xaa05e3e6	-1.1891841e-13
35	0x00000004	6e-45
36	0x3bccb2ac	0.0062468853
37	0x3ad120a7	0.0015955166
38	0x2b4b6a8c	7.226795e-13
39	0x3c85ca05	0.016331682
40	0x00000004	6e-45
41	0x3b8b78d9	0.0042563495
42	0x00000004	6e-45
43	0x3a05f294	0.00051096943
44	0xbba5fd5d	-0.0050656036
45	0x00000004	6e-45
46	0x3b81dfaa	0.0039634304
47	0x3ae57f98	0.0017509339
48	0x3a0255d7	0.00049718976
49	0xbbf3ccbe	-0.0074401787
50	0xaa16e22d	-1.3401147e-13
51	0x00000004	6e-45
52	0xbb721610	-0.003693942
53	0x3bbdf3ad	0.0057968707
54	0xaa90c514	-2.571629e-13
55	0x3ce3e931	0.027821155
56	0x00000004	6e-45
57	0x3bd6f55d	0.0065600113
58	0x00000004	6e-45
59	0x3936fbe7	0.00017450713
60	0x3d1b1fc5	0.037872095
61	0x80000004	-6e-45
62	0xbb83fcc8	-0.0040279366
63	0x3a735479	0.0009282302
64	0x3a8b9f46	0.0010652326
65	0x3a6217e5	0.00086247764
66	0xa8e8400f	-2.5784955e-14
67	0x00000004	6e-45
68	0xbc27e8f7	-0.010248414
69	0x3a95fbe1	0.0011442864
70	0xaac3b08d	-3.4761465e-13
71	0x3bb217b2	0.0054349536
72	0x00000004	6e-45
73	0x3b52e8c5	0.0032182198
74	0x00000004	6e-45
75	0x39a55a1d	0.00031538392
76	0xbc0d8b11	-0.008639113
77	0x80000004	-6e-45
78	0x3ac6f52e	0.001517927
79	0x3b37babd	0.0028034889
80	0xbbdb56f7	-0.0066937166
81	0x3bd3b1e8	0.006460417
82	0xa94c6fae	-4.5393966e-14
83	0x80000004	-6e-45
84	0xbb92c141	-0.004478604
85	0x3d87ad3b	0.06624838
86	0xab365c2b	-6.47873e-13
87	0x3da1cfa5	0.07900933
88	0x00000004	6e-45
89	0x3d03b666	0.03215637
90	0x00000004	6e-45
91	0xbb73b3f9	-0.003718613
92	0xbbe7e117	-0.0070763933
93	0x00000004	6e-45
94	0xbc1bd22c	-0.009510558
95	0xbb9a97c8	-0.0047178008
96	0x3a976b94	0.0011552447
97	0x3bfd591b	0.0077315695
98	0x29c5608e	8.765307e-14
99	0x00000004	6e-45
100	0xbc37e9b8	-0.0112251565
101	0x3b4319b4	0.002976996
102	0x2bcf38cb	1.4723998e-12
103	0x3cf21877	0.029552681
104	0x80000004	-6e-45
105	0x3ba2ffd2	0.004974344
106	0x00000004	6e-45
107	0x39be7962	0.0003633006
108	0x3b576ce8	0.003287131
109	0x80000004	-6e-45
110	0x3c3b2df7	0.011424533
111	0x3a686f57	0.00088666886
112	0x3b1a17bc	0.0023512682
113	0xbcb0bc7d	-0.021574253
114	0xaa571750	-1.9103924e-13
115	0x80000004	-6e-45
116	0x3b189f2a	0.0023288229
117	0xbc9d5a22	-0.019208018
118	0xaaf5ef8e	-4.3686967e-13
119	0x3d88cd04	0.066797286
120	0x80000004	-6e-45
121	0xbd918699	-0.071057506
122	0x80000004	-6e-45
123	0x3a40e55c	0.0007358396
124	0x3ac329f1	0.0014889819
125	0x00000004	6e-45
126	0xbaa5f2fd	-0.0012660917
127	0x38c04fa2	9.170106e-05
128	0x3a9f3711	0.0012147148
129	0x3b7cdd49	0.0038584045
130	0x2af1dbd5	4.296274e-13
131	0x00000004	6e-45
132	0x3ad1fc60	0.0016020648
133	0xbd37acef	-0.044842657
134	0x2a5f8f02	1.9855995e-13
135	0xbdd09c13	-0.10186019
136	0x80000004	-6e-45
137	0x3bb9505e	0.0056553325
138	0x00000004	6e-45
139	0x3a694010	0.00088977907
140	0xbc31dd5c	-0.010855999
141	0x00000004	6e-45
142	0xbb2f061d	-0.0026706525
143	0x394011ff	0.00018317251
144	0xbb101995	-0.0021987904
145	0x398687c5	0.00025659628
146	0xaae5d00f	-4.082294e-13
147	0x00000004	6e-45
148	0x3c5dccdd	0.013537613
149	0xbcb92845	-0.02260221
150	0xab23756f	-5.8072205e-13
151	0xbe03a396	-0.12855372
152	0x00000004	6e-45
153	0x3c2d89ed	0.010591966
154	0x80000004	-6e-45
155	0x39a7032d	0.00031855088
156	0xbc9911f1	-0.018685313
157	0x80000004	-6e-45
158	0x3baac7ad	0.0052117915
159	0x3aa8301d	0.0012831722

exp_avg_sq f4 [10, 16]
0	0x3abbcea6	0.0014328554
1	0x3b9e798c	0.004836267
2	0x3cf50964	0.029911704
3	0x2ca85b1c	4.7849624e-12
4	0x3a416f01	0.00073789066
5	0x3af74124	0.0018864018
6	0x3d952b1c	0.07283613
7	0x3d68280b	0.056678813
8	0x2d280f21	9.553054e-12
9	0x3b2ea7eb	0.002665038
10	0x283fcd90	1.0647204e-14
11	0x3b8f509f	0.0043736245
12	0x3c1ab0aa	0.009441534
13	0x2c82aec3	3.7142247e-12
14	0x3d3615d3	0.044454407
15	0x3adc8147	0.0016823196
16	0x38837521	6.268384e-05
17	0x3a68d2e4	0.0008881523
18	0x3aa81727	0.0012824283
19	0x2bc6fabd	1.413834e-12
20	0x39890d71	0.0002614069
21	0x39ecb43a	0.00045147707
22	0x3c1f1667	0.009709931
23	0x3b31517c	0.0027056625
24	0x2d270550	9.4940306e-12
25	0x3a498dae	0.00076886534
26	0x2b5dece3	7.884372e-13
27	0x3b013e41	0.0019720944
28	0x3c5175e5	0.012784456
29	0x2be45601	1.6224245e-12
30	0x3ba481e5	0.0050203674
31	0x3b527291	0.0032111744
32	0x3aca9848	0.001545676
33	0x3c1bdb37	0.009512714
34	0x3b79b216	0.0038100532
35	0x2cd37482	6.0099157e-12
36	0x3ca9c69b	0.020724585
37	0x3a034622	0.0005007704
38	0x3e872926	0.2639858
39	0x3d12b799	0.035819624
40	0x2c2d01b2	2.458572e-12
41	0x3c2a9946	0.01041252
42	0x2ba377e4	1.1615123e-12
43	0x3d9140cf	0.070924394
44	0x3b545bfd	0.0032403462
45	0x2c14481a	2.107209e-12
46	0x3a9df178	0.0012050113
47	0x3c45178a	0.012029538
48	0x3972029b	0.00023079889
49	0x3b336f03	0.00273794
50	0x3c5d67f2	0.013513552
51	0x2a012a7b	1.147224e-13
52	0x3a63ab53	0.0008684892
53	0x3abc2932	0.0014355539
54	0x3d525871	0.051353876
55	0x3cb03b46	0.021512639
56	0x2ccfac89	5.902449e-12
57	0x3c11cd5b	0.008899058
58	0x2b0d846c	5.0277035e-13
59	0x3b4f0c27	0.0031592937
60	0x3d12fa1d	0.035883058
61	0x2e80fa9f	5.865285e-11
62	0x3c550fc4	0.013004247
63	0x3bd12f26	0.0063837944
64	0x3a29f89c	0.0006483884
65	0x3b943844	0.004523309
66	0x3b1e1e12	0.002412681
67	0x2ca86f82	4.787227e-12
68	0x3d098423	0.03357328
69	0x3a34513f	0.00068785617
70	0x3e975389	0.2955592
71	0x3ca61560	0.020273864
72	0x2d301966	1.0010081e-11
73	0x3cedc141	0.029022815
74	0x2b65abe5	8.1595695e-13
75	0x3daa40db	0.083131514
76	0x3c497e8f	0.01229824
77	0x2c3c1f5f	2.6733821e-12
78	0x3a021b34	0.000496316
79	0x3c439f06	0.01193977
80	0x3af7ec1a	0.0018914968
81	0x3bb77636	0.0055988086
82	0x3a84a47f	0.0010119824
83	0x2b2bad5b	6.0991983e-13
84	0x3bc10bcc	0.005891299
85	0x3d3161cd	0.04330616
86	0x3ad2b88d	0.0016076729
87	0x3c4551f8	0.012043469
88	0x2c3d07f5	2.6862932e-12
89	0x3c06abea	0.008219698
90	0x256e5eec	2.067537e-16
91	0x3b04a221	0.0020238238
92	0x3991e95f	0.0002783043
93	0x2d185dc0	8.661016e-12
94	0x3a0bd436	0.0005334051
95	0x39ec0f07	0.00045024624
96	0x3ab61586	0.0013891913
97	0x3bf7bcaa	0.0075603323
98	0x3cc30c0d	0.023809457
99	0x2c98e58a	4.345584e-12
100	0x3d06f712	0.03295047
101	0x3a5bbbef	0.00083821913
102	0x3e9045f2	0.28178364
103	0x3db52329	0.08844597
104	0x2b7a4bf9	8.8923275e-13
105	0x3caabb88	0.020841375
106	0x2b682543	8.247467e-13
107	0x3d3ec3ac	0.046573326
108	0x3bccb78d	0.006247467
109	0x2c8cc3f9	4.0007967e-12
110	0x3d13dba3	0.036098134
111	0x3bb82516	0.0056196554
112	0x3a312528	0.0006757551
113	0x3c219865	0.009862994
114	0x39c2db08	0.00037165754
115	0x2efd6ce2	1.15244495e-10
116	0x3af9983f	0.0019042565
117	0x3d9cae1e	0.07650398
118	0x3a243193	0.00062634906
119	0x3c0e5353	0.008686858
120	0x2f343dcd	1.639286e-10
121	0x3c338029	0.010955849
122	0x29278b14	3.720208e-14
123	0x3a0afa2c	0.0005301561
124	0x371220ac	8.709885e-06
125	0x2d81a740	1.4739876e-11
126	0x3a147064	0.00056624995
127	0x397578c5	0.00023410011
128	0x3a9fe6fe	0.0012199578
129	0x39d1cec9	0.00040017653
130	0x3b204acb	0.0024458643
131	0x2c72f5b9	3.4526672e-12
132	0x39d8ce9d	0.0004135267
133	0x3cd79581	0.026316406
134	0x3c8864d5	0.016649643
135	0x3d053c30	0.032528102
136	0x2d8291b0	1.4843987e-11
137	0x3b5ba07f	0.0033512411
138	0x2b31f29a	6.321971e-13
139	0x3c00c293	0.00785889
140	0x3b18b47f	0.0023300943
141	0x2d544a07	1.2067242e-11
142	0x3a133e74	0.0005616911
143	0x390313ea	0.00012500552
144	0x3a5583af	0.00081449276
145	0x3c3b476c	0.0114306025
146	0x3a5aa0d9	0.0008340008
147	0x2c336ddb	2.5498412e-12
148	0x3bbd73da	0.005781633
149	0x3dc945d2	0.0982777
150	0x3a8b6e52	0.0010637736
151	0x3cdb540a	0.026773471
152	0x2cf2c7b3	6.9002247e-12
153	0x3b8b236b	0.0042461655
154	0x2ddbde54	2.4996151e-11
155	0x3b314108	0.0027046818
156	0x3a9be8f4	0.0011894987
157	0x2ba054f6	1.1392265e-12
158	0x3a393933	0.0007065713
159	0x38a6ebbf	7.959408e-05

exp_avg f4 [10]
0	0xbb421690	-0.00296155
1	0xbb02396c	-0.0019870652
2	0xbc944a58	-0.018101856
3	0x3c95d49b	0.018289855
4	0xbd0d1a24	-0.034448758
5	0x3d01b483	0.03166629
6	0xb81a31b2	-3.6762744e-05
7	0x3ca40943	0.020023948
8	0xbca6010d	-0.020264173
9	0x3c001fc9	0.007820078

exp_avg_sq f4 [10]
0	0x3ab10ec2	0.0013508426
1	0x3a33da97	0.00068608805
2	0x3ae15e92	0.0017194322
3	0x3aa05b6d	0.0012234278
4	0x3b1106d8	0.0022129323
5	0x3a876101	0.0010328592
6	0x3b1819a6	0.0023208647
7	0x3a9b5279	0.001185014
8	0x3a43c5e3	0.0007468147
9	0x3a6f34ee	0.00091250136
