course/week3/fashion_project/checkpoints/uncertainty.ckpt (torch, 160739 bytes, 12 tensors)

model.0.weight f4 [16, 784]
00000000: ef25 cf3e 279f df3d 0bdd 1f3e 18bd 32be
00000010: 0571 0cbf f0e7 04bf 8483 46bf 7b5c efbe
00000020: eeaf 263e 1fef 5f3e 5c1b 2a3f 4473 3d3f
00000030: 2554 6f3e a7a5 2bbf c55a 90bf 9d0c 8dbf
00000040: 1719 66be b005 3b3e b4fe 123f 6a45 143e
00000050: 6b00 2fbf 853e 23bf f12b aabe e8d6 97be
00000060: 5fc1 08bd 6db3 37be 1a60 783e 5d71 0c3d
00000070: 5690 a43e 6543 f1bc b8bd b83e 60f7 323d
00000080: 7a4c 12bf 3184 e0be 2828 e93c ff05 103f
00000090: de1b 163e 64bb 603e 0b78 0b3e 0093 003f
000000a0: 27a9 553e 0be2 093d 440d 133e 94fc 743d
000000b0: f3e8 83bc 9fa8 21be d836 79bd 1d7f debd
000000c0: 94ec 9c3e e64a d6bd 5640 9bbd 5afb dabe
000000d0: 6af6 c1be 9955 9fbe 52d4 41bd 249d 21bf
000000e0: 27dd d2bd e80c 00be ee9d 653d 0e53 6b3e
000000f0: 6d76 c7be 25d1 933e 466c 103f af73 833d
00000100: 9a59 7abe 1060 92be 9c1d 87bd 95f2 3c3e
00000110: 8020 e2bd ad14 6abe 53ab 273d 8a92 e5be
00000120: 6a33 acbe 2903 bfbe a6c5 38be ea9e 1abd
00000130: 04ed 9d3e 65c7 ef3e e0fe 323f 8a2c 003f
00000140: 2dd8 83be 4ef8 60bf a7ec e0bc 6f13 edbe
00000150: c476 dabe add6 c73d 0010 6d3b 5c35 2bbe
00000160: f4d6 9d3e fd46 4e3f bdc2 3b3e c142 fcbe
00000170: a5e7 bcbe 50f4 b9be db90 6e3e cf18 4dbe
00000180: 6ce6 0d3f 2811 bcbe ca25 75bf c7ab c8be
00000190: 8ff9 c5be ff9d 47be 8167 4dbe b3f2 5d3d
000001a0: 1c5e 2c3e e6af 8d3e 3f10 2c3f b0f4 173f
000001b0: 1f48 c73d 790a 10bf 08a0 1b3d 55e2 053f
000001c0: e022 d83d 3744 ca3e b727 453f 5e0b b73f
000001d0: e11c 6f3f 7733 b03e 0643 34bd 8930 36bf
000001e0: 2365 4cbf 22d6 cdbd 15fa 52be bbb3 efbe
000001f0: 2b18 06be 07da aabe ac4f 28bf bb7f 2dbe
00000200: c436 fabe e488 f1be de11 00be a713 b5be
00000210: 91f6 dbbe ef06 003d bead aa3e 50f6 323e
00000220: 33a6 69be ff45 debd f65c 793e 58ca 97be
00000230: 2bdc 183e 6b31 c73e 52fd 6c3f 7aa1 3e3f
00000240: 2693 a23e b7a5 583e 3197 70be 5170 11bf
00000250: 16f7 6ebf 9857 0fbf e153 21bf 40f1 0bbf
00000260: ebbd 2bbe 4d19 aabe 4516 09bf 62ef 92be
00000270: fa35 cebe 1e63 00bf a388 2bbe 93f4 5fbe
00000280: 507b 003d 633a 273e bdfa c93e 6369 133e
00000290: 9c9d 0f3d a222 9c3e 5fec 413d 83a0 3cbf
000002a0: fd75 d8be e77d 15bf 820c 883e 4dc4 1c3f
000002b0: b56c 933e cfc0 5bbc 4a6c dabd a551 8b3d
000002c0: 3705 41bf b726 6dbf dcb1 09bf 25a9 3bbf
000002d0: 60c1 92be 4f8a 2fbe 6c85 4dbf 4e07 f93d
000002e0: 2f85 dfbe db65 17bf 05ba 79be 5daf b0be
000002f0: ea73 fd3d b425 bc3e 910d 453e bfed 383e
00000300: 3621 013e 0875 843c 8a53 09bf 06df 98bf
00000310: 558f 4fbf 50a4 7ebe 7a48 273f 6d0f 043f
00000320: 897c 04be 569e 1abf fe09 23be 113f 953e
00000330: 38d5 86be c64f 44bf c2f2 d5be 4893 c2be
00000340: 6f99 05be ae6a b0be 5f82 d5bd 8427 fa3d
00000350: e574 acbe a404 89be 630f 99be 1e01 2bbf
00000360: 4e00 0ebe c8b7 ff3d 29a8 963d b49e a63e
00000370: 176f 703e 0509 c0bd dec0 b8be 64b4 783c
00000380: a682 79bf e479 afbe 6d7c 483f a6d5 cb3e
00000390: 4b45 0dbe e82e 69bf 39de b5be 6083 0b3f
000003a0: 77de 9bbe e0df c1be 3e73 e63d ebca 67be
000003b0: 5d6e 043e 810c e23e f61b 403e 5d68 ec3e
000003c0: 93df 4fbd 73fe d1bd b263 81bd 25d1 f6bd
000003d0: 0f2c 9b3d 634f 313e aa73 7dbd 6437 d93c
000003e0: 7bf6 2d3e 5ac5 603e cdb4 343e 122c 253f
000003f0: 0d50 8ebf 2da3 40bf a2b3 2cbd a93e 1f3f
0.4045863 0.10919028 0.15611665 -0.17454946 -0.54859954 -0.5191641 -0.77544427 -0.46750244
0.1627805 0.21868561 0.66448 0.74004006 0.23371942 -0.6704964 -1.1277701 -1.1019474
-0.22470509 0.18263888 0.57419896 0.14479604 -0.6836001 -0.6376727 -0.3323665 -0.29656148
-0.033387538 -0.17939539 0.2425541 0.0342878 0.3214137 -0.029451082 0.36082244 0.043692946
-0.57147944 -0.43850854 0.02846153 0.5625915 0.14659068 0.21946484 0.13620012 0.50224304
0.20865308 0.033662837 0.14360529 0.05981119 -0.01610229 -0.1578698 -0.06084332 -0.10864089
0.30649245 -0.104635045 -0.075806305 -0.4276989 -0.37883312 -0.31119993 -0.047321625 -0.631304
-0.10296088 -0.12504923 0.056058817 0.22980902 -0.3895754 0.28870502 0.5641521 0.06418549
-0.24448243 -0.28588915 -0.065974444 0.18451913 -0.11041355 -0.2285945 0.040934872 -0.44838363
-0.33632976 -0.37307099 -0.18044147 -0.03774921 0.3084489 0.46831813 0.6992016 0.5006796
-0.25750867 -0.8787888 -0.027456595 -0.4630389 -0.42668736 0.09757743 0.0036172867 -0.16719574
0.3082806 0.8057707 0.18336006 -0.4926968 -0.3689548 -0.36319208 0.23297445 -0.20028995
0.5542972 -0.3673184 -0.95760787 -0.39193556 -0.3866696 -0.19493864 -0.20059015 0.054186534
0.16832775 0.27673262 0.6721229 0.5935774 0.09730553 -0.5626598 0.037994415 0.5229848
0.10553527 0.3950517 0.77013725 1.4300344 0.9340344 0.34414265 -0.04400923 -0.7116781
-0.7984182 -0.10050608 -0.20603211 -0.4681681 -0.13095157 -0.33369467 -0.6574657 -0.16943257
-0.48869908 -0.47174752 -0.12506816 -0.35366556 -0.42961553 0.031256612 0.3333568 0.17476773
-0.22817306 -0.108531944 0.24351868 -0.29646564 0.14927737 0.3890489 0.92574036 0.74465144
0.3175289 0.21156965 -0.23495175 -0.56812006 -0.93345773 -0.5599303 -0.63018614 -0.54664993
-0.16771667 -0.33222428 -0.53549606 -0.2869826 -0.40275556 -0.5015124 -0.16751342 -0.21870641
0.0313676 0.16330867 0.3944911 0.1439567 0.035062417 0.30495173 0.04734456 -0.7368242
-0.42277518 -0.58395237 0.26572043 0.6123703 0.28793874 -0.013412668 -0.10665186 0.06802682
-0.7539858 -0.926372 -0.53787017 -0.7330497 -0.28663158 -0.17142604 -0.8028171 0.121595964
-0.436563 -0.59139794 -0.24387367 -0.34508792 0.123756245 0.36747515 0.19243456 0.18059443
0.12610325 0.016169086 -0.53643095 -1.1943061 -0.8107808 -0.24867368 0.65344965 0.5158604
-0.12938131 -0.6039785 -0.1592178 0.29149678 -0.26334548 -0.76684225 -0.41786772 -0.38002992
-0.13046812 -0.3445639 -0.10425257 0.12214568 -0.33682933 -0.26761353 -0.29894552 -0.6679858
-0.13867304 0.12486225 0.07356293 0.32542956 0.23479877 -0.0937672 -0.36084646 0.015179727
-0.9746498 -0.34272683 0.7831486 0.39811438 -0.13795964 -0.910872 -0.35521105 0.5449734
-0.30443165 -0.37866116 0.112524495 -0.22636001 0.12932725 0.44150165 0.18760666 0.46173373
-0.050750326 -0.102536105 -0.063178435 -0.1205161 0.07576763 0.1731544 -0.061877884 0.02651567
0.16988556 0.21950284 0.17647095 0.6452037 -1.111818 -0.75248986 -0.0421635 0.62204987

model.0.bias f4 [16]
00000000: b1c3 0c40 f7b0 893e a95c 913e 11c2 62bd
00000010: da83 cb3d 68ee 943e 743e cbbe 0b79 673f
00000020: 6b00 f8bc d0da a93f 7b7f 2dbd eacb 4bbe
00000030: ff48 583f 2aa3 a43b b705 393f 3fb5 8e3f
2.199444 0.26892826 0.28391007 -0.055360857 0.09937258 0.2908814 -0.39696085 0.9041907
-0.030273637 1.3269901 -0.042357903 -0.19902006 0.84486383 0.0050243335 0.72274345 1.1149062

model.2.weight f4 [10, 16]
00000000: 2f11 f6be 94d3 4cbe fc66 373e 627c 8e3d
00000010: 674a 29be a96b 2cbf e755 05bd 09d5 ea3c
00000020: 04ed 71be 475f 95be bd0b 9dbd 5d5d 5dbe
00000030: 617a 68bd 0d6f dbbd 6d1a 123e 97e7 91be
00000040: 062d 05bf 344d edbe 55e7 12bf 0ab3 53be
00000050: e563 d9bd ae2c 8ebe aa3b 66bd 333a fdbe
00000060: ece5 aa3d c2d6 0dbf 18af 15ba 4267 813e
00000070: 7fa5 003f ac74 56be 2c03 183f 3cc5 f93e
00000080: 85c7 0b3e ea59 46bd 4488 c2ba 91b1 2c3e
00000090: 1b61 943d b987 49bf a127 423e e253 22bd
000000a0: fb4e 553e 0e45 a5be 3688 5b3e 99d7 0f3e
000000b0: 198d ddbe dc92 473e b10e 16bf 72d4 503e
000000c0: ccb3 2fbf 1c73 93be b1c7 493e daa9 84be
000000d0: 76b2 7cbe 98e6 bfbe c56d 0bbe b96c 993a
000000e0: a100 3d3e fdb1 753e 4a50 fb3d a514 073e
000000f0: db07 613e e397 8b3b 6aea ff3c b61c 96bc
00000100: ca2a 903b 3089 00bf 0857 52bc 2ebc 633e
00000110: b161 fa3d 764a 23bf 5e0b 793e 4a18 5abe
00000120: bdd9 46bd 7f93 0d3e c649 f13d b34a 873e
00000130: 58ca ebbd d9ab 0f3e 0445 2dbf 2b93 8c3b
00000140: d3fa 3b3f 356d 99bd fd89 3ebd 2c25 30be
00000150: e504 603e 8673 103e 4528 adbf 811f b03e
00000160: 9040 483e 37cf 953e ebed 0c3d 8c82 663e
00000170: b5fc 5dbf a6a7 a73c f9ef 12bf fbd0 263f
00000180: 8514 103e 578e e6be a97c d13d 60a5 1e3e
00000190: 7964 ae3e 552a 63bf c1f9 e63d f509 083e
000001a0: 64d9 c0bd c874 75bd 3634 ed3c e64a a7bd
000001b0: d660 d8be 79c7 efbd 4dd1 c3bc 7806 86bd
000001c0: cc2f 8abe ef07 763e f2cb 09bf c7b1 30be
000001d0: d119 0cbf 4c5f 753e c9ac 97bf 9733 d4bd
000001e0: ea0a c0bc 79f3 fb3e 09e4 083e c859 0bbf
000001f0: 43fc 84bf d562 e13d f75c 03c0 9ebc fabd
00000200: 603a 5bbe 0469 28bf faa2 873e b9c8 013e
00000210: 8d67 e4be 0034 083d 0cd6 92bd 34c3 3e3e
00000220: ce9a c53d 1178 e13d 72f5 60be 884e d63e
00000230: b530 67be 7d45 153e d490 0fbf 8528 4dbf
00000240: 3b37 39bf e932 6c3e 0f07 cd3e 38aa 173e
00000250: 7149 ce3e 13c0 b13e 84bd 16bf 5db7 5f3e
00000260: 9a0d ae3d 92a6 91be f741 12bd 971c b3be
00000270: e2c2 51bf 283f 09be a02f 4dbf 2936 89be
-0.48059985 -0.20002586 0.17910379 0.06957318 -0.16532288 -0.67351776 -0.032552626 0.028666036
-0.2362557 -0.29174253 -0.076682545 -0.21617647 -0.056757335 -0.10714541 0.14267893 -0.28497002
-0.52021825 -0.46347964 -0.57384235 -0.20673767 -0.106147565 -0.27768463 -0.056209244 -0.49458465
0.08344635 -0.5540582 -0.000570999 0.25274092 0.50252527 -0.20942944 0.5937984 0.4878329
0.1365033 -0.048425592 -0.0014841636 0.16864611 0.07245084 -0.7872272 0.1896043 -0.039630778
0.2083091 -0.32279247 0.21438679 0.14047088 -0.4327171 0.19489616 -0.5861617 0.20393541
-0.68633723 -0.2879876 0.19705082 -0.25910836 -0.24677452 -0.37480617 -0.13616093 0.0011705376
0.18457271 0.23993678 0.12271173 0.13191469 0.21975653 0.0042600497 0.031239707 -0.018324237
0.004399632 -0.5020933 -0.012838133 0.22239754 0.122256644 -0.63785493 0.24320742 -0.21298328
-0.048547495 0.13825797 0.11781649 0.26424178 -0.115132034 0.14030398 -0.67683434 0.0042900047
0.734296 -0.07491533 -0.046518315 -0.1720168 0.21876867 0.14106569 -1.3527914 0.34399036
0.19555879 0.29259655 0.034406584 0.22510737 -0.86713725 0.020465683 -0.5739742 0.6516263
0.14070328 -0.45030472 0.10228855 0.15492773 0.3406103 -0.8873647 0.112781055 0.13285048
-0.09416464 -0.059925824 0.02895556 -0.081685826 -0.4226138 -0.11707968 -0.023903513 -0.065442026
-0.2698959 0.24026464 -0.5382682 -0.17255317 -0.5472689 0.23962134 -1.1849605 -0.103614025
-0.023442704 0.49209192 0.13368239 -0.5443387 -1.0389484 0.11005179 -2.0525491 -0.12243007
-0.21408987 -0.6578524 0.2649153 0.12674226 -0.44610253 0.033252716 -0.071697325 0.18629152
0.09648667 0.11009229 -0.2196863 0.4185679 -0.22577174 0.14577289 -0.56080365 -0.8013995
-0.723499 0.23066296 0.40044448 0.14811027 0.40290406 0.34716853 -0.5888293 0.21847291
0.08498688 -0.28447396 -0.03570744 -0.3498275 -0.8193799 -0.13402998 -0.80150795 -0.26799133

model.2.bias f4 [10]
00000000: b90a 3a3f b549 2cbf d546 9abd 70b4 363f
00000010: 14e3 36bf e49d f13e f193 c43e e741 9c3e
00000020: 9171 98bf a615 4bbf
0.7267261 -0.6729997 -0.075330414 0.71369076 -0.71440244 0.47190773 0.3839412 0.3051903
-1.1909658 -0.7932991

exp_avg f4 [16, 784]
00000000: d913 db38 d913 db38 d913 db38 1694 6739
00000010: ca87 7a39 f022 8838 3f29 78b5 e583 c239
00000020: b320 aa39 fc2c 5639 a978 04ba 96fa 28ba
00000030: 6196 59ba cc55 24ba 62a4 b3b9 6fa2 77ba
00000040: 28cf bbb9 2bc8 df37 f91b ebb9 1317 73b8
00000050: 4acc b938 cfe9 d938 bb83 d538 d913 db38
00000060: d913 db38 d913 db38 d913 db38 d913 db38
00000070: d913 db38 d913 db38 2216 c938 8f41 0ab8
00000080: 609f 9d39 407b 4939 c2f6 e139 dad1 ba39
00000090: 3b2d 3e3a 9898 063a 0070 75b9 0ba0 0fba
000000a0: fb2e 1bba ed99 31ba 7f2c 69ba 6d86 c9ba
000000b0: 1c55 a1b7 9f0e 793a 73f9 1d3a 5c18 4e3a
000000c0: eb07 403a 27cc 72b8 dd67 3db8 2005 5fb7
000000d0: a794 b237 d913 db38 d913 db38 d913 db38
000000e0: d913 db38 d913 db38 01eb 8f38 dc31 df36
000000f0: 16fe ca39 9400 993a 392f c13a 28b5 df3a
00000100: 9dba 8b3a 9023 ce39 156b 97b9 ecd2 4aba
00000110: 0c6c 48ba 1f07 f6b8 bb2f ddb9 440a 2c3a
00000120: a4dc 7039 74aa fa3a 18a9 893a fcda 643a
00000130: 3125 2d3a 115d d938 da36 90b9 3326 2fb6
00000140: bbdb b8b7 726d a138 0b35 dc38 d913 db38
00000150: d913 db38 d913 db38 d7db a9b6 85e1 a5b7
00000160: 356e 8a39 df73 3d3a 962d 003b 29bb b73a
00000170: b908 e239 f379 7c38 6736 22ba 5c85 c03a
00000180: 49fd 813a ff41 cc39 f85f 103a 8bcb 643a
00000190: 3fa3 703a 6f33 a33a 5fbd 3b3a 90dd 29b9
000001a0: 6f2c 4f39 4654 f6b9 58b7 033a 885c c438
000001b0: 851d 25b9 d3a0 4438 0b35 dc38 d913 db38
000001c0: 3721 da38 bd29 a838 8f89 33b9 77ad a1b9
000001d0: 3a01 713a 9c1a 383a 2fa8 a73a 2c5d 563a
000001e0: 3053 103a 9689 4639 5fe9 6739 808d a23a
000001f0: 4b08 c23a d755 a83a 3b79 2d3a 9ca0 7d3a
00000200: ee2e 853a 2e49 0b3a 0031 213a 5c19 3f3a
00000210: a4b4 8cb8 cc03 deb9 2a79 fcb9 03c4 113a
00000220: 239e a239 e5af f236 ae3b d838 05af e138
00000230: ba16 c538 7c73 7738 3aeb 0038 ebcd 4bba
00000240: f227 b23a e08a 783a 75e1 113a 6116 4ab9
00000250: b58f c2b9 1565 bfb9 f4e7 333a 2a30 0fba
00000260: ca77 f4b9 f115 b83a bf12 cc3a ced8 a53a
00000270: dd17 a03a 1375 5d3a 41c4 1a3a c5d0 4d3a
00000280: 1728 543a d519 97b8 305b db38 9ef7 ab38
00000290: ee06 6d39 21cd 57b9 c598 bab7 1403 ea38
000002a0: 56b5 db38 2e18 8e39 991c 85ba 2fa2 aeba
000002b0: 38cf 653a b218 8e3a 1a17 95ba 583e 98ba
000002c0: 9fc8 ad38 af33 0139 4e4d 79b9 5948 27b9
000002d0: 4ec8 a8ba f8a2 d739 7220 2635 1455 a33a
000002e0: f2a8 923a e274 9d3a f485 5e3a d73f 973a
000002f0: a8a9 c53a 17e9 d63a cf8b 843a 1fdf c339
00000300: d347 42ba f5b4 1838 bc97 4eb7 4de2 c938
00000310: 0cbb a338 0e3d 67ba ebc2 1bbb 7926 9bba
00000320: 3f22 9739 0438 d7b9 08c4 38ba b9d4 c0ba
00000330: c769 a0ba 8243 2eb5 4f0c 9cba 3fab 4739
00000340: 6ed7 673a 9799 47b9 1e5f 6e3a 4122 2e3a
00000350: 8d95 c63a 3c2e 863a 44d8 ec39 addf 943a
00000360: 89bd df3a 997e cd3a 24c1 9d3a 2c4f 0f3a
00000370: 561c dab9 8fef c6b9 3e55 65b9 44b7 d938
00000380: 1432 9db9 fec3 23ba 75bd 65ba a405 19ba
00000390: 3a01 3bba 17db 3cba 380c 8cba ba53 3bba
000003a0: 4125 58ba 471a 06bb ea0d e4ba 4874 1e3a
000003b0: aa2a 7b38 2f8c 4839 0a60 19b9 d013 143a
000003c0: 4d83 9f3a 88c9 8c3a ffc9 863a 018d b33a
000003d0: 8824 cb3a 5290 343a 5ab9 9e3a 2712 483a
000003e0: 2a45 a5b9 bfe8 84ba d962 c7b8 1193 f3b7
000003f0: 9ce7 ccb9 25b9 a3ba 7c21 beb9 55b0 81ba
0.00010446431 0.00010446431 0.00010446431 0.00022085043 0.00023892443 6.491493e-05 -9.244722e-07 0.00037100833
0.0003244929 0.00020425388 -0.000505338 -0.00064460316 -0.0008300301 -0.0006268888 -0.00034264015 -0.0009446507
-0.00035821763 2.6676882e-05 -0.00044843534 -5.7957204e-05 8.859539e-05 0.000103909166 0.00010181168 0.00010446431
0.00010446431 0.00010446431 0.00010446431 0.00010446431 0.00010446431 0.00010446431 9.5885494e-05 -3.296282e-05
0.00030064117 0.00019214768 0.00043099193 0.00035633036 0.00072546647 0.00051344326 -0.00023406744 -0.00054788654
-0.00059197814 -0.0006774951 -0.0008894875 -0.0015375145 -1.9232328e-05 0.0009500775 0.00060262455 0.0007861906
0.00073253986 -5.7887428e-05 -4.515784e-05 -1.3293029e-05 2.1288475e-05 0.00010446431 0.00010446431 0.00010446431
0.00010446431 0.00010446431 6.862544e-05 6.6517223e-06 0.0003871775 0.0011673146 0.0014738805 0.0017067539
0.0010660473 0.00039317878 -0.00028880747 -0.0007737118 -0.0007645495 -0.000117315205 -0.00042187967 0.0006562809
0.00022970379 0.0019124285 0.0010502664 0.0008730141 0.0006604968 0.00010364701 -0.00027506688 -2.6099267e-06
-2.203683e-05 7.697464e-05 0.000105002975 0.00010446431 0.00010446431 0.00010446431 -5.062185e-06 -1.9774548e-05
0.00026403522 0.0007227044 0.0019558421 0.001401757 0.00043112578 6.0195056e-05 -0.0006187916 0.0014688182
0.0009917404 0.00038959083 0.00055074645 0.000872784 0.0009179599 0.0012451241 0.00071617024 -0.00016199634
0.00019757611 -0.00046983565 0.0005024574 9.3632436e-05 -0.00015746623 4.687982e-05 0.000105002975 0.00010446431
0.00010401237 8.0186386e-05 -0.00017122015 -0.00030837554 0.0009193603 0.0007023008 0.0012791211 0.0008177336
0.000550556 0.00018934006 0.00022116814 0.001240179 0.0014803497 0.0012842965 0.0006617491 0.0009675117
0.0010161081 0.0005313334 0.0006148964 0.00072898506 -6.709367e-05 -0.00042345969 -0.0004815546 0.0005560519
0.0003101687 7.232639e-06 0.00010310799 0.00010761436 9.397925e-05 5.8996942e-05 3.073665e-05 -0.00077745196
0.0013592227 0.0009481143 0.0005564907 -0.00019272558 -0.00037109634 -0.0003650567 0.0006862872 -0.0005462194
-0.00046628556 0.0014044625 0.0015569552 0.0012653114 0.0012214143 0.00084479264 0.0005903878 0.00078512385
0.0008093132 -7.205053e-05 0.00010459719 8.200038e-05 0.00022604663 -0.00020580414 -2.2244067e-05 0.00011158563
0.0001047651 0.00027102366 -0.0010155617 -0.0013323481 0.0008766535 0.00108411 -0.0011374683 -0.001161526
8.2866514e-05 0.00012321652 -0.00023775289 -0.00015953313 -0.0012877078 0.00041129417 6.1887033e-07 0.0012461268
0.0011189266 0.0012012983 0.00084885885 0.0011539411 0.0015080469 0.001639637 0.0010112467 0.00037359537
-0.00074112153 3.6408153e-05 -1.2313885e-05 9.626579e-05 7.807286e-05 -0.00088210485 -0.0023767303 -0.0011837027
0.0002882648 -0.0004104973 -0.0007048254 -0.0014711834 -0.0012238555 -6.491829e-07 -0.0011905524 0.00019041913
0.0008844052 -0.00019035336 0.0009093153 0.00066426775 0.0015150771 0.0010237168 0.00045174558 0.0011358164
0.0017070036 0.0015677988 0.001203571 0.00054668146 -0.00041601312 -0.00037943988 -0.00021870897 0.00010381502
-0.00029982685 -0.00062471617 -0.0008763888 -0.00058373273 -0.00071336667 -0.0007204278 -0.0010684794 -0.000714596
-0.00082452974 -0.002046244 -0.0017399166 0.0006044549 5.9882797e-05 0.00019125709 -0.00014626994 0.0005648704
0.0012169868 0.0010741213 0.0010283588 0.0013698639 0.0015498558 0.00068879605 0.0012109682 0.00076320994
-0.00031522784 -0.0010140165 -9.507471e-05 -2.903634e-05 -0.00039082475 -0.001249109 -0.00036264572 -0.000989447

exp_avg_sq f4 [16, 784]
00000000: 3191 4033 5ba2 4033 f0d1 4033 ab98 6734
00000010: 9cd1 a534 cba3 5834 880c 8f34 d2e3 2d35
00000020: 2529 1d36 e554 ea35 bd7f 8936 1436 9a36
00000030: 080e 7436 057f 8c36 20fc 9636 ea38 7636
00000040: 1e20 8e36 6ad8 9836 52d5 dc35 752c b735
00000050: 3876 9c35 17ce 7835 deb5 8935 0f18 1e35
00000060: 3a27 5b34 3d70 f033 4988 6733 b654 7c33
00000070: 0f92 4033 92a2 4033 590b 5433 5e64 9e34
00000080: a436 ca34 98fd b634 9c23 6935 688e 0536
00000090: 800e 9436 558f 0d37 c0e9 2a37 1654 2f37
000000a0: 632a 5a37 3ee3 5f37 5a5e 5837 2895 8237
000000b0: 8b24 8b37 bc59 8b37 1f6f 3537 d393 1b37
000000c0: 3ffe fb36 d45c ac36 325a a136 0761 5236
000000d0: a294 dd35 d0ee ba34 1b92 1434 632a 8733
000000e0: 8998 4033 f7eb 4033 7167 1234 4427 a034
000000f0: 7ac3 4435 86b9 1136 7bfc 8036 8d9f b036
00000100: 1884 5537 52b8 5b37 47b8 5b37 4835 4737
00000110: 9642 5837 50df 7137 2b96 8637 f8fe 9037
00000120: 565b 9a37 afea 8e37 3661 9937 8844 a137
00000130: 00c0 7637 e4b6 4737 6522 1e37 4974 f536
00000140: 6c94 c836 2978 1736 ab8e 7835 74b1 6b33
00000150: 38d7 4033 2211 4533 9155 3634 5af1 1635
00000160: 8554 a636 4fdf 9836 217e 0237 0339 0937
00000170: 4d12 4637 e499 8f37 da15 8137 76f2 8837
00000180: 6ef6 8637 1fc1 8237 4236 9237 fb51 b137
00000190: d8a0 c237 e369 bf37 b55d a937 b5ca a537
000001a0: 7fe5 a537 a671 9337 1b29 8137 15bb 6137
000001b0: dbde 1d37 a955 9036 a600 fe35 5521 8134
000001c0: 739a 4333 5de1 6433 2dca aa34 ff86 ce35
000001d0: 15e1 b336 ad78 5537 66a6 2d37 179a 7637
000001e0: 104c 9c37 1509 8a37 3d64 ac37 5971 8837
000001f0: 310d 9837 2482 a737 86fb cd37 69af d637
00000200: 25a9 aa37 3ebc bc37 c1cf d637 d882 d337
00000210: c920 e037 9f1c cf37 054c c337 a31e 9637
00000220: cd94 6337 5806 db36 00b6 0d36 17b3 fe33
00000230: 1ddd 4e33 29bd 9233 8a25 0036 18d3 cd36
00000240: 753b b037 219c 8a37 64d6 9337 f746 a637
00000250: bed2 a037 94fa ab37 e31a ae37 df85 9e37
00000260: 08af b637 b19a b137 8639 e437 4d69 fd37
00000270: 38a4 f337 912b e737 335f e237 5033 ef37
00000280: ac4d 0238 99a9 0038 0599 e637 58c4 c637
00000290: a17d a437 b4aa 4037 59f4 5236 328c f533
000002a0: 87d3 3f35 85ae a735 2cc5 b336 3f3d 4037
000002b0: f82c b537 3694 b237 cc98 b037 9861 aa37
000002c0: 00c0 a737 a7b3 9437 f0e4 a637 91c0 ad37
000002d0: a13b b537 79d3 f937 cf68 1c38 f8f8 1b38
000002e0: a52d 1738 44df 1538 316a 1438 f7d8 1038
000002f0: abab 0d38 4321 0f38 fd99 0a38 9c16 f037
00000300: 9129 d137 6e29 9437 9e44 7936 28bd df34
00000310: 0f36 5535 79c4 b735 5b48 fb36 cb95 6c37
00000320: 4a92 a637 5d79 d837 25e3 cf37 4d10 ee37
00000330: e3fe de37 ff5d fb37 8264 dc37 efa8 b137
00000340: 2ff6 c537 4dd4 0338 2c14 2d38 bba5 4b38
00000350: 2939 4f38 bdca 3b38 2f9e 3638 b449 2d38
00000360: b2ce 3038 bcd3 2a38 a865 2838 5738 0f38
00000370: 34be 0938 c5a6 c637 1d68 ca36 8e45 e934
00000380: a8b8 7835 26ee 0c36 183b 2437 c0f2 8f37
00000390: 39ef c237 1e14 ee37 2b95 1838 2a17 1d38
000003a0: a072 1738 caeb 2b38 0683 1238 c9e3 e537
000003b0: 19b5 0238 017a 3138 b4e2 5838 2050 6038
000003c0: 7841 6a38 9558 6538 b556 5638 6ba0 5f38
000003d0: f570 5d38 0904 4138 001f 3938 57ff 3938
000003e0: e142 2c38 441d 0438 34bf 7237 253f bd35
000003f0: ff1d 8335 11fa 3136 4dae 5837 4900 8b37
4.4835534e-08 4.4851145e-08 4.489442e-08 2.1569092e-07 3.0886156e-07 2.0176155e-07 2.6644943e-07 6.4779044e-07
2.3418772e-06 1.7459066e-06 4.097789e-06 4.595853e-06 3.6367e-06 4.187112e-06 4.4996996e-06 3.6689985e-06
4.2356687e-06 4.555147e-06 1.6453362e-06 1.3647501e-06 1.1657312e-06 9.26871e-07 1.0260226e-06 5.8894597e-07
2.0410235e-07 1.1196287e-07 5.390783e-08 5.8750366e-08 4.4836323e-08 4.485134e-08 4.9370417e-08 2.950282e-07
3.7665188e-07 3.4084655e-07 8.685108e-07 1.9901436e-06 4.4124317e-06 8.437627e-06 1.0187214e-05 1.0450391e-05
1.30036815e-05 1.3344745e-05 1.2896571e-05 1.5566664e-05 1.6587108e-05 1.6611877e-05 1.0814313e-05 9.273138e-06
7.509981e-06 5.136806e-06 4.808674e-06 3.1348916e-06 1.6509041e-06 3.481896e-07 1.3836727e-07 6.2941375e-08
4.4842213e-08 4.4918092e-08 1.3634941e-07 2.9830892e-07 7.3300146e-07 2.1714673e-06 3.84409e-06 5.263783e-06
1.2726545e-05 1.3096333e-05 1.3096323e-05 1.187373e-05 1.28901065e-05 1.4416713e-05 1.6043972e-05 1.7284867e-05
1.8400762e-05 1.7037002e-05 1.8284289e-05 1.9224608e-05 1.4707446e-05 1.1903907e-05 9.425542e-06 7.3151064e-06
5.977743e-06 2.2570696e-06 9.259481e-07 5.4876594e-08 4.4899224e-08 4.588322e-08 1.69812e-07 5.623057e-07
4.957025e-06 4.5559495e-06 7.7779705e-06 8.17911e-06 1.1805981e-05 1.711859e-05 1.5388174e-05 1.6325368e-05
1.6088798e-05 1.5587137e-05 1.7429822e-05 2.113822e-05 2.32015e-05 2.2818282e-05 2.0190006e-05 1.9763926e-05
1.97764e-05 1.7576687e-05 1.539714e-05 1.34546035e-05 9.409817e-06 4.3015066e-06 1.8924663e-06 2.4052375e-07
4.5542446e-08 5.3290353e-08 3.181207e-07 1.5387485e-06 5.3608187e-06 1.2723886e-05 1.0350346e-05 1.4698619e-05
1.8632069e-05 1.6455111e-05 2.0550675e-05 1.6265245e-05 1.8125955e-05 1.9968553e-05 2.4555029e-05 2.559247e-05
2.0344343e-05 2.2499004e-05 2.5607531e-05 2.5214089e-05 2.6718148e-05 2.468965e-05 2.328121e-05 1.789566e-05
1.35649e-05 6.527447e-06 2.1116575e-06 1.1860373e-07 4.8164214e-08 6.833063e-08 1.9095337e-06 6.1340506e-06
2.1008522e-05 1.6523585e-05 1.7623599e-05 1.9821788e-05 1.917162e-05 2.0501473e-05 2.0754936e-05 1.8897406e-05
2.1777596e-05 2.1172078e-05 2.7206504e-05 3.0208985e-05 2.9044328e-05 2.7557633e-05 2.698563e-05 2.8514914e-05
3.1066753e-05 3.067553e-05 2.7489392e-05 2.3694869e-05 1.9608824e-05 1.1483837e-05 3.1434668e-06 1.1434203e-07
7.146086e-07 1.2493261e-06 5.3575695e-06 1.1458352e-05 2.1597822e-05 2.128827e-05 2.1051987e-05 2.0311025e-05
1.9997358e-05 1.7726632e-05 1.989535e-05 2.0712878e-05 2.1604648e-05 2.9781588e-05 3.729091e-05 3.718675e-05
3.6043715e-05 3.57323e-05 3.5384848e-05 3.453434e-05 3.3776898e-05 3.4124834e-05 3.3045177e-05 2.8620758e-05
2.4934097e-05 1.7662267e-05 3.7143832e-06 4.1674616e-07 7.942735e-07 1.3691744e-06 7.488806e-06 1.4101573e-05
1.9856863e-05 2.580572e-05 2.4782095e-05 2.8379402e-05 2.6583153e-05 2.9965302e-05 2.6272846e-05 2.117871e-05
2.3598868e-05 3.1430554e-05 4.12652e-05 4.855332e-05 4.940588e-05 4.477309e-05 4.35395e-05 4.1315056e-05
4.215417e-05 4.072835e-05 4.0148996e-05 3.4146327e-05 3.2840486e-05 2.3681097e-05 6.0321895e-06 4.345024e-07
9.265591e-07 2.1000246e-06 9.788921e-06 1.7159968e-05 2.3237999e-05 2.8381179e-05 3.6378548e-05 3.745329e-05
3.610796e-05 4.0989173e-05 3.4931138e-05 2.7404998e-05 3.1163076e-05 4.2313713e-05 5.1709547e-05 5.3480384e-05
5.585092e-05 5.4680353e-05 5.1102328e-05 5.3316744e-05 5.2795705e-05 4.6018544e-05 4.4136308e-05 4.434524e-05
4.107028e-05 3.1498508e-05 1.4468842e-05 1.4099975e-06 9.768991e-07 2.6520613e-06 1.2915186e-05 1.6570224e-05

exp_avg f4 [16]
00000000: 044f aebb b620 a138 0a2d 03bb 0400 0000
00000010: 0b4b 1f3a edc7 fc3b 7873 21bc 29f4 12bb
00000020: 0400 0000 c0f6 d33a 0400 0000 f8d8 e8b9
00000030: f587 48ba 0400 0000 5276 11ba cd1f a0ba
-0.005319478 7.683171e-05 -0.002001586 6e-45 0.0006076551 0.0077142627 -0.00985419 -0.0022423363
6e-45 0.001617156 6e-45 -0.00044412143 -0.00076496537 6e-45 -0.0005548942 -0.0012216509

exp_avg_sq f4 [16]
00000000: 1f8d bb39 c721 0339 9f73 5d39 1369 0631
00000010: c936 b939 c21a 3839 2b7b 043a 8818 8639
00000020: 279c 072f 4f06 8339 c4a8 c72e ee41 3439
00000030: 9fdd 9439 ff43 e92f 77fa 2e39 a430 1c39
0.00035772563 0.00012505717 0.00021119275 1.9559294e-09 0.00035326768 0.00017557575 0.0005053754 0.0002557675
1.2333655e-10 0.00024990967 9.079451e-11 0.00017190698 0.0002839388 4.2430767e-10 0.00016687239 0.0001489544

exp_avg f4 [10, 16]
00000000: d015 1b3c eac7 4939 65cb bdbb 0400 0000
00000010: 14f0 4a3b 1a37 983b 69a0 123d 3754 fe3a
00000020: 0400 0000 3ca0 9abb 0400 0080 d73b cf3b
00000030: 2c14 c03b 0400 0000 b9dc 173c 999f 043c
00000040: 2d43 7f39 8cf5 cf37 c162 05bc 0400 0080
00000050: e0b9 9b3a 7311 e8ba 991a 6abd 9393 3139
00000060: 0400 0000 e867 8639 0400 0000 257b 893a
00000070: 9eda 0abd 0400 0080 d345 d9bc 690d 59bb
00000080: a39a cb3c 54b2 7438 9d94 673d 0400 0000
00000090: e002 28bc b8e4 8abb 3195 453d 500d b23a
000000a0: 0400 0000 bbc8 ee3b 0400 0000 2832 adbb
000000b0: 68d2 dc3b 0400 0000 fe34 213b 2d8e 1abb
000000c0: f794 833b a899 9a39 c493 ec3c 0400 0000
000000d0: 2a98 953a 62f6 a5bc ff60 003d 9959 423c
000000e0: 0400 0000 741d 37bd 0400 0000 f80f 12bb
000000f0: 9a81 8a3c 0400 0080 ff10 cd3a 9032 243c
00000100: edcd c9bc ef25 9937 e0f0 943c 0400 0000
00000110: 9266 c93b e97b 09bc f540 c63b 4542 8eb8
00000120: 0400 0000 a4ff 433b 0400 0000 4b44 dfba
00000130: abb7 6fba 0400 0080 4931 b43a a3a9 b23b
00000140: dfa9 fc3b 5b58 caba f375 e23c 0400 0080
00000150: 9dfa 953a 897b c53c 8578 233c f58f a3bc
00000160: 0400 0000 8226 aa3c 0400 0000 f609 693a
00000170: 8bd7 5d3b 0400 0000 f2cf e23a 447d 85bb
00000180: e52d f4bc e301 9e38 6c86 d5bd 0400 0000
00000190: fc0e 3ebb eb6a 47bb 318d 88bd 9bf6 b23a
000001a0: 0400 0080 9f65 a23a 0400 0000 facd 5938
000001b0: 2bcb a4ba 0400 0080 62c7 3e3c 0b1d 16bc
000001c0: 2828 edbb d585 4238 5fc4 d73b 0400 0080
000001d0: 2be7 80b9 c9a9 c6ba f9d0 823b 6174 0d3b
000001e0: 0400 0080 659f 6d3b 0400 0080 8ea3 b136
000001f0: 9853 acba 0400 0000 d854 8239 1263 8cbb
00000200: 8cce 533c 2fb0 fe37 cd3f ab38 0400 0000
00000210: dc1b 2bbb e31f eb3c 65b1 8dbc 118e 2b3a
00000220: 0400 0080 4987 c23b 0400 0000 0772 643a
00000230: 9374 453b 0400 0000 4235 a2ba 8d62 483a
00000240: 3856 213b c87f 523a 3382 a1bc 0400 0000
00000250: c0ef 573b a462 95bc 17b6 bb3b c7b8 093a
00000260: 0400 0000 5ed2 ef3b 0400 0080 0411 e137
00000270: 0c02 c23a 0400 0080 ba3f 0bba 59c8 95ba
0.00946565 0.00019243328 -0.005792069 6e-45 0.0030965852 0.0046452405 0.03579751 0.001940376
6e-45 -0.0047188085 -6e-45 0.006324272 0.0058617797 6e-45 0.009268933 0.008094692
0.0002434372 2.4790665e-05 -0.008141221 -6e-45 0.0011880957 -0.0017705396 -0.05715427 0.00016935011
6e-45 0.00025635888 6e-45 0.001048897 -0.033899896 -6e-45 -0.026522553 -0.0033119565
0.02485401 5.8340214e-05 0.056538213 6e-45 -0.010254592 -0.004238691 0.048237983 0.001358429
6e-45 0.0072871125 6e-45 -0.00528552 0.0067389496 6e-45 0.0024598236 -0.0023583279
0.0040155607 0.00029487652 0.028879054 6e-45 0.0011413146 -0.020259086 0.031342503 0.011862182
6e-45 -0.044705823 6e-45 -0.002228735 0.016907502 -6e-45 0.0015645324 0.010021821
-0.024634326 1.8256686e-05 0.018181264 6e-45 0.0061462605 -0.008391359 0.006050224 -6.783431e-05
6e-45 0.0029907012 6e-45 -0.0017033903 -0.0009144495 -6e-45 0.0013747598 0.005452351
0.00771068 -0.0015437709 0.027644133 -6e-45 0.0011442486 0.024106758 0.009977465 -0.019966105
6e-45 0.020770315 6e-45 0.0008889729 0.0033850397 6e-45 0.0017304404 -0.0040737707
-0.02980704 7.5343785e-05 -0.104260296 6e-45 -0.002900063 -0.0030428718 -0.06667555 0.0013653816
-6e-45 0.0012389905 6e-45 5.1928662e-05 -0.0012572756 -6e-45 0.011644216 -0.009162198
-0.007237453 4.6377845e-05 0.0065846886 -6e-45 -0.00024586296 -0.0015156801 0.0039921966 0.002158426
-6e-45 0.0036258337 -6e-45 5.2940513e-06 -0.0013147471 6e-45 0.00024858746 -0.004284271
0.012927663 3.0361201e-05 8.165799e-05 6e-45 -0.0026109135 0.028701728 -0.017296502 0.0006544302
-6e-45 0.0059365374 6e-45 0.0008714501 0.0030129298 6e-45 -0.0012375491 0.000764408
0.002461804 0.0008029905 -0.019715404 6e-45 0.0032949299 -0.018235512 0.005728494 0.0005253669
6e-45 0.007318779 -6e-45 2.6830014e-05 0.0014801635 -6e-45 -0.0005311925 -0.0011427506

exp_avg_sq f4 [10, 16]
00000000: bd93 bd3a a3d0 883b 1e58 083d 2bf0 982c
00000010: 2a8a 4f3a c4d1 da3a 49af b23d 21c0 4b3d
00000020: 24ab 182d e591 243b ea3c 2e28 bd66 813b
00000030: b40e 203c 0c6e 6d2c 90ea 293d eaaf cf3a
00000040: 9e09 4338 c08d 5a39 457f f33a dac1 b42b
00000050: 7762 8339 4dea 003a 1291 603c 36c7 b43a
00000060: adb9 172d 2da2 613a 0d9a 492b 2f91 f13a
00000070: c2fa 543c df6c cf2b 4ca5 ae3b 72e4 283b
00000080: 630b c53b 9ed3 0b3c e3d2 323c 2517 c02c
00000090: 255b 9d3c f3db 653a 2947 cb3e 64d5 f43c
000000a0: b629 1d2c e5ad 1c3c 887f 942b 2165 843d
000000b0: 7fa8 4c3b c8b3 062c 45f5 993a 550f 353c
000000c0: ad2e 9839 6d03 b73a dda2 863c 9aac ea29
000000d0: 0648 1b3a 1ae4 a23a 1dcc 713d 1409 9d3c
000000e0: cfa7 bc2c 55aa 153c b08e 002b 33fa 2c3b
000000f0: 12c7 073d a755 6a2e 4f9f 553c 7ff7 bf3b
00000100: 6263 393b 96b5 813b a07c 0c3c b102 992c
00000110: 0a21 fd3c 3bcd 803a 7614 df3e 7389 9c3c
00000120: e6f8 1f2d dec8 da3c 73a3 502b 9e84 9b3d
00000130: af7c 2c3c 03e5 2a2c 70df fa39 819a 313c
00000140: e326 d33a a84f 7b3b 1fcb c63a 8af4 1b2b
00000150: d21b 853b f002 d53c 9889 ce3a c7bd 803b
00000160: 4db8 2b2c 4edb d23b 8a8a 5825 d241 c23a
00000170: 664d 3539 ab69 0a2d cb45 7f39 cc38 f239
00000180: a4a2 a53b eeb0 e03b b58c ff3c 05e5 8a2c
00000190: 8ea4 f93c 04d6 663a f3fd af3e 1ca9 9b3d
000001a0: 0060 632b e10e 9c3c d6e2 522b b82b 2d3d
000001b0: a2d3 c93b b9bf 7f2c d864 0a3d 43d2 aa3b
000001c0: 7adc 383a 5ea7 fc3b 6077 4639 8d37 e62e
000001d0: d941 e03a 5c8c 703d eaed 6c3a f6f3 0b3b
000001e0: 37bc 232f 1f28 053c 2e33 1829 9f72 a639
000001f0: c6ad 5738 488f 6b2d f828 0838 3882 c339
00000200: 4702 a83a 26ea b639 8f34 aa3b bfb5 5c2c
00000210: a6f3 0e3a 6e95 e53b 9ae3 b73c b8d2 3d3c
00000220: 3b39 6d2d c76b 243b c8a6 212b 892a a83b
00000230: 0e1a e13a 1ad9 402d 1598 103a f62b 0439
00000240: 52b8 f939 7fd7 173c d087 2a3b 49ff 222c
00000250: 444e 983b 5926 643d 8bbf b23a abe6 633b
00000260: ed8b dc2c 9c03 023b b9bb c72d 9822 8a3a
00000270: a5a9 6938 1ea6 912b 2a18 ef38 0011 6b38
0.0014463585 0.004175262 0.03328716 4.346764e-12 0.00079170114 0.0016694595 0.08724839 0.049743775
8.6782005e-12 0.0025111374 9.672149e-15 0.003949015 0.0097691305 3.3740814e-12 0.04148346 0.0015845273
4.650058e-05 0.00020842906 0.0018577358 1.2843574e-12 0.0002505963 0.0004917726 0.013706462 0.001379228
8.6245846e-12 0.0008607235 7.1623333e-13 0.0018430109 0.012999238 1.4738452e-12 0.0053297635 0.002577093
0.0060133203 0.00853434 0.010914537 5.4595378e-12 0.0192085 0.0008768432 0.39702728 0.029886909
2.2334196e-12 0.009562944 1.055143e-12 0.06464601 0.0031228361 1.9142344e-12 0.001174607 0.011051019
0.00029026475 0.0013962813 0.016435081 1.0421629e-13 0.0005923513 0.0012427599 0.05903255 0.019169368
5.361912e-12 0.009134849 4.5672754e-13 0.0026394248 0.033148833 5.3281515e-11 0.01303847 0.0058583613
0.0028287997 0.0039584143 0.008574635 4.3488203e-12 0.030899543 0.0009826788 0.43570298 0.01910851
9.09337e-12 0.026707109 7.4123276e-13 0.07593654 0.010527774 2.428558e-12 0.0004785019 0.010840059
0.0016109612 0.003834704 0.0015166736 5.540643e-13 0.0040621543 0.026002377 0.0015757559 0.003928873
2.440287e-12 0.0064348346 1.8781952e-16 0.0014820641 0.00017290338 7.867855e-12 0.00024344695 0.00046200154
0.0050547887 0.006857029 0.031195024 3.947622e-12 0.030473974 0.00088056945 0.34373435 0.076006144
8.0779827e-13 0.019050064 7.4921785e-13 0.04227802 0.006159262 3.6344107e-12 0.03378758 0.0052130534
0.00070518965 0.0077103814 0.00018927222 1.0469057e-10 0.0017109468 0.058727607 0.00090381375 0.002135513
1.4891631e-10 0.008127241 3.379517e-14 0.00031747387 5.1421834e-05 1.3390018e-11 3.2463082e-05 0.0003729032
0.0012818062 0.000348882 0.0051942538 3.136477e-12 0.00054531766 0.007006339 0.022447396 0.011585884
1.3484598e-11 0.0025088654 5.7430146e-13 0.0051320237 0.0017173903 1.0962143e-11 0.0005515826 0.00012604878
0.0004763031 0.009267687 0.0026020892 2.3163296e-12 0.004648002 0.055700634 0.0013637407 0.003477494
6.268311e-12 0.0019838577 2.2707046e-11 0.0010538874 5.5709523e-05 1.0348976e-12 0.00011400909 5.60442e-05

exp_avg f4 [10]
00000000: 164a 4ebc eda3 55bc 1d05 943c 8a89 943b
00000010: c0f8 773c 5cdd 243c d795 ecbc c17a cb3a
00000020: 7f39 163c 8068 83bb
-0.012590906 -0.013039571 0.018068844 0.0045329975 0.01513499 0.010062542 -0.028880043 0.0015524254
0.009168982 -0.00401026

exp_avg_sq f4 [10]
00000000: 1811 ca3a 047b 053a 90af 143b 1a89 b33a
00000010: 7359 1c3b 3dc0 323a a781 2c3b 7f09 313a
00000020: 10a6 c239 fa73 033a
0.0015416471 0.0005091878 0.0022687651 0.0013697476 0.0023857027 0.0006818807 0.0026322396 0.0006753429
0.0003712629 0.0005014535
