course/week2/monitor_project/checkpoints/model0.ckpt (torch, 598142 bytes, 9 tensors)

model.0.weight f4 [64, 768]
000000 7b c3 44 3e 2f 6b 95 3c 82 f1 db bc 6b 33 84 3d
       0.19215195 0.018239586 -0.026848558 0.0645512
000010 14 fc 0f bd f7 2d 8b bc 97 9d 0f 3d da 6e 18 3e
       -0.03515251 -0.016989691 0.0350624 0.14886037
000020 ee c2 83 bd fd 0a e8 bc 10 c9 9c bd dd b9 97 be
       -0.06433664 -0.028325552 -0.07655537 -0.2963399
000030 5e f8 86 3d d1 94 bc 3c 6d b9 c1 3d 69 a5 13 3d
       0.06590341 0.02302018 0.09459195 0.03604642
000040 fe 7e 53 bd cd b3 01 bd 64 c2 67 bd 22 37 1a be
       -0.05163478 -0.031665612 -0.05658187 -0.15060094
000050 e6 df 38 3b 9b 7f b2 3e 89 12 a6 3c d4 0e 50 bd
       0.0028209626 0.3486298 0.02027251 -0.05079539
000060 bb 61 92 bd 7c c4 07 3e cd 4a 18 3e 72 a3 b8 be
       -0.07147547 0.13258547 0.14872284 -0.360622
000070 ad 3e b8 3b 1a 50 9f bc 4a 0f a8 bc cf 8f 0c be
       0.005622706 -0.019447375 -0.020515103 -0.13726734
000080 73 89 23 3e 26 e4 1e bd 98 a4 33 ba d3 00 e3 bd
       0.15970401 -0.038791798 -0.00068528345 -0.110841416
000090 86 1e 6f bc 17 6d 30 3e 38 10 b9 bd 47 4d 02 bc
       -0.01459468 0.17229114 -0.090362966 -0.007952995
0000a0 7e 04 dd bc 85 58 fe 3b 31 89 9a 3c 13 b7 f9 bd
       -0.026979681 0.007762017 0.018864246 -0.12193122
0000b0 9e 5a 19 3e 60 5f 42 bd 86 39 e2 3c c4 92 07 3e
       0.14975974 -0.047454238 0.02761532 0.1323958
0000c0 b3 17 d5 3a 73 3d 1d be 6f 45 01 3d 73 9d ac 3d
       0.0016257673 -0.15355472 0.031560358 0.084284686
0000d0 bf 54 5a bd 5a ed dd 3c 7a e5 69 bd 82 25 f4 3d
       -0.053303476 0.027090717 -0.05710361 0.119212165
0000e0 82 cd b5 bc c3 f3 12 3d be 13 b9 3d 0d b4 04 3e
       -0.02219272 0.035877 0.09036969 0.12959309
0000f0 e4 65 62 be f7 e6 9a bd 1f 64 00 3e 68 48 93 be
       -0.2210918 -0.07563584 0.12538193 -0.2876618
000100 98 12 5d 3d 27 49 de 3d b8 b1 0b be 0b b8 cd 3c
       0.05397281 0.108537965 -0.13642013 0.025112173
000110 78 10 26 3d d2 98 4d 3d 83 54 35 3d 62 34 03 3d
       0.04054305 0.05019457 0.04427005 0.032032378
000120 a1 00 4a bd d9 95 6c bc b8 16 d7 bc 32 d3 dc bd
       -0.049317006 -0.014440023 -0.02625595 -0.1078247
000130 ee ab 2b 3c 47 9c d1 3c 17 69 0f 3d 42 ef 96 bc
       0.010478003 0.025587214 0.03501233 -0.018424634
000140 2b ad 41 be 94 fa 55 3d 7f 29 89 bd 8f 91 d0 3b
       -0.18913715 0.052240923 -0.06697368 0.006365008
000150 35 de 89 bd 78 6c 53 be 89 f9 7b 3d 52 c8 ad 3d
       -0.06731836 -0.20646846 0.061517272 0.08485474
000160 66 96 8d bd d6 c1 ae 3d fa f2 25 bc ab 0d d0 bc
       -0.06913452 0.08533065 -0.010128731 -0.025397142
000170 bd 73 83 3d 15 66 01 bd f0 b6 60 bd 2b cc ec be
       0.0641856 -0.031591494 -0.054861963 -0.46249518
000180 cc c1 14 3f ac 15 2c bd ee 5b ae bc 08 36 fa 3c
       0.5810821 -0.042012855 -0.02128407 0.030543342
000190 8c a4 8f be 4e 93 20 3d 27 1d 8a bc e0 48 83 bd
       -0.28055227 0.03920298 -0.016859604 -0.06410384
0001a0 64 42 8f bd bd c2 2b bd 81 ae 30 3e e6 b3 13 3d
       -0.06995085 -0.041933764 0.17254068 0.036060236
0001b0 8c 6c 80 be e9 ab 3e 3d ef 64 05 bc 29 08 91 3c
       -0.25082815 0.046550665 -0.00814174 0.017704086
0001c0 72 fd 9a bc fd 97 ae 3e e2 00 20 3d c4 65 1d 3e
       -0.01891968 0.34100333 0.039063342 0.15370852
0001d0 84 64 d8 3d bc a9 8e bd 76 8c 87 3c ff 02 1c bc
       0.10566047 -0.06965968 0.01654647 -0.009522199
0001e0 fd dc 09 3e d5 ae f8 bc a9 48 ab bd 6b b1 16 3d
       0.13463207 -0.030356804 -0.08363468 0.036790293
0001f0 9f ec d3 3c ba 98 67 bc 59 9a 06 bc b7 94 b8 3b
       0.025869666 -0.014135534 -0.00821551 0.0056329626
000200 09 e3 97 3d 07 3d 94 3d 5a 5f 1d bd de 7f d0 bd
       0.074163504 0.072382025 -0.038421012 -0.10180639
000210 85 b0 06 bd 71 ae ab 3c e6 14 ac bc 9a 89 9b 3d
       -0.032883186 0.020957204 -0.021006059 0.07594605
000220 83 18 f5 be 5d 2e 7d bd 62 10 e9 bb 53 03 a5 bc
       -0.47870263 -0.061811794 -0.0071125487 -0.020143187
000230 7a 82 ac bd 53 be c3 3b a6 63 99 3e e6 f8 e5 bd
       -0.08423324 0.005973616 0.29958838 -0.11229114
000240 c5 2f e4 3b 2a e8 51 3d b1 d2 84 3d 6a a8 ef bc
       0.0069637024 0.0512468 0.06485499 -0.02925511
000250 50 bc 33 bd 4a 32 f1 3c e2 fd 3f be fa 8c c3 3c
       -0.04388076 0.029442925 -0.18749192 0.023870934
000260 60 51 ed bd 0b 44 5a 3c 6a e1 43 3d 3c d5 b9 bd
       -0.11587787 0.013321887 0.047822393 -0.09073874
000270 ef 2f 81 be a7 a3 85 3d 10 42 37 3e d6 49 7f bd
       -0.25231883 0.06525355 0.17896295 -0.062326275
000280 e6 ca b0 bc f7 b4 37 be d4 98 a0 bd d8 db 15 3d
       -0.021581125 -0.17940126 -0.0784165 0.036586612
000290 4b b5 28 3c 6b 84 8d 3d bb 3b 45 bf 22 15 9e be
       0.01029713 0.06910022 -0.77044266 -0.30875498
0002a0 d7 45 7a be 0e 0f e7 3a 7f df 7e 3d 5a 3b 38 bc
       -0.24440704 0.0017628388 0.06222486 -0.011244619
0002b0 f0 cb 4a be 3a bf 6c bd 61 91 75 3c b4 a2 13 3c
       -0.19804358 -0.057799555 0.014988274 0.009010959
0002c0 64 2e b0 bd 9a 70 0e 3c 4f d6 2e bd 8e 6c 62 bd
       -0.08602598 0.0086938385 -0.04268485 -0.055279307
0002d0 5c 66 45 3f c0 ac a4 3c af 60 9d be 6c 31 e9 bd
       0.77109313 0.020101905 -0.30737826 -0.113863796
0002e0 c2 77 03 bd 7c 2b b2 bb 9d a5 dd 3c a9 ef 4a 3e
       -0.03209663 -0.0054373126 0.02705651 0.19817986
0002f0 8e c0 de bd 13 c3 05 3d 10 8d cf bd 7f de 9a bc
       -0.10876571 0.03265674 -0.101343274 -0.018904923
000300 f3 0f b0 bd b2 a7 b4 bc 42 8c b4 bd 6e 42 b5 3c
       -0.08596792 -0.02205262 -0.088158146 0.022126403
000310 fe 0e 51 3d 03 46 83 3d bc 45 c6 bc 30 ed f8 bd
       0.05103969 0.06409838 -0.024203174 -0.12154615
000320 50 7d 10 ba a0 ef ce ba 38 2f d5 bd 7a ec bf bd
       -0.0005511837 -0.0015787967 -0.10409397 -0.09371276
000330 6b f2 46 3d 0d 44 02 3e ef f0 8c bd d7 67 ab bd
       0.04857103 0.12721272 -0.06881892 -0.08369415
000340 6b 21 95 3d 4b 4b 07 3d ae d8 0e be 1b f1 73 3a
       0.072817646 0.03303079 -0.13949844 0.0009305642
000350 52 6b 49 bd e2 8e 82 3e 36 ab ba bd 46 ae 16 bc
       -0.049174614 0.25499636 -0.09114687 -0.009196823
000360 ea ae ad 3c 38 7e 8d bd e5 48 0a be 46 04 cf bb
       0.02120157 -0.0690884 -0.1350437 -0.006317648
000370 6f 30 cb 3c 47 36 84 3d 14 50 0c bd 36 93 1a bd
       0.024803368 0.06455665 -0.034256056 -0.037738048
000380 49 18 4e bd 2d 6d 8a bd c9 c5 9e 3c cd 4e 65 bd
       -0.05031613 -0.06759105 0.01938142 -0.055983353
000390 6d c8 b6 bc 1a 41 d8 bc 05 f2 07 be 59 c6 38 3d
       -0.022312367 -0.02639823 -0.13275917 0.045111034
0003a0 2b 21 03 be 03 ae 2c bd 0c c8 e6 bb 68 dd be 3c
       -0.12805621 -0.042158138 -0.0070428904 0.023298934
0003b0 84 19 a8 3d 4b ab eb 3c 9d 5d a6 bd ef 87 49 3d
       0.08207992 0.028768202 -0.08123324 0.049201902
0003c0 69 07 a4 3c ed c3 39 be cf b0 00 3d 4a e0 a4 bd
       0.020023065 -0.18141146 0.031418618 -0.08050592
0003d0 a7 c6 8b 3d 77 2e f0 bd 32 21 09 be 16 57 ee 3c
       0.06824999 -0.117276125 -0.1339157 0.02909426
0003e0 52 49 39 3e df d4 5c ba ce 71 f8 bd ed a3 c6 3c
       0.18094376 -0.0008424054 -0.121310815 0.024248088
0003f0 2a 88 ac ba 45 43 91 3b 33 31 7c bd b5 09 ea 3c
       -0.0013163139 0.004433068 -0.061570358 0.028569082

model.0.bias f4 [64]
000000 3b 1b 51 bc 34 89 62 3c 1a 00 72 3c d9 c5 12 3b
       -0.01276284 0.013826657 0.014770532 0.0022395758
000010 4c e2 83 3c bb c5 6e 3c fb fb 0f 3b 12 1d 88 bc
       0.016099118 0.01457351 0.002197026 -0.016615424
000020 81 d7 34 bd 52 3e 4d 3c 28 62 92 bc cd ae d5 bc
       -0.044150833 0.012527065 -0.01786907 -0.026084328
000030 f6 af 9d bc 59 43 04 bd e8 c9 2f 3d 2b 72 77 3c
       -0.019248944 -0.03229079 0.042917162 0.015102903
000040 40 b4 0d 3c f9 21 e4 3b 9b b7 aa bc 56 51 02 bd
       0.008648932 0.0069620577 -0.020839503 -0.03181585
000050 10 d4 17 3d 7e 15 f2 ba 8c ae b9 ba c0 f0 c7 3c
       0.037067473 -0.001846954 -0.0014166399 0.02440679
000060 a7 67 91 3c 0a 39 9c 3a c6 33 a8 bc 0e 39 37 bc
       0.01774962 0.0011918854 -0.0205325 -0.0111830365
000070 c0 79 4c bc b1 25 68 3b c0 36 e4 3c 1b 12 59 bb
       -0.012480199 0.0035422856 0.027858138 -0.0033122364
000080 6d d7 4c bb 5d 53 43 3c 0a 10 95 3b 82 6b 56 bc
       -0.0031256333 0.011921731 0.004549031 -0.013087155
000090 44 54 a2 bb 35 2a 6e ba da e2 19 bd 6e bc bc 3b
       -0.004953893 -0.0009085269 -0.037569858 0.0057597673
0000a0 09 16 1d 39 4b 4e da 3c f4 71 11 3c 95 1a d9 bc
       0.00014980896 0.026648661 0.008877266 -0.026501933
0000b0 25 96 e1 bb cc 76 a2 3b 8e eb 85 3c 45 87 13 bd
       -0.0068843537 0.0049580093 0.016347673 -0.036017675
0000c0 38 4b 51 bc 3e b7 92 3b d6 da 38 3d 43 41 b2 bc
       -0.012774281 0.0044774106 0.045130573 -0.021759635
0000d0 8f 28 b3 bc fe dc f5 bc e4 06 09 3d 2d 07 c2 39
       -0.021869926 -0.030012604 0.033453837 0.0003700791
0000e0 6f 0a 17 3b 3c 30 e0 bc 92 6e b3 bc a1 e3 8b bb
       0.002304699 -0.02736675 -0.02190331 -0.004269079
0000f0 3d 56 2f 3c f6 df 05 3c d8 a2 f8 bc 83 e2 ff bc
       0.010701713 0.008171072 -0.030351087 -0.031235939

model.2.weight f4 [1, 64]
000000 7c 3e 75 bf 48 13 8a 3f 26 a4 6f 3f 06 4c 8d 3f
       -0.9579847 1.0787134 0.93609846 1.1038826
000010 94 44 06 bd e8 f3 01 3d 12 46 8a 3f 8f 46 9a 3d
       -0.032780245 0.031726748 1.0802634 0.07532989
000020 dc 7f 88 3f 21 42 58 bf 98 53 63 bf c2 6a 85 3d
       1.066402 -0.84475905 -0.8879943 0.06514503
000030 78 d2 f2 bd a8 7f e0 3c 3e ab 56 bf 5a b5 54 3d
       -0.1185655 0.027404621 -0.83855045 0.051930763
000040 40 f4 8b bc d2 27 a9 bd 3d 5e 65 3f d8 f8 9c bc
       -0.01708424 -0.08259548 0.8959692 -0.019161627
000050 3e fb 71 bf 7c b7 63 bf b0 86 9a 3d de cb 83 3f
       -0.9452399 -0.8895185 0.07545221 1.029659
000060 a5 75 2f bd ef c3 1e 3d 9c 6f 8f 3c a4 e8 83 3f
       -0.042836804 0.038761076 0.017509274 1.0305371
000070 3c 60 28 bd de e4 d5 3d 04 c1 11 bd b3 a1 83 bf
       -0.0411074 0.104440436 -0.035584465 -1.0283722
000080 88 3a 82 bc 67 66 5e bf 42 2c 8a 3f 03 95 6c 3d
       -0.01589705 -0.86875004 1.0794756 0.057759296
000090 d7 ea 7b 3d 3c 59 75 3d 75 d2 47 3f 35 af 74 bf
       0.061503258 0.059899554 0.78055507 -0.95579845
0000a0 17 d8 48 3d 4d 91 52 bf fe cd bb 3c 53 3d f8 3d
       0.049034204 -0.8225296 0.022925373 0.12121072
0000b0 38 39 52 3d bd ea 85 3f 96 dd f1 bd b8 4f f5 bc
       0.0513241 1.0462261 -0.11809842 -0.02994524
0000c0 3e ad 77 3f 07 c7 94 3f ee 5d 74 bf 6d 06 bf 3d
       0.9674872 1.1623238 -0.95455825 0.093273975
0000d0 4c 3b c5 bd bc fc 70 3d dc 19 5b 3d d8 fb d0 3d
       -0.096304506 0.058834776 0.05349146 0.102042854
0000e0 b9 9b 93 3f 00 42 45 3b 62 53 80 bf 85 c6 6b bf
       1.1531898 0.0030099154 -1.0025446 -0.9209979
0000f0 46 fa 61 bf 20 c3 42 3d a0 51 07 3c 2c d3 fb bd
       -0.8827251 0.047549367 0.008259207 -0.12296137

exp_avg f4 [64, 768]
000000 c7 d3 e0 b7 f2 99 fe 39 1d 7a 19 3a e6 50 52 39
       -2.6801497e-05 0.00048561353 0.0005854683 0.00020057298
000010 f8 22 c1 b9 b3 d4 11 ba b0 5c 41 ba 4c fc 0f 39
       -0.00036837882 -0.00055630057 -0.0007376177 0.0001373153
000020 be 9f d5 38 e3 33 f3 39 7f 9a 0c ba 75 77 c5 38
       0.00010186386 0.0004638723 -0.0005363598 9.4159426e-05
000030 e0 f9 47 38 88 df 70 b9 04 57 da 39 80 27 a1 ba
       4.767801e-05 -0.00022971455 0.00041645032 -0.0012295097
000040 30 ad ef b9 8d e8 94 3a 1c 61 3b b9 ed 88 12 39
       -0.00045714667 0.001136081 -0.00017869886 0.00013974654
000050 85 29 f5 39 5c 03 61 b9 c8 91 98 ba 11 80 16 ba
       0.00046760976 -0.00021458924 -0.0011640126 -0.0005741129
000060 c7 ae a9 b9 d7 2f 16 b9 a0 19 d3 39 67 e0 27 39
       -0.0003236441 -0.00014322936 0.00040264148 0.00016009957
000070 54 a4 a9 b9 fb a5 24 ba 9d a7 37 ba 3f ef e5 b8
       -0.00032356626 -0.00062808365 -0.00070058723 -0.00010964134
000080 38 a2 5c b9 7c d5 ed b9 bc 28 34 3a b6 98 15 b9
       -0.00021041266 -0.0004536322 0.0006872525 -0.00014266637
000090 f1 24 29 3a 8a 9d 69 b9 18 99 f5 b9 7f 65 08 3a
       0.0006452343 -0.000222793 -0.00046844105 0.00052031124
0000a0 5e bf 0c 39 62 95 f7 b9 b8 3f 08 ba a6 86 a5 39
       0.0001342273 -0.0004722281 -0.0005197483 0.00031571573
0000b0 73 47 83 39 ef 24 81 ba a7 23 32 ba 57 2a 1b 37
       0.000250395 -0.0009852926 -0.0006795474 9.248578e-06
0000c0 68 7a 4c 39 0c 11 91 39 8b f6 64 3a da 56 63 ba
       0.00019500556 0.00027669256 0.00087342475 -0.00086723047
0000d0 03 bf 41 ba 23 db 11 ba c8 5e 8e 38 1d 61 00 b9
       -0.00073908287 -0.0005563965 6.788742e-05 -0.00012243209
0000e0 fd a5 aa 39 75 b7 36 ba 2a d1 ec 37 c6 17 a7 38
       0.00032548598 -0.0006970086 2.8230792e-05 7.967609e-05
0000f0 33 6b 87 39 de 25 de 39 1b e2 61 b8 5f 4b 63 39
       0.00025829076 0.00042371353 -5.3854757e-05 0.00021676485
000100 f7 85 8e 38 a0 73 a6 39 59 0a 99 b8 29 19 8c 39
       6.7960405e-05 0.00031748135 -7.297536e-05 0.00026721627
000110 2b d2 b0 39 eb 9c 52 b9 0b 35 3e 39 30 9f a9 b9
       0.00033725923 -0.00020085617 0.00018139572 -0.00032352796
000120 0a 8d 02 ba 55 e0 48 3a bf 92 43 3a ba 74 12 b9
       -0.0004980123 0.00076628226 0.00074605265 -0.00013967129
000130 33 6f b8 3a 24 c1 9f 39 d8 4e 53 ba 1c c1 80 ba
       0.0014071226 0.00030470744 -0.000806076 -0.0009823176
000140 c4 f0 4b 39 7f 69 0d ba ff 47 79 b9 8b 17 12 ba
       0.00019449281 -0.0005394443 -0.00023773311 -0.0005572966
000150 13 18 75 38 ee 74 ae 38 38 00 bd 38 08 01 9a 39
       5.8434973e-05 8.3187464e-05 9.012263e-05 0.00029373937
000160 0e c6 ce b9 ae cb 40 ba c1 dc 28 3a 48 e7 6f 3a
       -0.00039438944 -0.00073545694 0.00064415863 0.000915159
000170 20 ce a3 b9 e5 c3 da 37 b4 cc 95 39 35 1a 64 38
       -0.00031243358 2.6078846e-05 0.0002857201 5.4383843e-05
000180 80 35 97 38 44 7f 8a 39 fd 7d ed 39 49 a5 fd 39
       7.210206e-05 0.0002641623 0.0004529803 0.00048379067
000190 9b b9 02 b9 0f e0 09 3a 69 46 93 39 ba 29 2e ba
       -0.0001246691 0.00052595226 0.00028090485 -0.0006643791
0001a0 f2 cd 0e 39 42 7a f7 39 67 4f 0d 38 08 a7 42 ba
       0.00013618896 0.000472026 3.369097e-05 -0.00074254023
0001b0 14 25 26 b9 89 12 42 39 ef 9f da 39 39 3c 86 ba
       -0.00015844806 0.00018508187 0.0004169936 -0.0010241336
0001c0 dd 14 47 ba 88 8d eb 38 b4 16 36 b8 aa 8f db b9
       -0.00075943564 0.000112320355 -4.3413325e-05 -0.00041877973
0001d0 3b 43 a5 b9 5b ca 58 3a 56 85 91 ba d8 d0 39 3a
       -0.00031521343 0.00082698994 -0.0011102359 0.000708831
0001e0 7f 84 a5 38 1f 95 53 39 b8 1d 91 b9 f2 e7 cd b9
       7.8924924e-05 0.0002017808 -0.00027678697 -0.0003927346
0001f0 32 6f 29 3a dd 41 1e ba c1 e1 ac b9 e8 f5 3e ba
       0.0006463408 -0.0006037036 -0.00032974596 -0.00072845677
000200 df ba d7 b9 23 5b c1 b9 9b 38 d1 38 1b df 21 b9
       -0.00041147225 -0.0003687973 9.97644e-05 -0.0001543727
000210 8f bf a1 39 72 88 b0 b9 40 d3 e9 b9 ee 2d 80 b9
       0.00030851035 -0.00033670996 -0.00044598617 -0.00024448283
000220 b4 6f de b8 77 ec 59 3a 06 d8 0a 3a f0 c4 18 ba
       -0.00010606591 0.0008313129 0.0005296472 -0.0005827686
000230 2c 16 43 ba 30 12 64 b9 36 25 92 37 33 b7 a4 b9
       -0.00074419635 -0.0002175055 1.7421884e-05 -0.00031417012
000240 8e 46 5e b9 6c 54 14 ba 4c 1c cd b9 3f 69 64 3a
       -0.00021197853 -0.0005658332 -0.0003912173 0.00087131927
000250 41 5f 32 b9 2e a9 52 ba 02 a7 4f b9 9e cd a1 b9
       -0.00017010888 -0.0008036074 -0.00019803274 -0.0003086151
000260 c5 4f cc 39 6e 22 66 3a 77 ae 20 3a 64 ed 8e 39
       0.00038969345 0.0008778934 0.0006129513 0.0002726122
000270 5a a9 22 b9 a8 16 4e 3a 82 ca 3f 39 5a 67 54 ba
       -0.00015512612 0.00078616524 0.0001829062 -0.0008102559
000280 96 83 23 b9 b9 4a 1c 39 4f 6e de 39 d4 f5 15 3a
       -0.00015593911 0.00014905156 0.00042425326 0.000572053
000290 3b 36 f1 38 58 09 43 39 58 1c db 37 c7 74 7a b9
       0.00011501877 0.0001860013 2.6120033e-05 -0.00023885361
0002a0 62 a7 80 39 87 cc 8b 3a c0 de 8d 39 9b da b5 3a
       0.00024538772 0.0010665812 0.00027059577 0.0013874354
0002b0 cd 93 ba 39 02 06 eb b9 61 76 54 3a 7b 0d 16 ba
       0.00035586805 -0.0004482717 0.0008104798 -0.00057240546
0002c0 40 af 2d 3a d7 cc b2 b9 d0 f5 69 ba 58 35 28 b8
       0.00066255406 -0.00034103423 -0.00089248735 -4.0104e-05
0002d0 18 28 7d 38 cb 32 03 3a 66 db 3c b8 54 e6 43 b9
       6.035724e-05 0.0005004822 -4.5027024e-05 -0.00018682453
0002e0 bb 52 50 ba b2 f5 2b ba 65 ea 76 3a 1b 06 71 b9
       -0.0007946898 -0.0006559744 0.0009419083 -0.00022985825
0002f0 42 75 7b b9 d2 f3 39 ba 6d 6f e4 b9 13 c3 e6 38
       -0.00023980907 -0.0007093522 -0.00043570568 0.0001100359
000300 0b 08 ae 39 0b 6a 83 b9 14 ac 20 3a c9 a3 e1 b9
       0.0003319386 -0.00025065275 0.0006129157 -0.00043037374
000310 9e 92 09 3a 0d 95 c8 b9 86 af 2c 3a 7f f9 0e 3a
       0.0005247983 -0.00038258024 0.00065874343 0.0005454048
000320 ea 96 3d ba 15 9e 76 3a a5 6b b2 37 4f c5 53 b9
       -0.0007232266 0.00094077113 2.126938e-05 -0.00020196031
000330 fb ba 2d ba 25 40 e5 b6 2c b0 c9 38 2f 10 4f 39
       -0.00066272885 -6.8321992e-06 9.6172414e-05 0.00019747087
000340 26 15 3e b9 2e 4d 1a ba 34 1a f0 b9 d8 02 8a 3a
       -0.0001812769 -0.00058861345 -0.0004579589 0.0010529412
000350 d7 3e 15 ba 28 9e 75 38 6e 37 1c 39 e8 8b 35 39
       -0.0005693263 5.8559846e-05 0.00014897969 0.00017313624
000360 ee 41 06 ba 7c 2a 20 ba 72 1e 04 b9 68 7d 73 3a
       -0.00051215186 -0.0006109846 -0.00012599843 0.00092884013
000370 c4 72 f3 39 2c 9d 9f b9 57 0e 49 ba bf 73 2f 3a
       0.0004643408 -0.00030443945 -0.00076696783 0.0006692968
000380 9c 57 b9 b9 15 ee 53 3a 00 6c 79 3a bc 32 95 39
       -0.00035351224 0.0008084488 0.00095146894 0.00028457295
000390 0f e4 19 ba 76 94 24 ba 6f fe ce b9 3e 69 24 3a
       -0.000587047 -0.0006278226 -0.0003948095 0.0006271786
0003a0 48 6f 90 b9 8e 65 ac 39 fc f5 8f 3a c1 a4 67 3a
       -0.0002754873 0.0003288206 0.0010983343 0.0008836501
0003b0 43 70 a2 39 be fe 23 ba 3c 1d ba b9 fb cf dc b9
       0.0003098269 -0.0006255916 -0.00035498466 -0.00042116627
0003c0 6c 54 2a ba 75 e0 b3 38 a7 66 8f b9 2f 38 b0 b9
       -0.0006497565 8.5771935e-05 -0.00027351567 -0.00033611196
0003d0 4f c9 e5 b9 0d 53 cc 39 64 74 f8 b9 c5 c4 66 3a
       -0.0004382827 0.0003897179 -0.00047388964 0.00088031247
0003e0 1f 28 8f 38 05 c0 3b 3a 38 05 17 3a f9 67 ee 39
       6.8262445e-05 0.0007162097 0.00057609705 0.00045472363
0003f0 44 bf 88 ba d8 98 0b 3a 49 16 16 ba 60 3b 83 ba
       -0.0010432978 0.00053252047 -0.00057253666 -0.0010012202

exp_avg_sq f4 [64, 768]
000000 28 e0 df 33 46 47 7b 38 25 71 89 38 42 c9 1c 37
       1.04250205e-07 5.9909442e-05 6.553744e-05 9.345184e-06
000010 4d 33 db 37 ea b7 7e 38 0f c0 bd 38 5c 9b db 36
       2.6130723e-05 6.0729602e-05 9.047996e-05 6.544795e-06
000020 cb b1 23 37 d8 ac 21 38 7e e5 bf 38 b4 ab 09 34
       9.756953e-06 3.8546365e-05 9.150336e-05 1.2821585e-07
000030 17 a2 5f 37 37 a3 9d 37 ea 8e 02 38 a2 45 a6 39
       1.3329575e-05 1.8791861e-05 3.1127514e-05 0.00031713868
000040 92 bd 75 38 09 56 ac 39 5c d2 8b 36 b5 d5 08 35
       5.8589103e-05 0.00032870498 4.167012e-06 5.097493e-07
000050 6d 09 d0 38 55 e9 de 36 dd f6 a0 39 6e f6 19 39
       9.9199686e-05 6.643279e-06 0.00030701506 0.00014683019
000060 51 24 aa 37 d0 94 3f 36 fe 05 fe 37 99 d3 82 34
       2.028249e-05 2.8547838e-06 3.028195e-05 2.4368344e-07
000070 e8 ed 14 38 6b 11 a5 38 42 59 01 39 17 13 0d 36
       3.5507517e-05 7.8710575e-05 0.0001233565 2.102175e-06
000080 69 c0 84 37 1f 0f b9 38 ea 9d b2 38 60 5e d5 36
       1.5825224e-05 8.824304e-05 8.517115e-05 6.3588814e-06
000090 5d 7f 12 39 20 6c a6 34 ab 1c de 38 66 e5 72 38
       0.00013971092 3.099858e-07 0.00010591125 5.791094e-05
0000a0 bb 48 1e 37 53 98 3b 38 33 39 5d 38 87 90 fe 37
       9.434468e-06 4.4726137e-05 5.2743777e-05 3.034646e-05
0000b0 fa 5a 57 37 2d 9b 6c 39 5e e4 be 38 bc 52 7f 35
       1.2836181e-05 0.00022564521 9.102443e-05 9.5115297e-07
0000c0 ad 13 ee 37 b4 e3 47 37 bd a8 23 39 4d 6b 38 39
       2.8380973e-05 1.1914341e-05 0.00015607751 0.0001758758
0000d0 b3 3c 0a 39 0a 63 5a 38 60 bd ec 35 0f 50 67 36
       0.00013183318 5.2067488e-05 1.7638486e-06 3.4468283e-06
0000e0 5d ad 94 37 6c fa bf 38 1b b7 b9 36 e3 34 40 37
       1.7723703e-05 9.1542344e-05 5.534746e-06 1.1456405e-05
0000f0 61 3f a1 37 f2 bd 7e 38 08 bf 21 34 4a 4f 64 36
       1.9222209e-05 6.073522e-05 1.506379e-07 3.40208e-06
000100 d2 76 61 35 1c d4 dc 37 3f b3 4f 37 95 ba fa 37
       8.399194e-07 2.6324815e-05 1.2379895e-05 2.9889206e-05
000110 1e f7 e9 37 c4 93 89 36 88 02 65 37 3e d2 02 38
       2.7890837e-05 4.1001203e-06 1.3650053e-05 3.119022e-05
000120 8c 2e 2e 38 4a 68 0a 39 3b be f4 38 89 2c c5 36
       4.1528183e-05 0.00013199556 0.0001167026 5.876242e-06
000130 8a b8 01 3a 68 82 8c 37 1b 5c 0a 39 b9 8d 83 39
       0.0004948458 1.6750026e-05 0.00013195018 0.0002509186
000140 73 ff 1f 37 1e 06 89 38 a2 d1 bc 35 af 9a 88 38
       9.536615e-06 6.5338085e-05 1.4068103e-06 6.5137974e-05
000150 ab db 8d 35 d5 3a 6c 36 ec 9e bc 35 10 21 d7 37
       1.056925e-06 3.5200985e-06 1.4053344e-06 2.5645393e-05
000160 cf 83 25 38 26 1f c1 38 59 03 70 38 e3 f7 6a 39
       3.9461822e-05 9.208759e-05 5.7223577e-05 0.00022408324
000170 c3 e7 06 37 c4 ca e3 34 ff e0 6d 37 55 8b 71 35
       8.040984e-06 4.2429576e-07 1.4178687e-05 8.998225e-07
000180 22 70 78 35 fe e4 3a 37 43 55 39 38 25 a7 2d 38
       9.2550374e-07 1.113978e-05 4.4186843e-05 4.140208e-05
000190 a5 b8 c7 36 3d 67 b9 38 de 9f 06 38 ed b3 c0 38
       5.9521576e-06 8.840717e-05 3.2096978e-05 9.188787e-05
0001a0 5d 8d 84 34 f8 7f 5e 38 e4 4c 29 34 53 90 08 39
       2.468977e-07 5.3048105e-05 1.5767324e-07 0.00013023736
0001b0 60 6b bd 36 03 66 98 37 11 c8 47 38 c1 0e 8f 39
       5.645139e-06 1.8167315e-05 4.7631624e-05 0.00027286078
0001c0 d5 1b 1c 39 0c ed 32 35 3b 8c 0d 35 00 05 28 38
       0.00014887688 6.6655116e-07 5.2730655e-07 4.0058978e-05
0001d0 6e cb fb 37 bc dd f8 38 27 76 8b 39 c4 e6 08 39
       3.0016261e-05 0.00011866863 0.00026600176 0.00013055938
0001e0 d1 4d 4a 34 ee 01 34 37 78 a0 b2 37 63 78 54 38
       1.8841025e-07 1.0729285e-05 2.1293978e-05 5.0656858e-05
0001f0 bb 5a 94 38 5a 42 d2 38 c7 72 e0 37 32 9f e7 38
       7.07409e-05 0.00010025939 2.6756328e-05 0.00011044591
000200 0a f1 39 38 47 96 87 37 16 c8 fc 35 92 b2 aa 37
       4.4331922e-05 1.6163232e-05 1.8833696e-06 2.0348733e-05
000210 3a 67 ab 37 63 0c 01 38 54 7a ab 38 3a ac 8b 37
       2.0432857e-05 3.0767533e-05 8.176701e-05 1.665029e-05
000220 eb 6f 72 34 2b 7e 1e 39 40 7a 9e 38 a7 1e d7 38
       2.2578722e-07 0.00015115055 7.556798e-05 0.00010257708
000230 f5 85 21 39 45 ac f5 37 cd be 86 36 14 d2 5c 38
       0.0001540406 2.9286495e-05 4.0157233e-06 5.2647738e-05
000240 8e 32 62 37 c7 74 97 38 29 a0 b9 37 d4 bd 6b 39
       1.348242e-05 7.2219926e-05 2.2128299e-05 0.00022482063
000250 18 61 ae 36 e0 38 33 39 6a 0d 49 37 b3 24 f5 37
       5.1969073e-06 0.00017091958 1.1983657e-05 2.9223365e-05
000260 36 3f a5 37 15 9c ec 38 2c 10 d3 38 3e 83 80 37
       1.9698968e-05 0.000112824295 0.00010064276 1.5319903e-05
000270 70 34 a8 35 d1 ac 1d 39 f8 ec 99 37 40 69 42 39
       1.2532237e-06 0.00015037066 1.8349368e-05 0.0001854049
000280 99 b2 9f 36 33 39 c4 35 c8 81 38 38 d7 7c 83 38
       4.7593608e-06 1.4619785e-06 4.3989887e-05 6.26982e-05
000290 cd b1 8d 35 6b 55 ce 37 24 c9 cb 34 0e 01 65 37
       1.0557065e-06 2.459689e-05 3.7958046e-07 1.3649709e-05
0002a0 1d ee bd 36 55 46 8b 39 80 02 a8 37 69 b2 d5 39
       5.660359e-06 0.00026564547 2.0028325e-05 0.00040759452
0002b0 9d e0 8c 37 e2 58 6c 38 86 fe 19 39 63 75 dd 38
       1.6793894e-05 5.6349563e-05 0.00014686034 0.00010559966
0002c0 2d 52 e8 38 53 c9 70 37 7e 7e 6f 39 5b b7 0c 36
       0.000110779285 1.4351989e-05 0.00022839938 2.0968353e-06
0002d0 a2 95 1f 34 df 8a 77 38 8c 9f 4e 35 e3 f3 26 37
       1.4862465e-07 5.9018723e-05 7.697315e-07 9.951155e-06
0002e0 3c 2c 0d 39 5a 83 d0 38 74 18 68 39 b0 d1 72 37
       0.00013463286 9.942679e-05 0.00022134354 1.4473146e-05
0002f0 d3 3e db 37 9a 04 de 38 9d 5f cb 37 64 b1 b2 36
       2.613609e-05 0.00010586642 2.424401e-05 5.3254644e-06
000300 e4 3c bd 37 28 09 da 37 36 ec 87 38 9e ca 2b 38
       2.255891e-05 2.5991889e-05 6.481299e-05 4.095828e-05
000310 9b 85 96 38 d7 3d 43 38 5a 4a b3 38 fd d0 87 38
       7.177443e-05 4.6549216e-05 8.549234e-05 6.476229e-05
000320 9e ab 0a 39 4d d8 7d 39 82 8e 3f 36 f9 9b f9 36
       0.00013224638 0.00024208539 2.8544168e-06 7.438936e-06
000330 95 a0 c2 38 c9 81 f4 34 e1 99 6a 36 e1 0a 6e 37
       9.2805516e-05 4.5542973e-07 3.4958287e-06 1.4188438e-05
000340 0e dc ea 37 ba 3e 43 38 cb 71 ba 37 05 4e 6d 39
       2.7997445e-05 4.655004e-05 2.2225917e-05 0.00022631146
000350 4d 5c e7 38 fd db 74 34 09 a8 33 36 e7 a2 a9 36
       0.00011032131 2.2804302e-07 2.6770888e-06 5.055557e-06
000360 31 b7 39 38 34 cf ad 38 17 95 44 37 f7 33 4e 39
       4.4278047e-05 8.2878774e-05 1.1717223e-05 0.0001966505
000370 a7 43 f4 37 3e b9 03 38 0c b9 ef 38 7d 7f ae 38
       2.911857e-05 3.1405354e-05 0.00011430876 8.320713e-05
000380 a3 ab 2f 38 aa 15 0b 39 60 8e 7a 39 3a 7e a2 37
       4.18831e-05 0.00013264143 0.00023894897 1.9370684e-05
000390 5b f3 92 38 42 3c 84 38 04 82 11 38 5e f0 e9 38
       7.007151e-05 6.3054744e-05 3.469178e-05 0.00011155078
0003a0 07 41 1f 38 7b ff d6 37 23 ce 88 39 7f aa 43 39
       3.7969116e-05 2.5629755e-05 0.00026093525 0.00018660164
0003b0 a0 1f a8 37 91 8d cd 38 47 b2 22 38 fe 6f 23 38
       2.0041887e-05 9.8015305e-05 3.8789844e-05 3.896653e-05
0003c0 2b c4 b7 38 90 39 b3 35 b6 10 b5 37 c2 3b 0e 38
       8.762659e-05 1.3353292e-06 2.1584663e-05 3.3911092e-05
0003d0 7a 06 05 38 4d a7 ca 37 a2 18 42 38 c7 28 3e 39
       3.1715703e-05 2.4158182e-05 4.6276145e-05 0.00018135003
0003e0 75 a5 32 36 a5 5b f6 38 67 98 78 38 af ad 7e 38
       2.6620376e-06 0.00011747264 5.9269743e-05 6.0720075e-05
0003f0 8b 49 80 39 ce 4c b2 38 32 d3 9f 38 2c 7d 6a 39
       0.00024468856 8.5020074e-05 7.621049e-05 0.00022362609

exp_avg f4 [64]
000000 2b f1 20 bb 66 3c 13 3b 14 51 12 3b 34 b5 1f 3a
       -0.002455781 0.002246642 0.0022326158 0.000609237
000010 00 00 00 00 00 00 00 00 f1 86 a9 3a 04 00 00 00
       0.0 0.0 0.0012933892 6e-45
000020 80 61 be 3a a8 28 02 bb ca 24 14 bb 00 00 00 00
       0.0014524907 -0.0019860659 -0.0022604936 0.0
000030 00 00 00 00 00 00 00 00 c6 70 09 bb 04 00 00 00
       0.0 0.0 -0.002097176 6e-45
000040 00 00 00 00 00 00 00 00 6f 0c 0c 3b 00 00 00 00
       0.0 0.0 0.0021369716 0.0
000050 0f 44 1b bb 13 39 0d bb 00 00 00 00 e6 3b 28 ba
       -0.002369169 -0.0021548911 0.0 -0.0006417617
000060 04 00 00 00 04 00 00 00 04 00 00 00 c4 13 74 ba
       6e-45 6e-45 6e-45 -0.00093108066
000070 00 00 00 00 00 00 00 00 00 00 00 00 18 03 29 bb
       0.0 0.0 0.0 -0.0025789198
000080 00 00 00 00 8e b0 09 bb 77 75 bb 3a 04 00 00 00
       0.0 -0.0021009776 0.0014301975 6e-45
000090 04 00 00 00 00 00 00 00 8d 09 f4 3a 4d b4 1a bb
       6e-45 0.0 0.0018618569 -0.0023606003
0000a0 04 00 00 00 fe 75 05 bb 04 00 00 00 04 00 00 00
       6e-45 -0.0020364518 6e-45 6e-45
0000b0 04 00 00 00 7f 09 6a 39 00 00 00 00 00 00 00 00
       6e-45 0.00022319517 0.0 0.0
0000c0 72 38 17 3b 82 78 c7 3a f6 81 1e bb 04 00 00 00
       0.0023074416 0.0015218409 -0.002418635 6e-45
0000d0 00 00 00 00 00 00 00 00 04 00 00 00 00 00 00 00
       0.0 0.0 6e-45 0.0
0000e0 fa b0 10 3b 00 00 00 00 2d 0e 26 bb 42 06 17 bb
       0.0022078143 0.0 -0.002533804 -0.0023044501
0000f0 37 f6 0d bb 00 00 00 00 00 00 00 00 00 00 00 00
       -0.0021661648 0.0 0.0 0.0

exp_avg_sq f4 [64]
000000 93 41 b0 3a 85 1c cc 3a ab ff ab 3a e7 75 ce 3a
       0.0013447277 0.0015572464 0.001312246 0.001575169
000010 00 00 00 00 00 00 00 00 85 4a ad 3a 47 38 b7 28
       0.0 0.0 0.0013221061 2.0341488e-14
000020 77 42 d0 3a fa 2d 8a 3a 28 df 96 3a 00 00 00 00
       0.0015888949 0.0010542267 0.0011510598 0.0
000030 00 00 00 00 00 00 00 00 01 17 87 3a 75 6a 42 28
       0.0 0.0 0.0010306538 1.07922475e-14
000040 00 00 00 00 00 00 00 00 2d 22 9d 3a 00 00 00 00
       0.0 0.0 0.0011988335 0.0
000050 55 98 ab 3a 4d 5b 98 3a 00 00 00 00 de 8d ac 3a
       0.0013091663 0.001162389 0.0 0.0013164838
000060 5f c8 01 25 fd 4c c3 27 af 4f b4 23 41 0c 91 3a
       1.1256855e-16 5.4206843e-15 1.9549386e-17 0.0011066274
000070 00 00 00 00 00 00 00 00 00 00 00 00 b0 df ca 3a
       0.0 0.0 0.0 0.0015478041
000080 00 00 00 00 fd 37 92 3a 29 33 a1 3a bf 83 b1 27
       0.0 0.0011155602 0.0012298572 4.927021e-15
000090 2a 83 73 28 00 00 00 00 33 c6 6e 3a 95 16 b1 3a
       1.3517651e-14 0.0 0.00091085135 0.0013510758
0000a0 94 02 21 28 47 11 83 3a cb 28 1e 27 6c 1b 87 26
       8.937854e-15 0.0009999656 2.1949019e-15 9.37494e-16
0000b0 47 9e 5d 28 45 55 99 3a 00 00 00 00 00 00 00 00
       1.2302285e-14 0.0011698386 0.0 0.0
0000c0 69 bb b7 3a be 24 de 3a 1e e6 ae 3a 5f 65 09 29
       0.0014017645 0.0016948206 0.0013343727 3.0508036e-14
0000d0 00 00 00 00 00 00 00 00 99 d1 0c 29 00 00 00 00
       0.0 0.0 3.126804e-14 0.0
0000e0 10 a2 f4 3a 00 00 00 00 8c e0 c0 3a b7 f7 a2 3a
       0.0018664021 0.0 0.0014715358 0.0012433444
0000f0 d9 bb 96 3a 00 00 00 00 00 00 00 00 00 00 00 00
       0.0011500075 0.0 0.0 0.0

exp_avg f4 [1, 64]
000000 6b 2d 95 3a d8 56 fd b9 fd 14 9c 39 9a cf 17 ba
       0.0011381333 -0.00048320624 0.00029770276 -0.0005791128
000010 00 00 00 00 00 00 00 00 a3 c3 22 ba 04 00 00 00
       0.0 0.0 -0.0006208962 6e-45
000020 98 52 dc b9 26 c2 ab 3a 49 29 a1 3a 00 00 00 00
       -0.00042023207 0.0013104125 0.0012295629 0.0
000030 00 00 00 00 00 00 00 00 48 42 a5 3a 04 00 00 00
       0.0 0.0 0.0012608254 6e-45
000040 00 00 00 00 00 00 00 00 89 09 66 39 00 00 00 00
       0.0 0.0 0.00021938061 0.0
000050 15 dc 9c 3a 5e 72 b3 3a 00 00 00 00 2b 95 1f ba
       0.0011967445 0.00136907 0.0 -0.00060875964
000060 04 00 00 80 04 00 00 00 04 00 00 00 2f fc 1b ba
       -6e-45 6e-45 6e-45 -0.0005950359
000070 00 00 00 00 00 00 00 00 00 00 00 00 bd b2 9f 3a
       0.0 0.0 0.0 0.0012184005
000080 00 00 00 00 6d f8 a9 3a c6 55 0d ba 04 00 00 80
       0.0 0.0012967713 -0.00053915044 -6e-45
000090 04 00 00 00 00 00 00 00 bc e6 dd 39 ee 49 9d 3a
       6e-45 0.0 0.00042324315 0.0012000182
0000a0 04 00 00 00 1c 43 b0 3a 04 00 00 00 04 00 00 00
       6e-45 0.0013447735 6e-45 6e-45
0000b0 04 00 00 00 08 d6 05 ba 00 00 00 00 00 00 00 00
       6e-45 -0.00051054405 0.0 0.0
0000c0 8b 5e 8d 39 8c 5b 13 ba 1b 7b a0 3a 04 00 00 00
       0.00026964056 -0.00056212465 0.001224372 6e-45
0000d0 00 00 00 00 00 00 00 00 04 00 00 00 00 00 00 00
       0.0 0.0 6e-45 0.0
0000e0 92 3a 19 ba 00 00 00 00 92 a0 9b 3a 38 a6 a1 3a
       -0.00058452145 0.0 0.0011873415 0.0012332862
0000f0 9a 85 b0 3a 00 00 00 00 00 00 00 00 00 00 00 00
       0.0013467551 0.0 0.0 0.0

exp_avg_sq f4 [1, 64]
000000 ba 38 74 38 d5 d0 d8 37 8e 45 a6 39 04 1b ca 37
       5.8226964e-05 2.5846452e-05 0.0003171381 2.4092857e-05
000010 00 00 00 00 00 00 00 00 d8 d1 88 37 ad 60 6d 24
       0.0 0.0 1.631018e-05 5.147307e-17
000020 e9 cb 01 38 2d a6 e9 38 73 89 83 38 00 00 00 00
       3.0945903e-05 0.000111412584 6.272169e-05 0.0
000030 00 00 00 00 00 00 00 00 ee 5f 9f 38 09 01 19 29
       0.0 0.0 7.599579e-05 3.3973722e-14
000040 00 00 00 00 00 00 00 00 cb 74 8e 39 00 00 00 00
       0.0 0.0 0.00027171368 0.0
000050 8e f6 81 38 2d 74 ca 38 00 00 00 00 bd 44 a3 37
       6.197124e-05 9.65375e-05 0.0 1.9463123e-05
000060 cc 3c 08 21 92 cf f8 27 94 69 75 20 bb 44 68 37
       4.6159056e-19 6.9058876e-15 2.078724e-19 1.384428e-05
000070 00 00 00 00 00 00 00 00 00 00 00 00 b8 98 7c 38
       0.0 0.0 0.0 6.0223712e-05
000080 00 00 00 00 1e 73 ed 38 03 18 69 37 a8 c5 99 25
       0.0 0.00011322483 1.3893473e-05 2.6675206e-16
000090 25 e4 1a 28 00 00 00 00 f1 5a b8 39 1b 85 b7 38
       8.598188e-15 0.0 0.00035162971 8.750913e-05
0000a0 c9 95 22 28 67 02 08 39 a5 e0 c5 28 22 7c 14 1f
       9.025286e-15 0.00012970866 2.1968818e-14 3.14429e-20
0000b0 fb 65 fb 27 29 91 61 37 00 00 00 00 00 00 00 00
       6.9777062e-15 1.3444843e-05 0.0 0.0
0000c0 1f 0c 8c 39 25 31 a5 37 b0 c3 7f 38 0d e6 f2 27
       0.00026711912 1.9692417e-05 6.0978986e-05 6.7417915e-15
0000d0 00 00 00 00 00 00 00 00 1f 1e 8d 26 00 00 00 00
       0.0 0.0 9.792005e-16 0.0
0000e0 2c 45 11 38 00 00 00 00 14 4f 73 38 82 f8 94 38
       3.4635115e-05 0.0 5.8009362e-05 7.103478e-05
0000f0 64 89 de 38 00 00 00 00 00 00 00 00 00 00 00 00
       0.00010611376 0.0 0.0 0.0
