course/week2/monitor_project/checkpoints/model.ckpt (torch, 598142 bytes, 9 tensors)

model.0.weight f4 [64, 768]
00000000: c08b 283e e462 e03c d264 dfbc cf53 cf3c
00000010: b846 f1bc 3108 f2bc eda0 693c f44b 4f3d
00000020: 3916 d4bd 9373 01bd 46d8 5dbd b058 c2be
00000030: e060 eb3d 6cd0 c23c 21db 233e 5df4 063d
00000040: 9b24 b5bd a34f 92bc 1c71 9dbd c583 f0bc
00000050: d11e e7bc bd2e bf3e d167 203d 736e bebd
00000060: 4c60 58bd 112e 283e fae4 fe3d 3704 d9be
00000070: dd2f 9c3c ca57 3f3c e979 1b3d aba1 0abe
00000080: 0418 7b3e 3d1f 3ebd b599 27bc 3e2b 2dbe
00000090: 7f57 3a3d 5c4a 363e 8f64 05be 6de1 53bd
000000a0: 1204 35bd 5559 e93b 221d 153d d99b c0bd
000000b0: 16f1 563e bf99 083c 4ec1 e0bb 111d 5b3e
000000c0: 02cc 1bbd b02b 58be e57f 233d 448d c33d
000000d0: 84ba b7bd df84 ba3c 779e 5ebd 6ed9 253e
000000e0: 4752 06bc f531 593d aa58 5d3d cbe2 333e
000000f0: c155 83be 1ff7 babd c3ed 9c3d e06d 88be
00000100: 88a1 bd3d e65d 153e 3322 b8bd da40 cb3d
00000110: 4019 fe3c b3b0 213e 09a2 843d 587c 1b3d
00000120: 4302 28bd 26b2 52bd 90e9 8fbb 69a7 17be
00000130: 9c77 cfbc 5d99 2d3d 13e7 913c 4b81 d23b
00000140: 5353 11be 5510 c43c 4681 03be addc 8dbd
00000150: 138f 633d 51e4 a9be 0915 373d 8d45 053e
00000160: 0be0 2abd 63b1 083e bbf8 b63c 2b9a 4bbd
00000170: 9872 db3c c3c5 2f3d 1d24 8ebd eccf 14bf
00000180: 130c 223f 1232 a53c 25bc d2bc 0f44 b63d
00000190: ba81 3fbe 9fc1 393d b596 4d3c db46 41bd
000001a0: ced2 b9bb 9c2d 9dbd d2b7 4e3e 7ba5 22bc
000001b0: d655 9fbe cfd1 303d e9e7 fb3a 5731 e4bc
000001c0: 0ff2 7cbc 38ad c63e f6ad 993d 6fa0 1a3e
000001d0: 7406 783d a913 17be 0abf 073d c352 89bc
000001e0: 509c 373e 5ee9 303c 1966 a8bd 9943 3b3d
000001f0: 2b56 4b3d 4ba6 43bc fd5b 69bd cdb4 0a3c
00000200: 1d7e a43d acd7 a13c dfe1 cabc 6e0a 95bd
00000210: cb99 2bbd c912 caba 7442 46bd 2877 983d
00000220: 0c6d 28bf d836 66bd 95b4 80bc 830a 033d
00000230: d6cd 81bd 4a59 67bb c8d6 b53e 8e04 bcbd
00000240: 3f3e 9abc 49d9 413d ab1b a63d 7534 e03c
00000250: 85be 95bb ffbe 60bc 57fd 81be b44a 813b
00000260: 841e 59be 4bc2 03bc bda6 b43c c94e f9bd
00000270: 0e46 b8be 432f 6c3d 4558 0d3e 4ea3 a2bd
00000280: 9f72 8dbd c999 f1bd 4324 55bd e537 01bc
00000290: daa8 6dbd d2ee 183d 8cc9 7fbf 4a58 b1be
000002a0: 8ee4 92be db54 3b3b 4eae 3b3d 826b b5bb
000002b0: f56d 1dbe 03c0 aebd a424 23bd 7215 cd39
000002c0: f330 9cbd ff60 fbbc db78 69bd d571 79bd
000002d0: 3a7a 5f3f 2cc8 853c 2d69 c9be bbb0 1abe
000002e0: 7c12 b1bd e7a2 8d3b 9ff8 683d 56a9 7c3e
000002f0: 05f4 4ebe 59b7 0a3d 0cc1 00be 41a1 3abd
00000300: 3486 09be f95c 8cbd a968 04be dcff a93c
00000310: c68d 903d 82ad 753d d5b0 c4bc de76 f3bd
00000320: b353 33bc 037d 323c 61b6 10be 207d 2cbd
00000330: ca67 153a 97ec f73d bf77 aebd 825e e1bd
00000340: 74d1 193e 0c76 963d 02eb fdbd f248 cfbc
00000350: 99d3 89bd 7ea5 eb3e b862 b7bd 68c9 23bd
00000360: 9c88 cbbb 092a 22bd 9dcc 0fbe 1a6a 503c
00000370: 3740 9e3c c688 b83d 0503 10bd bb3b 50bd
00000380: 547f cabd 1f88 8dbc 7517 a9bc 03ae 203c
00000390: 695e 0abd 88e3 59bc a334 2bbe 6bbc 523d
000003a0: dd1c 0ebe 34d2 9ebd 51f4 03bd 5eec cbbc
000003b0: 51a3 813d e181 af3c e065 83bd d182 f13d
000003c0: dad5 0f3d bd02 73be dfb2 d13c dd42 f9bc
000003d0: 0fa9 0d3e 28d2 51be a9c1 54be 8e0c 1cbd
000003e0: 97f8 b33d 81df 60bc 25cf 68be 455b d13c
000003f0: 8049 8c3d 93e5 60bc bec9 d3bc 82e3 de3c
0.1645956 0.027390905 -0.027269755 0.025308518 -0.029452667 -0.029544922 0.014259559 0.050609544
-0.10355801 -0.03160436 -0.054161333 -0.37958288 0.11493087 0.023781024 0.1600156 0.032947887
-0.088448726 -0.01786024 -0.076875895 -0.029359708 -0.028212937 0.37340346 0.039161507 -0.0929841
-0.05282621 0.16423823 0.124460176 -0.42386028 0.019065792 0.011678645 0.03795806 -0.13538234
0.2452088 -0.04641651 -0.010229518 -0.16911027 0.0454936 0.17801803 -0.13026641 -0.051728655
-0.044193335 0.007121245 0.036404736 -0.094047256 0.20990404 0.008337437 -0.006858981 0.21397807
-0.038036354 -0.21110415 0.03991689 0.09548429 -0.08971122 0.022768436 -0.054350343 0.16196224
-0.008198327 0.05302616 0.054039635 0.17566983 -0.25651363 -0.09129166 0.07662537 -0.26646328
0.09259325 0.145866 -0.08990898 0.09924479 0.0310179 0.15790062 0.06476218 0.03796038
-0.041017782 -0.051439427 -0.0043918565 -0.14809956 -0.025325589 0.042382587 0.01781038 0.0064241043
-0.14191942 0.023933569 -0.12842283 -0.06926856 0.055556368 -0.33182004 0.044697795 0.13014813
-0.04171757 0.13348918 0.0223354 -0.049707573 0.026788041 0.04291321 -0.06940482 -0.58129764
0.63299674 0.020165477 -0.02572448 0.088997 -0.1870183 0.045350667 0.012548138 -0.047186714
-0.005670882 -0.07674715 0.2018731 -0.009927149 -0.31120175 0.04316884 0.0019218895 -0.027855558
-0.015438571 0.3880403 0.075038835 0.15100263 0.06055303 -0.14753594 0.033141173 -0.016763097
0.17930722 0.010797827 -0.082225986 0.045718763 0.049642723 -0.011941503 -0.056972492 0.008465958
0.08031867 0.01975616 -0.024765907 -0.0727738 -0.041894715 -0.0015416975 -0.04840322 0.07444602
-0.6579139 -0.056204647 -0.015711108 0.031992447 -0.06338088 -0.0035301023 0.35515428 -0.09180556
-0.01882851 0.04732636 0.08110746 0.027368763 -0.004569831 -0.013717412 -0.25388595 0.003945673
-0.21203047 -0.0080419285 0.022052163 -0.1217323 -0.35990947 0.05766226 0.13803203 -0.07941304
-0.06906628 -0.1179691 -0.052036535 -0.007886861 -0.058022358 0.03733713 -0.9991691 -0.34637672
-0.28689998 0.0028584513 0.045820527 -0.0055364976 -0.15373977 -0.08532717 -0.039829865 0.00039116625
-0.07626524 -0.0306859 -0.057000022 -0.060899574 0.8729588 0.016330801 -0.39338055 -0.1510648
-0.08646104 0.004322398 0.05687773 0.24673972 -0.20210274 0.03386626 -0.12573642 -0.04556394
-0.134301 -0.068536706 -0.1293055 0.020751886 0.07058291 0.059979923 -0.024010101 -0.118879065
-0.010945248 0.010894063 -0.14132072 -0.042111516 0.00056993647 0.12105673 -0.085189335 -0.11004354
0.15021306 0.073467344 -0.1239834 -0.025303338 -0.06729812 0.46024698 -0.08954376 -0.039986998
-0.0062113535 -0.03959087 -0.14042898 0.012720609 0.01931773 0.090104625 -0.03515913 -0.050838213
-0.09887567 -0.017276822 -0.020641068 0.009807113 -0.033781443 -0.013298877 -0.16719298 0.05144922
-0.13878198 -0.07754937 -0.03221542 -0.024892982 0.06329978 0.021424236 -0.064159155 0.117925294
0.035116054 -0.23731513 0.025597988 -0.03042739 0.13834022 -0.20490324 -0.20777 -0.03809791
0.08787649 -0.0137251625 -0.2273527 0.025556216 0.068499565 -0.01372661 -0.025853034 0.027208094

model.0.bias f4 [64]
00000000: 78ac 5dbc 6a78 1bbc c2f4 5f3b 501a 133c
00000010: 8ef6 fbbc e9b0 59bb 3177 20bc 509c 4d3d
00000020: a5a5 51bc 0bd0 bab9 0c23 8d3c b7f0 493d
00000030: 635f 2cbc 9c06 d13c b242 0cbc 0276 a9bc
00000040: c5c0 b03c ba09 e8bb 5449 4b3c d1ab b23c
00000050: 35f4 c83c dd8f 78bb b0bf 88bb 424c c23c
00000060: 86c1 9a3c fca9 d5bc ad33 333c 4b97 8ebc
00000070: 8824 323c 65cd 5f3b 8bb6 8a3b 90f6 063d
00000080: 6804 e33c 5e8c 0b3d ae0f d7bc 1bcc f43c
00000090: 33cb bd3c d036 eb39 8d30 b23b 5186 893b
000000a0: a964 1bbb adc5 03bd 209c 3bbc 6a9f 363d
000000b0: 1d71 39bc ad89 7dbc 0f6c b9bc acfb afbc
000000c0: 50bf 5bbc c667 0abd 9a6f 863c 7125 493d
000000d0: 2646 983c 975c eabc 9862 61bc b6b8 f7bc
000000e0: 0737 b9bc 192b 85bc 9627 1d3d 712d 18bc
000000f0: a055 07bd 0ab6 b23a 79b9 4d3d 344c 013d
-0.013529889 -0.009489158 0.0034172987 0.008978441 -0.030757215 -0.003321702 -0.009794042 0.0501979
-0.01279584 -0.0003563169 0.017228626 0.04930183 -0.010520789 0.025515847 -0.008560823 -0.020686153
0.021576295 -0.0070812376 0.0124076195 0.021810444 0.02453051 -0.0037927546 -0.0041732416 0.023718003
0.018891107 -0.026082031 0.010937613 -0.017406126 0.010872968 0.0034149524 0.0042331866 0.032949984
0.027712062 0.03406941 -0.026252594 0.029882481 0.023168182 0.0004486353 0.0054379166 0.00419692
-0.0023711121 -0.03217094 -0.011450797 0.044585623 -0.011318472 -0.015474719 -0.022634534 -0.021482311
-0.013412312 -0.033790372 0.016410638 0.049107973 0.018588137 -0.028608603 -0.013756417 -0.030239444
-0.022609247 -0.016255902 0.03836783 -0.009288178 -0.033040643 0.0013634574 0.05022571 0.031566814

model.2.weight f4 [1, 64]
00000000: 364b 9dbf 22ff a13c 4e4c d43d 3e38 98bf
00000010: c7d5 fc3e d86b 9cbf da1f 893d f552 93bf
00000020: bb16 9bbf c737 b23d f67e 9c3d bac4 94bf
00000030: bc24 edbd d870 9e3d 5015 02bc e044 c13b
00000040: ece9 323d ba01 99bf 7ca6 92bf e29a 733b
00000050: fcd8 99bd f07a 74bd 728c d1bd dd82 cf3e
00000060: e028 073d 7008 823c f642 bf3d fd9f 93bd
00000070: e6f7 e93e 0631 ff3e 3227 efbd d4e7 c53d
00000080: 98f3 8bbf dc89 f9bd c003 a4bd b490 e93e
00000090: b8a8 223d 6290 103c 56ab 82bd 3c87 da3a
000000a0: 3cac 5dbd 8f63 3abd 6836 cabd 5184 8dbf
000000b0: be29 c8bd adc7 b1bd 1e28 823d c024 ec3e
000000c0: 6cfe ddbd aa8f 8bbd 1630 debc be64 9ebf
000000d0: 8e10 b63d 3c60 f63d 55ae 3bba 5435 5dbd
000000e0: a484 703d 6c0b b8bd de57 8fbf 396e 283d
000000f0: eba9 833c d7ff 93bf 4767 95bf 4014 8dbb
-1.2288578 0.019774977 0.103661165 -1.1892164 0.4938185 -1.2220411 0.06695528 -1.1509691
-1.2116312 0.08702045 0.076414034 -1.1622536 -0.11579272 0.07736367 -0.007939652 0.005898103
0.043680117 -1.1953652 -1.1457057 0.0037171175 -0.075120896 -0.059687555 -0.10231866 0.40529528
0.032997966 0.015873164 0.09338944 -0.0720825 0.45696944 0.4984209 -0.11677398 0.09663358
-1.0933714 -0.12184498 -0.08008528 0.45618212 0.039711684 0.008823486 -0.06380336 0.0016672383
-0.054119334 -0.045505103 -0.098736584 -1.1056005 -0.09773587 -0.08680663 0.06355308 0.46121788
-0.10839543 -0.06814511 -0.027122539 -1.2374494 0.08889876 0.12030074 -0.00071594614 -0.054005936
0.058720246 -0.089865535 -1.119869 0.04112074 0.016072234 -1.1562451 -1.1672143 -0.0043053925

exp_avg f4 [64, 768]
00000000: 7471 a837 5d19 18bb 60ff 1abb c685 79ba
00000010: 1fbe ab3a 4b11 073b bc59 233b 7939 56ba
00000020: 8fe7 15ba 10a3 d8ba 114e 1e3b cacc 82b9
00000030: 4905 7aba 1406 823a 711d c0ba 9d29 a53b
00000040: dea9 0b3b dff3 9bbb 00b3 c739 bf7a b1b9
00000050: 1e45 3dbb ae10 033a 2a0f 983b 1677 643b
00000060: 59f4 a03a bf0c 333a 77cc ccba 2cdd 89b9
00000070: 8950 e43a 9572 143b 2d67 493b 6f55 003a
00000080: 608e 7d3a 8092 1b3b b0a7 26bb 8c7a 5f3a
00000090: d452 5abb ac66 4d39 c0e2 303b 4376 fcba
000000a0: 3bca 5bba 2a83 d83a 1e2e 103b b8c0 aaba
000000b0: d036 9bba f306 863b 4511 263b 64ab ab39
000000c0: ff88 c3ba a5e2 76ba 9084 79bb 7e58 663b
000000d0: 66d7 433b b0f7 053b d728 1eb9 7008 1f3a
000000e0: 25a7 bfba 2e8b 313b 0e17 5fba 77a1 93ba
000000f0: e46f 96ba ed64 0dbb b355 03b9 7427 ffb9
00000100: e38e a539 2253 c2ba aa69 8c3a b720 cdba
00000110: 2f17 bcba 41a1 f939 78e6 8cba a758 c93a
00000120: 015c d33a 1058 45bb a14b 3cbb e60d 423a
00000130: 3920 c5bb b2e4 a5ba e3cf 483b be9d 8c3b
00000140: 8eb4 9aba 0e74 013b b149 6039 d279 0a3b
00000150: a9e0 39b9 b948 3cba c6b8 99b9 e121 a2ba
00000160: b56c ff3a 5fe6 303b 94b0 04bb 5fef 7cbb
00000170: c330 043a 530d 9739 c229 a7ba 34bd 9339
00000180: 8bf7 9db9 5d1a 6cba c4c3 e2ba ac2b eeba
00000190: ec76 363a c335 2ebb 5176 caba bdf9 2d3b
000001a0: 7965 87b9 a17e 07bb 3500 31b9 55ed 503b
000001b0: 968c 123a ca10 aeba ca43 03bb a8f7 933b
000001c0: 47f1 453b f6cd d138 c736 ae38 0108 ee3a
000001d0: e28f ae3a dfe8 44bb 7c72 8f3b 35ff 50bb
000001e0: be58 18b8 4447 87ba 704f 973a 7690 e73a
000001f0: eebd 12bb fc45 393b f718 d33a 48d3 383b
00000200: c5d5 f93a 863c 663a 4156 74b9 4a2e c73a
00000210: bf33 90ba d69b be3a c329 233b 7d0c 933a
00000220: 0f91 2939 7270 5fbb 630e 18bb d793 313b
00000230: cf2a 743b 7f17 d63a e0a2 3eba 9483 123b
00000240: 1c3a 953a 3d25 1e3b 45b9 c53a 845e 81bb
00000250: ddd6 aa39 d1f3 673b 6ef4 673a 80a5 d13a
00000260: 9964 75ba 923e 46bb 2e6f 38bb 05a7 6cba
00000270: f011 c139 050b 57bb ca08 b5ba 8c17 7a3b
00000280: 1b76 af39 36e2 aab8 c001 b0ba 982a 1dbb
00000290: 3a14 8fb9 8acb 9aba cdb9 6239 21dc 9d3a
000002a0: d05d 32ba e05f 90bb 91c0 85ba 0678 b9bb
000002b0: 97d4 86ba 90c0 053b dbd8 56bb 4757 1e3b
000002c0: cd04 49bb fbf6 803a fff6 873b de5e 9739
000002d0: 71a1 58b9 5a30 0cbb ee88 39b9 abf3 633a
000002e0: cd51 5c3b 2286 2a3b 9c92 89bb 65a7 8e3a
000002f0: 5b7c db3a c311 203b de99 c53a f90d 06ba
00000300: 7f90 bbba 5683 cf3a d3b9 07bb 8b4e df3a
00000310: 52c9 14bb 1b59 f53a b842 23bb afe9 0abb
00000320: caf9 383b 7b4e 85bb 8a99 8fb9 8eff 583a
00000330: 21fe 3b3b e1a5 cf38 225d ddb9 d5a6 86ba
00000340: 7367 9c3a 3784 f63a 0a19 a63a bb3a 83bb
00000350: 457d 3f3b e450 0d37 6738 7bb9 2a0c d4b9
00000360: 7c58 ef3a c6a4 2e3b 58d0 7f3a 3da1 82bb
00000370: f472 adba f7e8 a33a c377 423b 678c 1abb
00000380: c843 f33a f3bb 35bb 086a 87bb cc0e beba
00000390: 1dba 023b ee67 1c3b 402c ef3a 3923 38bb
000003a0: f4fb cc3a 6706 9bba f696 8ebb d467 74bb
000003b0: 4a78 8bba 3bd1 243b 73f6 fb3a 8cc2 003b
000003c0: feea 293b 72d1 0f3a 7e46 993a dbed d23a
000003d0: 9758 c13a 8caa c5ba 7bec f63a c479 76bb
000003e0: 8ce6 1dba baa2 2ebb 8a35 efba 64bc 13bb
000003f0: dff5 893b f07f 22bb 9b2d 2f3b e8dc 823b
2.0079991e-05 -0.0023208477 -0.002365075 -0.000951853 0.0013102925 0.0020609673 0.0024925312 -0.0008172016
-0.0005718404 -0.0016528089 0.0024155418 -0.00024948112 -0.0009537531 0.0009920024 -0.0014657212 0.005040361
0.0021310966 -0.0047592963 0.00038089603 -0.00033851524 -0.0028880308 0.0004999739 0.0046404796 0.003486102
0.0012279853 0.00068302074 -0.00156249 -0.00026295462 0.0017419021 0.0022651304 0.0030731664 0.0004895543
0.00096723996 0.0023738444 -0.002542954 0.0008525036 -0.003331353 0.00019588572 0.0026990622 -0.0019261319
-0.00083843217 0.0016518582 0.0022000144 -0.0013027405 -0.0011841897 0.004090184 0.0025339883 0.00032743358
-0.0014918147 -0.0009417928 -0.0038073398 0.003514796 0.0029883026 0.0020441823 -0.00015083268 0.0006066626
-0.0014621957 0.0027091014 -0.00085102103 -0.001126333 -0.0011477438 -0.002157505 -0.00012525059 -0.00048666785
0.0003157771 -0.0014825801 0.0010712643 -0.0015650009 -0.0014350171 0.00047613124 -0.0010749837 0.0015361503
0.0016125442 -0.0030112304 -0.0028731602 0.0007402584 -0.006015804 -0.0012656657 0.0030641488 0.0042912653
-0.0011803077 0.0019753012 0.00021389757 0.002112974 -0.00017726667 -0.00071824674 -0.000293201 -0.0012369716
0.0019487353 0.002699278 -0.002024685 -0.0038594825 0.00050426665 0.00028810892 -0.0012753534 0.00028178992
-0.00030129807 -0.0009006614 -0.0017300774 -0.0018170974 0.000696047 -0.0026582337 -0.0015446638 0.002654656
-0.0002582481 -0.0020674842 -0.00016880113 0.0031879742 0.0005590407 -0.001328015 -0.002002942 0.004515607
0.0030203627 0.0001000426 8.3071696e-05 0.0018160344 0.0013318027 -0.0030046029 0.0043776613 -0.0031890396
-3.632227e-05 -0.0010320921 0.001154406 0.0017666954 -0.002239104 0.0028270474 0.0016105463 0.0028202105
0.0019060901 0.00087828224 -0.00023301785 0.001519629 -0.001100175 0.0014542292 0.0024896718 0.0011218932
0.00016171134 -0.0034094122 -0.0023201935 0.0027096176 0.0037256961 0.0016333907 -0.0007272195 0.0022356259
0.0011385116 0.0024131082 0.0015085122 -0.0039480347 0.00032585012 0.0035393129 0.00088483735 0.0015994757
-0.00093609985 -0.0030249697 -0.002814244 -0.00090275734 0.00036825193 -0.0032812965 -0.0013811823 0.0038161008
0.00033466597 -8.148367e-05 -0.0013428256 -0.0023981687 -0.00027290155 -0.0011809927 0.00021622256 0.0012043753
-0.000680414 -0.0044059604 -0.0010204484 -0.00566006 -0.0010286745 0.0020408966 -0.0032783065 0.0024160908
-0.0030673028 0.0009839231 0.0041493173 0.00028871646 -0.00020659507 -0.0021391124 -0.00017693985 0.0008695672
0.0033618093 0.002601989 -0.0041983854 0.0010883628 0.0016745435 0.002442465 0.0015075763 -0.00051137764
-0.0014310031 0.0015831988 -0.0020710125 0.0017036957 -0.0022703004 0.0018718572 -0.0024911594 -0.0021196415
0.0028225058 -0.0040681935 -0.0002738948 0.0008277827 0.0028685408 9.9014265e-05 -0.00042221794 -0.0010273108
0.0011932686 0.0018807714 0.0012672257 -0.004004804 0.0029218954 8.423089e-06 -0.00023958237 -0.00040444854
0.0018260623 0.0026648506 0.00097585237 -0.0039865063 -0.0013233111 0.0012505342 0.0029673434 -0.0023582221
0.0018559629 -0.0027730435 -0.004132513 -0.001450026 0.0019947358 0.0023865658 0.001824744 -0.0028097166
0.0015639053 -0.001182747 -0.004351492 -0.0037293332 -0.0010640707 0.0025149125 0.0019223228 0.001964721
0.002592742 0.0005486227 0.0011693982 0.0016092615 0.0014751133 -0.0015080734 0.0018838787 -0.00376092
-0.0006023429 -0.0026647286 -0.0018250209 -0.002254271 0.0042102183 -0.0024795495 0.0026730064 0.0039936192

exp_avg_sq f4 [64, 768]
00000000: 45af 7634 57be eb38 c4b7 f938 89f2 9b37
00000010: d380 3e38 55c4 df38 9100 2939 ef31 5037
00000020: 185d 9437 cfb3 9838 ee33 2c39 71bb 6c34
00000030: b3b0 c837 c647 0c38 ab34 6b38 4cd0 133a
00000040: f238 e438 e1c1 1b3a 70fa e236 b5f3 9135
00000050: aa6d 3a39 85dd 5637 3fbe 123a 3f85 8e39
00000060: 975e 1e38 4cf8 d336 6e60 7438 46db ee34
00000070: feb3 8738 1515 1a39 7bbe 6a39 57a7 a536
00000080: c960 f137 74e4 2539 924f 2239 2e42 3137
00000090: b4a8 8639 00f6 0a35 8171 4939 9e9f dc38
000000a0: 16ba 9037 90f0 a538 6f18 c238 29b1 6b38
000000b0: c5a6 c637 0ca5 d939 dee7 2539 05ad 0d36
000000c0: 897d 5838 b8b5 b437 054a 9539 78ce a639
000000d0: e537 7639 2eaf c638 756b 7d36 d09b d836
000000e0: fc6d 0238 7063 2c39 1fce 4937 1b38 a537
000000f0: e4f2 0c38 2bf2 ed38 d540 f434 40cc c936
00000100: 39fe bd35 4e54 3f38 3c92 b837 2faf 6338
00000110: baf0 5538 7741 0037 7487 d437 fdcc 6138
00000120: e021 9738 a613 7c39 dcdd 5b39 7010 2a37
00000130: 7f5d 6c3a d616 0438 9c49 7a39 ca8f ee39
00000140: 2cab a237 59ed f438 0c61 0d36 6d17 ef38
00000150: faec f435 2fed d836 f41a 4336 9fba 3638
00000160: 0616 9638 d915 2d39 a54b d438 572c d139
00000170: b293 5737 9494 4135 f79b d137 eee1 0236
00000180: 462e fd35 0afe a837 50c9 9b38 49da a438
00000190: e1c2 5737 80c8 2939 d366 7f38 9488 2f39
000001a0: f387 0635 4bbe c338 ad9b a334 fdcd 7b39
000001b0: c581 1e37 309f 0738 3ee6 b838 afbf 013a
000001c0: f41b 8d39 1d17 9735 1032 5f35 2957 9738
000001d0: 15fd 5c38 b21a 5e39 0a56 fc39 6653 7e39
000001e0: 0f02 9134 6410 a237 1c2e 1f38 7d0f ba38
000001f0: 6afd 0339 77de 3b39 a921 4e38 ec3f 5739
00000200: 1ea9 a338 0d29 f237 20bf 8136 aeea 1c38
00000210: da7e 1338 5cf3 6338 a13b 1439 d6d3 0238
00000220: 4b30 b634 36eb 8d39 a609 0e39 bf75 4839
00000230: 9807 9539 7976 5a38 b834 f336 31bb d238
00000240: 8865 c237 99bb 0739 7953 2d38 da4b d439
00000250: 2527 1637 7a8c 9d39 8fdd be37 9a2e 5938
00000260: 991b 1338 15a1 5939 71cd 3d39 815e f637
00000270: 283f 2f36 6033 8f39 5aca 0d38 18b1 ab39
00000280: df75 0437 3d80 3936 3026 a338 51e6 ed38
00000290: a8aa e435 caa7 3e38 1f73 5035 31c5 cf37
000002a0: 9c16 2537 e7c7 fa39 fdc2 1a38 4e35 403a
000002b0: 52f0 f637 c6af d438 8765 8739 73a0 4339
000002c0: 89f6 5239 c5a8 db37 fb54 d839 3323 6f36
000002d0: 7f56 8c34 7332 e638 638f b235 0e39 9037
000002e0: 9092 7939 12f8 3b39 fbf9 d339 b041 df37
000002f0: 150e 4638 adf7 4c39 f9a0 3538 099b 1737
00000300: 792a 2d38 0a7f 3d38 dee6 f638 0b96 9938
00000310: a49f 0839 592d b038 51ae 2139 174c f238
00000320: ee18 7839 293e e339 9682 8d36 0f02 7537
00000330: 9ca9 2c39 5df3 3d35 261c c936 1d1a e437
00000340: 383b 5938 be20 b238 1f2a 2738 c8c6 d839
00000350: 46ad 5739 c7a2 2b35 ac9c 8d36 6cff fe36
00000360: 5d60 a238 0265 1d39 426c b737 dc7c be39
00000370: 1445 6b38 7042 5c38 d610 5d39 d60a 1939
00000380: 2f12 9c38 36dc 7939 9e64 dd39 d772 0d38
00000390: 20a9 0039 1acd f238 86b8 8638 0524 4e39
000003a0: 5c12 8f38 340a 3438 67cc f739 4ca4 b239
000003b0: 52dc 2438 e130 3139 56d5 9b38 c996 9638
000003c0: 6f19 2639 c362 1436 0ae9 1e38 d7b1 8138
000003d0: 1755 7938 edcb 3638 4a30 a738 bf2d af39
000003e0: 051c 9b36 ae03 5b39 20e8 e338 0fd3 e938
000003f0: 8fee e739 15c6 2139 7717 1139 f741 d339
2.2974298e-07 0.00011241127 0.00011907474 1.859038e-05 4.5419507e-05 0.00010670038 0.00016117307 1.2409392e-05
1.7686325e-05 7.281417e-05 0.00016422544 2.2047404e-07 2.392414e-05 3.3445445e-05 5.6077417e-05 0.00056386436
0.00010882494 0.0005941671 6.7644796e-06 1.087427e-06 0.00017779195 1.28069705e-05 0.0005597807 0.00027183627
3.775823e-05 6.3171956e-06 5.826394e-05 4.4490497e-07 6.470828e-05 0.00014694438 0.00022386939 4.936864e-06
2.8774508e-05 0.00015820732 0.00015479166 1.0565431e-05 0.00025684165 5.1766983e-07 0.00019211137 0.000105201485
1.725279e-05 7.9126214e-05 9.255192e-05 5.619336e-05 2.3681097e-05 0.00041512435 0.00015822003 2.1111348e-06
5.1615327e-05 2.1542292e-05 0.00028474643 0.00031815819 0.0002348121 9.4740055e-05 3.7762486e-06 6.4554406e-06
3.1096846e-05 0.00016440242 1.2028525e-05 1.9695659e-05 3.360481e-05 0.00011346148 4.5495713e-07 6.0140446e-06
1.4155586e-06 4.5616463e-05 2.2002605e-05 5.428417e-05 5.100735e-05 7.644637e-06 2.5335445e-05 5.383509e-05
7.206551e-05 0.00024039912 0.00020968117 1.0136617e-05 0.00090166176 3.149252e-05 0.0002386928 0.0004550203
1.9391613e-05 0.00011679036 2.1067126e-06 0.000114007715 1.8248386e-06 6.4649134e-06 2.9072953e-06 4.3565986e-05
7.1566596e-05 0.00016506705 0.00010123038 0.00039896622 1.2849387e-05 7.211431e-07 2.4987368e-05 1.9503018e-06
1.8863436e-06 2.0145457e-05 7.428473e-05 7.860788e-05 1.2860372e-05 0.00016191788 6.08925e-05 0.0001674018
5.011672e-07 9.3337694e-05 3.0474385e-07 0.00024013962 9.447748e-06 3.2334763e-05 8.81669e-05 0.00049495226
0.00026914442 1.1257104e-06 8.3146824e-07 7.216476e-05 5.268779e-05 0.00021181515 0.0004812929 0.00024254396
2.7009852e-07 1.9319537e-05 3.7951497e-05 8.872056e-05 0.00012587538 0.00017916584 4.9145576e-05 0.0002052781
7.803946e-05 2.8867764e-05 3.8667495e-06 3.741186e-05 3.516567e-05 5.4347664e-05 0.00014136593 3.1191703e-05
3.393528e-07 0.00027068862 0.0001354577 0.0001911735 0.00028425152 5.2085587e-05 7.2481016e-06 0.000100484474
2.3173881e-05 0.00012944489 4.1324154e-05 0.00040492305 8.949811e-06 0.00030050037 2.2752936e-05 5.1780233e-05
3.5073233e-05 0.0002075474 0.00018100977 2.9369492e-05 2.6113794e-06 0.00027313363 3.3805474e-05 0.00032747607
7.895257e-06 2.7641793e-06 7.779559e-05 0.000113439404 1.7036991e-06 4.5455796e-05 7.765356e-07 2.4768147e-05
9.8400305e-06 0.00047832655 3.6898058e-05 0.0007332162 2.9437393e-05 0.00010141688 0.0002582485 0.00018656421
0.00020119002 2.6185424e-05 0.00041262046 3.5634264e-06 2.6139966e-07 0.000109766515 1.3303764e-06 1.7192706e-05
0.00023801089 0.00017926123 0.00040431306 2.661426e-05 4.7219994e-05 0.00019547222 4.330368e-05 9.036398e-06
4.128597e-05 4.5179426e-05 0.000117731965 7.323556e-05 0.00013029441 8.400781e-05 0.00015419094 0.00011553632
0.0002366041 0.00043343127 4.2173297e-06 1.4603617e-05 0.00016466383 7.0762127e-07 5.9935437e-06 2.7191878e-05
5.1791983e-05 8.4938e-05 3.985513e-05 0.00041346834 0.00020568547 6.3939336e-07 4.2203665e-06 7.599525e-06
7.742711e-05 0.00015010315 2.1865711e-05 0.00036332652 5.60927e-05 5.2513962e-05 0.00021082474 0.00014595254
7.4420466e-05 0.00023828525 0.0004222737 3.3723973e-05 0.00012270035 0.000115776624 6.423988e-05 0.00019659109
6.822191e-05 4.2924847e-05 0.00047263803 0.00034073216 3.9305836e-05 0.00016898244 7.430713e-05 7.180643e-05
0.00015840468 2.2111205e-06 3.788717e-05 6.1843246e-05 5.9445472e-05 4.3582102e-05 7.972175e-05 0.00033412685
4.622622e-06 0.00020886838 0.0001086744 0.000111496185 0.00044237493 0.00015427948 0.00013837019 0.00040294204

exp_avg f4 [64]
00000000: 6558 273c 0400 0000 0400 0000 c2cd 213c
00000010: 4bbb 86bb 660d 263c 0000 0000 ece5 1c3c
00000020: a92a 253c 0400 0000 0000 0000 41fe 1d3c
00000030: 0000 0000 0400 0000 0000 0000 0000 0000
00000040: 0400 0000 d3e9 223c 2993 1d3c 0400 0000
00000050: 0000 0000 0000 0000 0400 0000 0d1d 5dbb
00000060: 0000 0000 0000 0000 0000 0000 0400 0000
00000070: 4e56 79bb 14fd 87bb 0000 0000 0000 0000
00000080: ee0b 153c 0000 0000 0000 0000 2ce8 78bb
00000090: 0000 0000 0400 0000 0000 0000 0400 0000
000000a0: 0000 0000 0400 0000 0000 0000 cabf 153c
000000b0: 0000 0000 0400 0000 0000 0000 42a8 7bbb
000000c0: 0000 0000 0000 0000 0400 0000 e059 283c
000000d0: 0000 0000 0400 0000 0400 0000 0000 0000
000000e0: 0400 0000 0000 0000 0c5d 183c 0400 0000
000000f0: 0400 0000 4174 1d3c 70c9 1e3c 0000 0000
0.010213946 6e-45 6e-45 0.009875717 -0.0041116825 0.01013503 0.0 0.009576302
0.010080972 6e-45 0.0 0.009643138 0.0 6e-45 0.0 0.0
6e-45 0.009943443 0.009617605 6e-45 0.0 0.0 6e-45 -0.003373924
0.0 0.0 0.0 6e-45 -0.0038045826 -0.0041500423 0.0 0.0
0.009097083 0.0 0.0 -0.0037980182 0.0 6e-45 0.0 6e-45
0.0 6e-45 0.0 0.009139964 0.0 6e-45 0.0 -0.003839985
0.0 0.0 6e-45 0.010275334 0.0 6e-45 6e-45 0.0
6e-45 0.0 0.009299528 6e-45 6e-45 0.009610237 0.009691581 0.0

exp_avg_sq f4 [64]
00000000: b00c 1f3b 45db 1f28 e961 722a 19be 143b
00000010: 8673 d239 fea6 1c3b 0000 0000 6d86 0b3b
00000020: 9f78 1a3b 529a 102a 0000 0000 34c5 0d3b
00000030: 0000 0000 6ef2 6126 0000 0000 0000 0000
00000040: e96c 1229 758a 163b 19de 093b af18 4a26
00000050: 0000 0000 0000 0000 9c51 5d27 1751 8d39
00000060: 0000 0000 0000 0000 0000 0000 b63a dc2a
00000070: 7dd4 b339 4056 d639 0000 0000 0000 0000
00000080: 31c8 fb3a 0000 0000 0000 0000 7154 b339
00000090: 0000 0000 7b2f e326 0000 0000 cbb3 8924
000000a0: 0000 0000 cea2 e72b 0000 0000 cc42 003b
000000b0: 0000 0000 5827 f41f 0000 0000 764a b739
000000c0: 0000 0000 0000 0000 39d1 242b 5a56 213b
000000d0: 0000 0000 fab3 0f2b 8dfe 3323 0000 0000
000000e0: e166 9d29 0000 0000 89d3 033b d01e 0228
000000f0: 3fc2 af27 f1d6 0c3b b54b 0f3b 0000 0000
0.0024269037 8.8738195e-15 2.1527887e-13 0.0022696315 0.00040140393 0.0023903246 0.0 0.002128984
0.002357043 1.284331e-13 0.0 0.0021632435 0.0 7.839111e-16 0.0 0.0
3.2512977e-14 0.002297071 0.0021036922 7.011628e-16 0.0 0.0 3.0714152e-15 0.00026954032
0.0 0.0 0.0 3.912059e-13 0.00034299857 0.00040881522 0.0 0.0
0.0019209442 0.0 0.0 0.00034204454 0.0 1.5764159e-15 0.0 5.971886e-17
0.0 1.6458725e-12 0.0 0.0019571064 0.0 1.0340311e-19 0.0 0.00034959958
0.0 0.0 5.855486e-13 0.002461812 0.0 5.1053573e-13 9.757513e-18 0.0
6.990047e-14 0.0 0.0020115098 7.223131e-15 4.878286e-15 0.002149042 0.0021865193 0.0

exp_avg f4 [1, 64]
00000000: c434 c3ba 0400 0000 0400 0000 6092 c1ba
00000010: 1fbe 83bc aacf a6ba 0000 0000 3a02 e4ba
00000020: 4377 bdba 0400 0000 0000 0000 7aca c1ba
00000030: 0000 0000 0400 0000 0000 0000 0000 0000
00000040: 0400 0000 8461 d3ba 232d 8eba 0400 0000
00000050: 0000 0000 0000 0000 0400 0080 0d85 86bc
00000060: 0000 0000 0000 0000 0000 0000 0400 0080
00000070: 9c5e 84bc b23e 7bbc 0000 0000 0000 0000
00000080: 2578 01bb 0000 0000 0000 0000 01b9 87bc
00000090: 0000 0000 0400 0000 0000 0000 0400 0000
000000a0: 0000 0000 0400 0080 0000 0000 1b31 adba
000000b0: 0000 0000 0400 0000 0000 0000 1d39 83bc
000000c0: 0000 0000 0000 0000 0400 0080 bbe2 ccba
000000d0: 0000 0000 0400 0000 0400 0000 0000 0000
000000e0: 0400 0000 0000 0000 dfe0 d0ba 0400 0000
000000f0: 0400 0000 c933 d1ba 894e caba 0000 0000
-0.0014893045 6e-45 6e-45 -0.0014768355 -0.016081868 -0.0012726684 0.0 -0.0017395683
-0.0014455098 6e-45 0.0 -0.0014785074 0.0 6e-45 0.0 0.0
6e-45 -0.0016127084 -0.0010847192 6e-45 0.0 0.0 -6e-45 -0.016420865
0.0 0.0 0.0 -6e-45 -0.016158395 -0.015334772 0.0 0.0
-0.001975545 0.0 0.0 -0.016567709 0.0 6e-45 0.0 6e-45
0.0 -6e-45 0.0 -0.0013213487 0.0 6e-45 0.0 -0.016018445
0.0 0.0 -6e-45 -0.0015631536 0.0 6e-45 6e-45 0.0
6e-45 0.0 -0.0015936157 6e-45 6e-45 -0.0015960868 -0.0015434782 0.0

exp_avg_sq f4 [1, 64]
00000000: bb3f 3139 afe0 362a 68e3 4029 92e2 3a39
00000010: 2b75 b43b 359a 2639 0000 0000 39c8 6339
00000020: f674 3d39 d627 8529 0000 0000 8947 3f39
00000030: 0000 0000 a5ca 9124 0000 0000 0000 0000
00000040: bc23 e529 8245 4239 9713 2939 65ac 812a
00000050: 0000 0000 0000 0000 e652 dc21 09ce be3b
00000060: 0000 0000 0000 0000 0000 0000 cbf7 062b
00000070: f9e4 b73b b96e a73b 0000 0000 0000 0000
00000080: f0f0 7f39 0000 0000 0000 0000 bcf8 c13b
00000090: 0000 0000 a23a 3d29 0000 0000 d6db 2026
000000a0: 0000 0000 c342 8d2d 0000 0000 1409 4b39
000000b0: 0000 0000 5677 1e1e 0000 0000 04d8 b33b
000000c0: 0000 0000 0000 0000 ed55 cf2c 1d36 3439
000000d0: 0000 0000 9c3d da28 9ef0 9429 0000 0000
000000e0: b06b 1f2a 0000 0000 7e90 5539 e0f2 ac25
000000f0: 88a7 1328 2262 4539 1fa5 3a39 0000 0000
0.00016903777 1.62428e-13 4.2829808e-14 0.00017822746 0.0055071316 0.0001588844 0.0 0.00021722996
0.00018068016 5.913297e-14 0.0 0.00018241828 0.0 6.322702e-17 0.0 0.0
1.0175842e-13 0.00018527175 0.00016124394 2.3034626e-13 0.0 0.0 1.4929723e-18 0.005822901
0.0 0.0 0.0 4.7950245e-13 0.0056120125 0.0051096347 0.0 0.0
0.00024408451 0.0 0.0 0.005919544 0.0 4.2017286e-14 0.0 5.5809084e-16
0.0 1.6059492e-11 0.0 0.0001936297 0.0 8.3891284e-21 0.0 0.0054883976
0.0 0.0 5.8928335e-12 0.00017186296 0.0 2.422958e-14 6.614261e-14 0.0
1.4159398e-13 0.0 0.0002036709 3.0001822e-16 8.196467e-15 0.00018823941 0.00017799855 0.0
